model/artifacts/model_fp32.onnx (onnx, 972152 bytes, 8 tensors)

fc1.weight f4 [256, 784]
0.014883739 0.014884807 0.014867355 0.014886266 0.014867621 0.014874512 0.014863226 0.014880825
0.014885653 0.014859166 0.014885445 0.0148742795 0.014884121 0.014875373 0.014879307 0.01486889
0.014883833 0.0148736285 0.014863549 0.014875378 0.014863657 0.01486929 0.014864561 0.014882071
0.014858274 0.014863654 0.014866567 0.014861354 0.0148727475 0.014855014 0.014885993 0.014857274
0.014883857 0.014873969 0.015469708 0.015862048 0.015003801 0.014890274 0.014877693 0.014879137
0.014943463 0.015040725 0.015075565 0.01505181 0.014968936 0.015015733 0.015021886 0.0149405375
0.014905424 0.014868143 0.014862499 0.014865726 0.014858627 0.014884641 0.01487593 0.014877987
0.014876386 0.014870921 0.014884031 0.014857844 0.014871912 0.014860696 0.015725296 0.016128656
0.015536271 0.015691735 0.020744082 0.022627074 0.017681675 0.016845683 0.015701663 0.015018364
0.015219666 0.01730206 0.018805927 0.014621527 0.015192342 0.006575763 0.0053960965 0.01502195
0.014883396 0.014863078 0.0148799 0.014864587 0.014881144 0.0148673 0.014870941 0.014850788
0.014854829 0.014882074 0.02167061 0.020406783 0.016372414 0.018208766 0.015225393 0.013873371
0.014990504 0.014135881 0.0096590305 0.004880458 -2.786525e-05 0.0010827079 0.012672167 0.008477408
0.010572749 0.011208173 0.00934634 0.015236767 0.0148127945 0.01486366 0.014888986 0.014874311
0.014876251 0.014855911 0.014827183 0.014854223 0.015071695 -0.0031056427 0.0004327112 0.01425379
0.016959297 0.030056285 0.0096473135 -0.015062851 0.0054320265 -0.0015148093 -0.012854926 -0.015617393
-0.013558139 -0.0008116796 0.021227613 0.025435477 0.025259495 0.028959448 0.023468005 0.015182868
0.014876974 0.014802304 0.014874794 0.014867735 0.014877577 0.01485774 0.01487971 0.014853046
0.01641582 -0.01007658 -0.0029363115 0.009692664 0.03721722 0.020438598 -0.0025452094 -0.030868154
-0.02643347 -0.024485186 -0.020467646 -0.017320361 0.0022952503 0.026458481 0.03611055 0.027988022
0.024444755 0.028920857 0.02759943 0.01452022 0.014694056 0.0147380745 0.014826425 0.014885575
0.014874862 0.014862126 0.014861793 0.014843569 0.015355988 -0.01517432 -0.0043922565 0.027642198
0.028268222 -0.0023722074 -0.012847165 -0.02748203 -0.03109123 -0.024285793 -0.020513935 -0.010595513
0.017618088 0.028682612 0.020945786 0.0190279 0.023833258 0.025225589 0.029846499 0.020054566
0.015349119 0.010871017 0.014772701 0.014868555 0.014871443 0.014869926 0.014874255 0.014728254
0.01421067 -0.018330818 0.014299189 0.03960939 0.015089767 -0.008396042 -0.013788936 -0.019750776
-0.009191341 -0.005387735 -0.0010694904 -0.0011716502 -0.012986886 0.0026697554 -0.01932281 -0.016280422
0.0014666605 0.0039418335 0.017764678 0.008854877 0.016789388 0.009767846 0.014897567 0.014868566
0.014854863 0.014882128 0.014881199 0.01518013 0.013128371 -0.0041373237 0.018518269 0.026836948
-0.007099667 -0.020560712 -0.019365877 0.003528335 -0.002171502 0.00089595886 -0.003392801 -0.02409345
-0.020804813 -0.018244153 -0.024824863 -0.034715917 -0.016467245 -0.0051712138 0.0006980071 -0.017363377
0.0120282 0.010304835 0.014919268 0.014859092 0.014868304 0.01486309 0.0157225 0.015903108
00000000: edda 733c 68df 733c 3596 733c 86e5 733c
00000010: 5297 733c 3ab4 733c e384 733c b4ce 733c
00000020: f4e2 733c dc73 733c 15e2 733c 40b3 733c
00000030: 87dc 733c d6b7 733c 56c8 733c a59c 733c
00000040: 52db 733c 85b0 733c 3e86 733c dcb7 733c
00000050: b286 733c 539e 733c 7d8a 733c eed3 733c
00000060: 1e70 733c af86 733c e792 733c 097d 733c
00000070: d3ac 733c 7262 733c 61e4 733c ec6b 733c
00000080: 6cdb 733c f3b1 733c a874 7d3c 20f1 813c
00000090: 81d2 753c 56f6 733c 91c1 733c a0c7 733c
000000a0: 6dd5 743c 5f6d 763c 81ff 763c de9b 763c
000000b0: 4540 753c 8d04 763c 5b1e 763c 28c9 743c
000000c0: e135 743c 8399 733c d781 733c 608f 733c
000000d0: 9971 733c b6de 733c 2cba 733c cdc2 733c
000000e0: 16bc 733c 2aa5 733c 27dc 733c 516e 733c
000000f0: 52a9 733c 477a 733c 56d2 803c 3e20 843c
00000100: d88b 7e3c f48b 803c 7eef a93c 6a5c b93c
00000110: 29d9 903c f5ff 893c c6a0 803c 960f 763c
00000120: e85b 793c 0dbd 8d3c e30e 9a3c 218f 6f3c
00000130: 4de9 783c 8079 d73b bdd1 b03b a01e 763c
00000140: 7dd9 733c 4484 733c d3ca 733c 998a 733c
00000150: 0bd0 733c fa95 733c 3fa5 733c b850 733c
00000160: ab61 733c f1d3 733c 9086 b13c 202c a73c
00000170: 711f 863c 8d2a 953c ed73 793c 234d 633c
00000180: bb9a 753c 2f9a 673c e940 1e3c 40ec 9f3b
00000190: 2bc0 e9b7 a6e9 8d3a ec9e 4f3c d4e4 0a3c
000001a0: 5339 2d3c 7ca2 373c 6421 193c a2a3 793c
000001b0: 5db1 723c b586 733c eff0 733c 62b3 733c
000001c0: 85bb 733c 3566 733c b7ed 723c 205f 733c
000001d0: 45ef 763c 0a88 4bbb 84dd e239 ba88 693c
000001e0: 39ee 8a3c 9938 f63c c40f 1e3c 2dca 76bc
000001f0: 24ff b13b 918c c6ba 789d 52bc 18e0 7fbc
00000200: f522 5ebc e5c6 54ba 88e5 ad3c 105e d03c
00000210: 00ed ce3c 5d3c ed3c f93f c03c 90c1 783c
00000220: 8dbe 733c 5d85 723c 68b5 733c cd97 733c
00000230: 15c1 733c e16d 733c 07ca 733c 315a 733c
00000240: 787a 863c 3d18 25bc 226f 40bb fbcd 1e3c
00000250: 1571 183d d96e a73c 87cd 26bb 36df fcbc
00000260: 018b d8bc 2895 c8bc c4ab a7bc 6ee3 8dbc
00000270: e96b 163b 75bf d83c a8e8 133d 2347 e53c
00000280: 5e40 c83c 6feb ec3c 3318 e23c 38e6 6d3c
00000290: 56bf 703c f777 713c 89ea 723c a0e2 733c
000002a0: b1b5 733c 4680 733c e17e 733c 7132 733c
000002b0: af97 7b3c b69d 78bc ebec 8fbb e471 e23c
000002c0: c292 e73c 0977 1bbb ea7c 52bc ff21 e1bc
000002d0: 09b3 febc 00f3 c6bc d70c a8bc cd98 2dbc
000002e0: cf53 903c ccf7 ea3c 7f96 ab3c 66e0 9b3c
000002f0: f73d c33c e5a5 ce3c a580 f43c 7949 a43c
00000300: df7a 7b3c 5a1c 323c 3309 723c 3d9b 733c
00000310: 5aa7 733c fda0 733c 26b3 733c c64e 713c
00000320: dfd3 683c 832a 96bc 2547 6a3c 753d 223d
00000330: 123b 773c 8d8f 09bc fdea 61bc 61cc a1bc
00000340: 4797 16bc 998b b0bb 252e 8cba 0f92 99ba
00000350: f3c6 54bc 10f7 2e3b df4a 9ebc 855e 85bc
00000360: f63c c03a 7f2a 813b 3b87 913c 0c14 113c
00000370: e689 893c 5109 203c ed14 743c 499b 733c
00000380: d061 733c 2bd4 733c 46d0 733c 14b6 783c
00000390: 6118 573c 6392 87bb a0b3 973c 29d9 db3c
000003a0: 53a4 e8bb f06e a8bc 30a5 9ebc a33b 673b
000003b0: c24f 0ebb c8de 6a3a c159 5ebb a05f c5bc
000003c0: db6e aabc c374 95bc 835d cbbc 4732 0ebd
000003d0: 51e6 86bc 4973 a9bb 77fa 363a a43d 8ebc
000003e0: ed11 453c 9cd5 283c f26f 743c 8d73 733c
000003f0: 309a 733c 5184 733c 79cc 803c 3c47 823c

fc1.bias f4 [256]
-0.026890589 -0.013345161 0.026580568 -0.021985682 0.0051615704 -0.023838842 -0.020990485 -0.024040036
-0.024178479 -0.012382462 -0.030598598 -0.02675716 -0.028057236 -0.018899899 -0.005712276 -0.017559445
-0.01547052 -0.01179744 0.035100255 -0.021745684 -0.008604547 0.0126931975 -0.0051974338 0.018836211
-0.0037771948 -0.003639601 -0.038971234 -0.015014504 -0.019625045 -0.031776134 -0.002672207 -0.013854628
-0.014241673 -0.030314788 -0.029766627 -0.009886085 -0.0077017182 -0.023346096 -0.030633258 -0.017658228
-0.009261865 0.009992633 -0.0050526513 0.008123016 -0.0011781239 -0.015370224 7.204001e-05 0.0034885705
-0.014265027 -0.0011231148 -0.009730518 -0.0016536161 -0.014780683 0.011976397 -0.008729476 -0.011046544
-0.014276803 -0.026957517 -0.006649156 -0.0438102 0.032635804 0.0012809663 -0.005857395 -0.0071801967
-0.041197427 -0.0045119645 0.00042415224 -0.015388473 -0.0056724073 -0.0034811993 -0.0027354157 -0.016116975
-0.0023399026 -0.0069548497 -0.0054284646 -0.029534843 -0.042667154 -0.02097069 -0.034920707 -0.03667482
-0.03259196 -0.017999418 -0.008816787 -0.01167162 -0.011769455 -0.019385474 -0.015922392 -0.02614193
-0.0046907975 -0.0076735998 -0.028014626 -0.034598663 -0.0062309103 -0.018523304 -0.013045495 -0.013586097
-0.011576322 -0.0023479625 0.0007205324 -0.0025082035 -0.017755596 0.0017680447 -0.041265476 -0.032207374
-0.006156706 -0.03513477 -0.011557417 -0.045897156 0.00012867819 -0.004471718 -0.04059595 -0.03318907
-0.02129161 -0.043970454 -0.019232027 -0.015312444 -0.003710785 -0.009289128 -0.015580214 -0.029381085
-0.004451365 -0.005266888 0.0037465096 -0.010039589 -0.025950344 0.05333507 -0.0070951604 -0.022107782
-0.00539436 -0.012132813 -0.020358006 0.013691338 0.014933082 -0.025982425 0.010304912 0.008325287
-0.022089023 -0.00500249 -0.02662775 -0.005922472 -0.032884657 -0.019286739 -0.014590512 -0.026388505
-0.030395264 -0.0115265325 -0.05157377 -0.0020087613 -0.014453373 -0.041685518 -0.025197953 -0.023357656
-0.026438156 -0.012080179 -0.00921472 -0.0020050802 -0.023717353 -0.022230789 -0.01039741 -0.0052098753
-0.013920924 -0.03492288 -0.0002798855 -0.008813694 -0.015349797 -0.03195764 -0.008524432 0.010246005
0.0034583597 -0.03021497 -0.030591806 -0.006212379 -0.06682799 -0.021437304 0.022644049 0.0055973493
-0.01215113 -0.02226205 -0.0062969895 -0.012765809 -0.010972104 -0.010320518 -0.0061303102 -0.015104897
-0.023050692 -0.03041677 -0.0042107757 -0.014569763 -0.0016130033 -0.0010308007 -0.016882708 -0.023225732
-4.83436e-05 -0.02413239 -0.018857442 -0.028638741 -0.0122883925 -0.015559791 -0.0006213135 0.002450911
-0.0045768633 -0.014872238 -0.0466629 0.0135811595 -0.03970147 -0.003611869 -0.019499613 -0.0097282715
-0.029992271 -0.01003593 -0.010231603 -0.026113555 -0.029060513 -0.010544418 -0.010974369 -0.017327288
-0.005131809 -0.003975744 -0.025214143 0.032024737 -0.004035989 -0.0007591268 0.010497459 -0.027543783
-0.033174798 -0.032666687 -0.011719368 -0.00038332364 -0.009938044 -0.018128375 -0.013144405 -0.006962095
-0.011112925 -0.010438048 0.005878177 -0.021583995 -0.0032417527 -0.03016788 -0.011259584 -0.016860904
-0.012475811 -0.013499372 -0.0056533953 -0.0064226445 -0.01812875 0.0036043462 -0.020254062 -0.009700777
-0.043851674 -0.0035482524 -0.0061402796 -0.013337269 -0.0044364133 0.001923413 -0.008788886 -0.024087284
00000000: a749 dcbc aaa5 5abc 7ebf d93c 511b b4bc
00000010: 6422 a93b ad49 c3bc 3df4 abbc 9cef c4bc
00000020: f211 c6bc cfdf 4abc e9a9 fabc d531 dbbc
00000030: 4ad8 e5bc f6d3 9abc 0b2e bbbb d3d8 8fbc
00000040: 1078 7dbc 0d4a 41bc 49c5 0f3d 0124 b2bc
00000050: 16fa 0cbc 21f7 4f3c 3c4f aabb 664e 9a3c
00000060: d08a 77bb 5f86 6ebb 4da0 1fbd 65ff 75bc
00000070: b4c4 a0bc b127 02bd 3220 2fbb 86fe 62bc
00000080: e855 69bc b856 f8bc 24d9 f3bc 3ff9 21bc
00000090: b25e fcbb 5040 bfbc 99f2 fabc fda7 90bc
000000a0: 14bf 17bc 24b8 233c b690 a5bb 6616 053c
000000b0: 476b 9aba 64d3 7bbc 3014 9738 80a0 643b
000000c0: dcb7 69bc 7b35 93ba c06c 1fbc 26be d8ba
000000d0: ae2a 72bc a638 443c 1306 0fbc 90fc 34bc
000000e0: 40e9 69bc 03d6 dcbc 2ae1 d9bb 5372 33bd
000000f0: 1fad 053d 19e6 a73a 64ef bfbb db47 ebbb
00000100: a2be 28bd 1ad9 93bb c060 de39 ef1f 7cbc
00000110: 9adf b9bb d524 64bb a944 33bb bf07 84bc
00000120: 0d59 19bb 82e5 e3bb 43e1 b1bb 0ef3 f1bc
00000130: c1c3 2ebd b9ca abbc 0409 0fbd 5638 16bd
00000140: 267f 05bd 8473 93bc 4974 10bc 533a 3fbc
00000150: acd4 40bc 49ce 9ebc ad6f 82bc 9a27 d6bc
00000160: 43b5 99bb d272 fbbb ee7e e5bc 54b7 0dbd
00000170: aa2c ccbb 2fbe 97bc c6bc 55bc 3998 5ebc
00000180: 9daa 3dbc 46e0 19bb 1ce2 3c3a ac60 24bb
00000190: 2f74 91bc bcbd e73a fd05 29bd e1eb 03bd
000001a0: 31be c9bb 7ae9 0fbd 525b 3dbc a8fe 3bbd
000001b0: caed 0639 7d87 92bb f047 26bd 43f1 07bd
000001c0: be6b aebc 5d1a 34bd 7c8c 9dbc 0ce1 7abc
000001d0: a430 73bb 6d31 18bc 2744 7fbc 9ab0 f0bc
000001e0: c2dc 91bb dc95 acbb 0088 753b 177d 24bc
000001f0: d195 d4bc e075 5a3d 857e e8bb 611b b5bc
00000200: 2cc3 b0bb b5c8 46bc d5c5 a6bc a251 603c
00000210: e3a9 743c 18d9 d4bc efd5 283c c966 083c
00000220: 0af4 b4bc edeb a3bb 7022 dabc 4c11 c2bb
00000230: 10b2 06bd 39ff 9dbc 0b0d 6fbc b52c d8bc
00000240: 7dff f8bc c8d9 3cbc 043f 53bd 6ca5 03bb
00000250: d7cd 6cbc 6fbe 2abd f06b cebc 8e58 bfbc
00000260: d594 d8bc f1eb 45bc 56f9 16bc aa67 03bb
00000270: e54a c2bc 581d b6bc e659 2abc 9ab7 aabb
00000280: 9614 64bc 4b0b 0fbd 99bd 92b9 5067 10bc
00000290: b77d 7bbc 04e6 02bd 0faa 0bbc dcde 273c
000002a0: a6a5 623b 6285 f7bc ab9b fabc 3691 cbbb
000002b0: 1ddd 88bd 499d afbc 0380 b93c f869 b73b
000002c0: 8815 47bc e75e b6bc fa56 cebb af27 51bc
000002d0: 57c4 33bc 6417 29bc c5e0 c8bb 887a 77bc
000002e0: ced4 bcbc 972c f9bc 8cfa 89bb 04b6 6ebc
000002f0: 696b d3ba ef1b 87ba 9b4d 8abc e443 bebc
00000300: 8cc4 4ab8 4ab1 c5bc ec7a 9abc cb9b eabc
00000310: 4155 49bc 7eee 7ebc a5df 22ba 779f 203b
00000320: 83f9 95bb b0aa 73bc 9921 3fbd 8383 5e3c
00000330: 029e 22bd 1bb5 6cbb a7bd 9fbc 5463 1fbc
00000340: 5ab2 f5bc be6d 24bc 74a2 27bc 18ec d5bc
00000350: 5010 eebc 7fc2 2cbc d7cd 33bc f5f1 8dbc
00000360: bc28 a8bb f546 82bb e48d cebc 5f2c 033d
00000370: 5440 84bb 2300 47ba 89fd 2b3c 80a3 e1bc
00000380: 4ce2 07bd 81cd 05bd 9802 40bc d4f8 c8b9
00000390: 2dd3 22bc f581 94bc a15b 57bc 4922 e4bb
000003a0: fc12 36bc 5904 2bbc b99d c03b ebd0 b0bc
000003b0: 9673 54bb a122 f7bc 1e7a 38bc e11f 8abc
000003c0: 5867 4cbc 782c 5dbc 1e40 b9bb 0c75 d2bb
000003d0: bf82 94bc e536 6c3b d9eb a5bc 02f0 1ebc
000003e0: d09d 33bd cc89 68bb 6634 c9bb 9084 5abc
000003f0: 555f 91bb 081b fc3a 42ff 0fbc b252 c5bc

fc2.weight f4 [128, 256]
3.9594008e-05 -0.072317734 0.07264311 -0.002635759 0.06676083 0.08282085 -0.03741291 0.025216639
0.04160572 0.11499345 -0.08137684 -0.18023515 -0.12877257 -0.032568432 -0.0033025886 -0.14160813
-0.049594134 0.029387774 0.06459046 -0.21217294 0.016385004 -0.009796189 0.18771976 -0.08777701
-0.0333332 -0.0064573777 -0.019110538 -0.009075797 -0.06256839 0.117124975 0.024199981 -0.0032019531
-0.0031184428 -0.090979114 -0.075698234 -0.0069048554 0.025174972 0.012213652 0.023597974 0.024314737
0.0058963597 -0.041697152 0.05456755 0.07768457 0.0035763143 0.21461767 0.12570588 0.009640001
0.018862264 0.0005846584 0.09142696 0.058980882 -0.020729108 0.03468478 0.0036883715 0.040862747
0.05453162 -0.017000526 -0.008925611 -0.033271596 -0.10729952 0.16369538 0.008166575 0.01780003
0.11604731 8.503666e-05 -0.006788552 0.013684536 0.15627557 -0.0080582 0.0008948102 -0.010793844
-0.010622937 -0.09522122 0.0002637751 -0.019773178 -0.04375195 -0.1806997 -0.044563286 0.10801474
0.11687761 0.06479314 0.026913267 0.017739475 0.05043263 0.0023136302 -0.014564473 0.07744149
-0.0088391295 0.119501956 -0.051621336 -0.049731664 -0.1565692 0.012633387 0.030962197 0.05408544
0.06227119 0.009056677 0.06785761 0.109416045 0.026039628 0.009951251 0.0059639644 -0.003226977
0.017370846 -0.039074995 -0.008554309 0.021108337 0.04850807 -0.10896929 0.14070167 -0.052113608
0.037919573 0.2496411 -0.08709176 0.10628478 -0.010289529 0.005801391 0.008793692 -0.035166692
-0.12875748 -0.07773327 -0.12055819 -0.029446442 -0.0059351083 0.026708031 -0.01744948 -0.0497955
0.046027917 -0.009413985 0.039110407 0.056457285 -0.0045428127 0.09194753 0.009533945 -0.073151655
-0.017606013 -0.045584127 -0.057435013 0.04691552 -0.014975051 -0.026493262 0.02157315 -0.047373638
0.023773372 -0.010020879 0.02306588 0.0036009643 -0.101712435 0.17757113 -0.10974937 -0.04348858
-0.0061997394 -0.18938155 -0.1703564 -0.00080649735 0.019406516 -0.04353188 -0.008379399 0.110487334
0.05200837 -0.019765908 0.10731551 -0.106572784 -0.016914055 0.0053684358 0.020093005 0.080454916
0.17674142 0.000819087 -0.0018028122 -0.0050747846 0.03158803 0.029379746 0.0880286 0.09976867
0.014693537 0.0040215016 -0.01544919 -0.10731932 -0.02704141 0.07591688 0.038827613 -0.004502324
-0.028165177 0.032010384 0.006097542 0.025577856 -0.0063796556 0.20256265 -0.117810585 -0.0066097598
-4.3686043e-05 0.005096267 0.050740037 -0.056714218 -0.12800038 0.070625834 0.0007924541 -0.023303194
0.011075474 0.08594052 0.055397555 -0.09583062 -0.03310312 0.0016066034 0.019795071 0.010883719
0.10139266 0.021274587 0.12817998 0.04773921 -0.0336357 0.02412047 0.004772066 -0.00876858
0.04798013 0.03977112 -0.04595529 -0.027701544 -0.008756554 0.09873574 -0.08192061 -0.07427945
0.10903117 0.16231103 -0.08646744 0.085949264 0.017815547 -0.004047951 -0.005073322 0.048259843
0.025424598 0.022830637 0.026374143 -0.07803739 -0.028879538 0.06035557 -0.01824958 -0.010258845
0.024751898 -0.019386394 -0.2527798 -0.13082145 0.03599508 0.04377932 -0.028118739 0.023711232
0.09489106 -0.04577029 -0.0169529 0.00507022 -0.006856439 -0.12317333 0.01654515 -0.0062797135
00000000: be11 2638 521b 94bd e9c5 943d b3bc 2cbb
00000010: e7b9 883d fa9d a93d 483e 19bd 2093 ce3c
00000020: c26a 2a3d b081 eb3d e7a8 a6bd 908f 38be
00000030: f5dc 03be 7a66 05bd 3e70 58bb b901 11be
00000040: 3823 4bbd a1be f03c 0148 843d dd43 59be
00000050: d839 863c 3280 20bc 9c39 403e 6fc4 b3bd
00000060: 6588 08bd 6998 d3bb b48d 9cbc a7b2 14bc
00000070: db23 80bd 38df ef3d 0a3f c63c dcd7 51bb
00000080: ca5e 4cbb 4253 babd ad07 9bbd 2042 e2bb
00000090: be3b ce3c c51b 483c 8a50 c13c b32f c73c
000000a0: 4036 c13b a2ca 2abd 3982 5f3d 1619 9f3d
000000b0: 9960 6a3b bcc4 5b3e 0bb9 003e 18f1 1d3c
000000c0: 0985 9a3c c343 193a 0f3e bb3d f095 713d
000000d0: 17d0 a9bc a111 0e3d 9bb8 713b b25f 273d
000000e0: 8c5c 5f3d b044 8bbc ba3c 12bc cc47 08bd
000000f0: dabf dbbd c39f 273e 19cd 053c 5ed1 913c
00000100: 36aa ed3d b655 b238 8072 debb 1b35 603c
00000110: b406 203e 8a06 04bc b291 6a3a aad8 30bc
00000120: d40b 2ebc 5803 c3bd 4b4b 8a39 5cfb a1bc
00000130: 3f35 33bd 5809 39be fe87 36bd d536 dd3d
00000140: 875d ef3d 44b2 843d 3679 dc3c 6052 913c
00000150: 7292 4e3d 46a0 173b d49f 6ebc a599 9e3d
00000160: ffd1 10bc 71bd f43d e570 53bd 6eb3 4bbd
00000170: ad53 20be 44fc 4e3c 6fa4 fd3c b288 5d3d
00000180: 1310 7f3d 7562 143c eef8 8a3d 8515 e03d
00000190: 0f51 d53c 920a 233c 5c6d c33b b17b 53bb
000001a0: 4e4d 8e3c 1a0d 20bd 5f27 0cbc 64eb ac3c
000001b0: 66b0 463d 4b2b dfbd 1914 103e 1475 55bd
000001c0: 8e51 1b3d eba1 7f3e 2a5d b2bd d6ab d93d
000001d0: 6a95 28bc 9819 be3b 6b13 103c f30a 10bd
000001e0: 00d9 03be 9f32 9fbd 36e7 f6bd aa39 f1bc
000001f0: 4c7b c2bb cdca da3c 36f2 8ebc 5ef6 4bbd
00000200: c587 3c3d 1d3d 1abc 3c32 203d c13f 673d
00000210: e0db 94bb fd4e bc3d 4334 1c3c 89d0 95bd
00000220: 7c3a 90bc 6cb6 3abd fa40 6bbd 7d2a 403d
00000230: eb59 75bc 6608 d9bc 2dba b03c dc0a 42bd
00000240: 60c0 c23c 9d2e 24bc a8f4 bc3c 28fe 6b3b
00000250: 9c4e d0bd 35d5 353e 47c4 e0bd 1521 32bd
00000260: 2f27 cbbb 3ded 41be e871 2ebe 1f6b 53ba
00000270: 6afa 9e3c 7c4e 32bd bf49 09bc 2f47 e23d
00000280: bb06 553d 1dec a1bc 3cc8 db3d d542 dabd
00000290: 588f 8abc b4e9 af3b 169a a43c 8cc5 a43d
000002a0: b4fb 343e 00b8 563a 574c ecba 614a a6bb
000002b0: 7362 013d cbad f03c 5748 b43d 8453 cc3d
000002c0: 29bd 703c cdc6 833b 991e 7dbc 3bca dbbd
000002d0: f285 ddbc 4f7a 9b3d b409 1f3d 3b88 93bb
000002e0: a8ba e6bc 521d 033d e4cd c73b a788 d13c
000002f0: 6e0c d1bb 956c 4f3e ad46 f1bd af96 d8bb
00000300: 883b 37b8 96fe a63b c9d4 4f3d 2b4d 68bd
00000310: 8812 03be 47a4 903d b2bc 4f3a 57e6 bebc
00000320: e875 353c 9501 b03d 8ce8 623d d842 c4bd
00000330: 2397 07bd aa94 d23a 4629 a23c a051 323c
00000340: f4a6 cf3d 0b48 ae3c 9d41 033e 318a 433d
00000350: 96c5 09bd 4b98 c53c fe5e 9c3b 17aa 0fbc
00000360: d086 443d 0be7 223d 9d3b 3cbd 59ee e2bc
00000370: a677 0fbc f735 ca3d fec5 a7bd d31f 98bd
00000380: bc4b df3d dd34 263e d715 b1bd 2b06 b03d
00000390: e9f1 913c ada4 84bb 1c3e a6bb 1dac 453d
000003a0: 3f47 d03c 5107 bb3c 960e d83c 11d2 9fbd
000003b0: c894 ecbc 6737 773d 2580 95bc b714 28bc
000003c0: 7ec4 ca3c 37d0 9ebc 5b6c 81be 0ff6 05be
000003d0: 946f 133d f251 333d 4559 e6bc 0f3e c23c
000003e0: 3e56 c23d a179 3bbd cfe0 8abc 1724 a63b
000003f0: fbab e0bb 4d42 fcbd b289 873c 0ec6 cdbb

fc2.bias f4 [128]
-0.04751317 0.058050387 -0.023249594 -0.06654992 -0.00016574988 -0.0054869386 0.019096259 -0.08274601
0.022124125 -0.051346816 -0.0008720447 -0.06787851 0.016840521 0.011844474 0.11668645 0.06302524
-0.00093137927 -0.09484786 0.02014645 0.03680946 -0.024000209 -0.015722856 -0.021239422 0.08822851
-0.0056220405 0.09495586 0.13499048 -0.0247305 -0.16230953 -1.7038508e-07 0.010430225 0.09583352
-0.060752794 -0.08286382 -0.038585026 -0.09066493 -0.016097192 -0.04599461 -0.07293214 0.041778173
0.09131765 0.05959828 0.059939783 0.01680369 -0.013940431 -0.062139757 0.013321709 -0.083361864
0.17589812 0.053339016 0.09377303 -0.010416718 -0.0025701092 0.01412894 -0.028006516 -0.057953022
-0.024825461 0.021199849 0.06937866 0.19366713 0.074146494 -0.046545357 0.091319926 -0.05587104
-0.054266013 -0.0040786583 -0.058792144 -0.007212466 -0.06569546 0.10149416 -5.3164217e-06 0.12383349
0.06660085 0.0122445645 -1.7629667e-07 -0.075360686 -0.06683683 -0.012081163 0.02286164 0.1728638
-0.02085598 0.030510468 -0.06910479 -0.06541089 -0.014983144 -0.0062235235 -0.049024113 -0.09362453
0.066693656 0.106321536 0.06480075 0.09145113 -2.5899139e-05 -0.017599098 -0.08734164 0.0008559503
0.009525121 0.038992316 1.126029e-39 0.03635454 -0.06464733 0.054315675 0.021013148 -0.057345197
-2.50119e-40 -0.0031466542 -0.0067351433 0.10572298 0.06772858 -0.02148208 0.12421184 0.08316462
-0.08949953 0.015275489 -0.112235576 0.12857257 0.032120418 -0.041533437 -0.013559775 0.00198477
0.040825866 -0.08829705 0.08244407 0.061038066 0.047642276 5.819913e-39 -0.036140237 -0.09507998
00000000: 2b9d 42bd 3ec6 6d3d ef75 bebc 534b 88bd
00000010: 25cd 2db9 c7cb b3bb c26f 9c3c bd76 a9bd
00000020: a73d b53c 0a51 52bd ee99 64ba e303 8bbd
00000030: 22f5 893c 530f 423c 4ef9 ee3d 6113 813d
00000040: ce27 74ba 983f c2bd 2b0a a53c 84c5 163d
00000050: 169c c4bc 38cd 80bc 4cfe adbc 26b1 b43d
00000060: 1839 b8bb 3878 c23d f23a 0a3e 9e97 cabc
00000070: 7834 26be 18f3 36b4 89e3 2a3c 5d44 c43d
00000080: ecd7 78bd 82b4 a9bd 550b 1ebd 89ae b9bd
00000090: 42de 83bc d864 3cbd 725d 95bd 971f 2b3d
000000a0: c004 bb3d 531d 743d 6b83 753d e4a7 893c
000000b0: 6866 64bc 4286 7ebd 4c43 5a3c a0b9 aabd
000000c0: a31e 343e 037a 5a3d 130c c03d e2aa 2abc
000000d0: 476f 28bb 127d 673c ec6d e5bc 2660 6dbd
000000e0: c45e cbbc 4eab ad3c 6616 8e3d ad50 463e
000000f0: 1eda 973d 58a6 3ebd f105 bb3d 08d9 64bd
00000100: 0a46 5ebd 44a6 85bb 08d0 70bd 8d56 ecbb
00000110: 578b 86bd 2cdc cf3d b763 b2b6 6a9c fd3d
00000120: 0766 883d 6d9d 483c 0f4c 3db4 b456 9abd
00000130: bfe1 88bd 12f0 45bc 5648 bb3c 3503 313e
00000140: 29da aabc 17f1 f93c d086 8dbd 25f6 85bd
00000150: dc7b 75bc b3ee cbbb 82cd 48bd 38be bfbd
00000160: af96 883d 1bbf d93d 41b6 843d bb4a bb3d
00000170: fa41 d9b7 fc2b 90bc 2ce0 b2bd da61 603a
00000180: 410f 1c3c 68b6 1f3d e942 0c00 80e8 143d
00000190: d265 84bd 1d7a 5e3d c423 ac3c cce2 6abd
000001a0: 3bb9 0280 1938 4ebb 7ab2 dcbb 4a85 d83d
000001b0: 48b5 8a3d 30fb afbc c762 fe3d 3652 aa3d
000001c0: 884b b7bd 0b46 7a3c c4db e5bd 87a8 033e
000001d0: b390 033d f71e 2abd d229 5ebc ea12 023b
000001e0: 0639 273d 15d5 b4bd 70d8 a83d 0d03 7a3d
000001f0: 8c24 433d 8d5f 3f00 c907 14bd 4bb9 c2bd

fc3.weight f4 [64, 128]
-0.090393625 -0.042327415 0.02473966 0.010524515 -0.012904777 0.028248545 0.09376754 -0.17411636
-0.18412451 -0.09804259 -0.015316761 -0.046043888 0.107648514 -0.12883396 0.044333793 0.048045095
-0.0043444787 0.07653732 0.05949435 0.10161626 0.22046234 -0.13282561 -0.023020549 0.05423885
0.0049147042 0.18452653 0.07004124 0.046048652 -0.071626335 -0.004985107 0.09093663 0.0034823068
0.14901726 -0.12688781 -0.026543314 -0.18129134 0.021159679 0.07444813 -0.12491401 0.14584154
0.07818957 0.043798435 0.055131223 0.23338342 -0.026665282 -0.07042458 0.12574197 -0.25872925
0.11092757 -0.0379033 0.06125638 0.00051298237 0.03720605 0.11887772 -0.014682597 -0.1845198
0.11142586 0.09688825 0.06315704 -0.07239452 0.033058703 -0.24932134 0.037296727 -0.27713674
0.041526955 -0.032475773 0.033878375 -0.0018496887 0.07506841 0.07704213 0.0011208545 0.2179653
0.111113235 0.17067446 -0.00012654124 0.05455861 -0.006347143 0.09424267 -0.14191313 0.19842088
0.030628014 0.019199567 0.15680268 0.016956799 -0.011511948 -0.056570996 0.01679588 -0.079084195
-0.08314921 0.11550908 0.04069382 -0.13963605 0.00061729405 -0.032629576 0.13113186 -0.07257283
0.1939586 -0.13925418 -3.774187e-11 -0.0042693983 -0.060880087 0.14219332 0.14472508 0.030208105
1.8394141e-18 0.13541833 0.02055782 0.049723253 -0.015361964 0.037758015 0.1435506 -0.16667292
-0.087103404 0.076509625 -0.07897545 0.08257052 0.062174644 -0.12045211 0.00976036 0.016251666
-0.050018527 -0.021012869 0.16919681 0.09304209 0.12210099 5.829683e-35 0.0096569965 -0.024374478
-1.7102896e-06 -3.9065117e-25 -0.0002962137 -3.220452e-05 3.433952e-39 -4.536805e-39 -3.0791603e-14 -6.596477e-06
-6.400805e-05 -8.00356e-09 5.24417e-39 -8.6642694e-07 -2.6778978e-05 -1.8933499e-05 2.965402e-10 -3.068658e-12
6.224416e-39 -3.7299367e-07 4.031969e-22 7.516244e-25 -0.0011316957 -1.0056057e-09 -2.5549656e-07 3.7463487e-11
3.0393474e-35 -1.324257e-05 -0.0006990924 -1.1747241e-05 -0.00017320302 5.335745e-39 -0.00011467185 -5.3113927e-06
-2.7545613e-07 -0.00013613183 -0.00091079023 -9.084595e-09 -1.6124013e-10 -2.768072e-25 -0.00011589486 -2.0021607e-05
-6.122454e-05 -0.00011364345 -4.7641238e-09 -1.045891e-14 5.093426e-38 -3.4290286e-05 8.120946e-31 -5.846637e-11
-1.8240687e-05 -1.7559216e-06 -0.0001368192 -3.0261916e-07 -7.4561154e-05 -2.3063404e-07 -0.00078608515 -0.001117966
-0.0001580293 -1.7716497e-05 -8.9134155e-06 -0.00015061341 -0.00012469704 -5.0456737e-09 -0.00070475624 -1.1558796e-15
-7.1441445e-07 -0.00022896368 -5.455388e-12 -8.759924e-17 -0.00022915845 -0.0024440947 5.860325e-39 -0.00093304156
-0.00013362398 -0.001263655 4.599347e-39 -2.04541e-07 7.8683625e-23 -0.0016966587 -0.00023827361 -0.000507923
-1.5851341e-05 -6.1600963e-10 -1.5993423e-07 1.7449896e-18 1.2860757e-33 -8.004028e-09 -2.497695e-07 -2.3334924e-07
-9.130187e-06 -6.0720415e-09 -4.667236e-15 1.8850378e-07 3.116013e-39 -1.1288636e-38 -4.7829217e-06 -2.850312e-14
-2.1702715e-05 -0.00041932272 -4.588044e-38 -1.7338904e-06 -9.3942836e-05 -3.6587187e-07 -1.25809e-06 -0.00021047269
-4.1814e-39 -1.9723193e-21 1.8126984e-38 -5.544094e-05 -0.0008975504 -0.00024770395 -6.760816e-05 6.472268e-08
-1.7791314e-07 1.730917e-07 -1.280901e-05 -2.7620557e-08 -0.00018405667 -5.6763893e-05 2.9620273e-37 -6.582891e-08
-2.8340386e-09 -5.9732945e-05 -0.0002596641 -0.0013537393 -0.00048053564 5.14565e-40 5.46568e-40 -0.00025936565
00000000: 4b20 b9bd 835f 2dbd d4aa ca3c 046f 2c3c
00000010: 8f6e 53bc 7e69 e73c 3209 c03d 8f4b 32be
00000020: 238b 3cbe 8eca c8bd 27f3 7abc 8498 3cbd
00000030: d376 dc3d 0ded 03be 5a97 353d efca 443d
00000040: 215c 8ebb 99bf 9c3d 59b0 733d 301c d03d
00000050: e1c0 613e 7003 08be 9795 bcbc 8e29 5e3d
00000060: 870b a13b 86f4 3c3e c871 8f3d 839d 3c3d
00000070: d4b0 92bd 1c5a a3bb fc3c ba3d 6a37 643b
00000080: fb97 183e e1ee 01be 5d71 d9bc 70a4 39be
00000090: 1057 ad3c 4378 983d ebd2 ffbd 7c57 153e
000000a0: da21 a03d fd65 333d 47d1 613d 10fc 6e3e
000000b0: 2671 dabc c33a 90bd 81c2 003e 2978 84be
000000c0: fe2d e33d 7e40 1bbd f8e7 7a3d aa79 063a
000000d0: 5f65 183d 2976 f33d 468f 70bc c2f2 3cbe
000000e0: 3e33 e43d 596d c63d 7a58 813d 9443 94bd
000000f0: 9068 073d 184e 7fbe 74c4 183d dee4 8dbe
00000100: 2b18 2a3d 5105 05bd 0dc4 0a3d 4171 f2ba
00000110: 77bd 993d 44c8 9d3d a3e9 923a 4c32 5f3e
00000120: 568f e33d 49c5 2e3e 28b0 04b9 d978 5f3d
00000130: b2fb cfbb 4d02 c13d ad51 11be d82e 4b3e
00000140: 9ae7 fa3c 6948 9d3c e290 203e fce8 8a3c
00000150: 9c9c 3cbc fdb6 67bd 8397 893c e5f6 a1bd
00000160: 224a aabd 0690 ec3d 90ae 263d c1fc 0ebe
00000170: e7d1 213a 97a6 05bd 6e47 063e 10a1 94bd
00000180: 159d 463e a698 0ebe 91fd 25ae 4fe6 8bbb
00000190: 665d 79bd 209b 113e d032 143e fd76 f73c
000001a0: 8db9 0722 1aab 0a3e e068 a83c 9caa 4b3d
000001b0: bfb0 7bbc 26a8 1a3d eefe 123e 4eac 2abe
000001c0: 4563 b2bd 14b1 9c3d e1bd a1bd bc1a a93d
000001d0: d7aa 7e3d 99af f6bd ebe9 1f3c 3722 853c
000001e0: 3ae0 4cbd 2e23 acbc ee41 2d3e da8c be3d
000001f0: 1510 fa3d c4fa 9a06 6138 1e3c fcac c7bc
00000200: 1a8d e5b5 26cd f196 214d 9bb9 5713 07b8
00000210: 7664 2500 c466 3180 4dac 0aa9 4e57 ddb6
00000220: 0f3c 86b8 0780 09b2 9d1a 3900 6894 68b5
00000230: 6ba3 e0b7 61d3 9eb7 5306 a32f 07f0 57ac
00000240: 24c7 4300 dc3f c8b4 b3b7 f31b d29d 6817
00000250: 6855 94ba 9b35 8ab0 2e2b 89b4 23c4 242e
00000260: 7499 2106 682c 5eb7 4c43 37ba 0416 45b7
00000270: d59d 35b9 e319 3a00 fb7b f0b8 8438 b2b6
00000280: 67e2 93b4 9cbe 0eb9 19c2 6eba 7912 1cb2
00000290: 1049 31af da55 ab96 940c f3b8 13f4 a7b7
000002a0: ad65 80b8 dd53 eeb8 adb1 a3b1 3669 3ca8
000002b0: 00a8 8a01 ead2 0fb8 17c5 830d a491 80ae
000002c0: 9403 99b7 02ad ebb5 2077 0fb9 a977 a2b4
000002d0: b75d 9cb8 34a4 77b4 4811 4eba b788 92ba
000002e0: abb4 25b9 e39d 94b7 d48a 15b7 fbed 1db9
000002f0: 1bc1 02b9 375e adb1 64bf 38ba 6e94 a6a6
00000300: 30c6 3fb5 f815 70b9 c4f1 bfac 77fd c9a4
00000310: 414a 70b9 1b2d 20bb 34d0 3f00 5c97 74ba
00000320: 6a1d 0cb9 3aa1 a5ba 1c15 3200 cd9f 5bb4
00000330: ce3e be1a 6b62 deba 16d9 79b9 2326 05ba
00000340: 7ff8 84b7 d353 29b0 63ba 2bb4 ecc1 0022
00000350: 9caf d508 1682 09b2 0f18 86b4 8d8e 7ab4
00000360: db2d 19b7 3ea2 d0b1 a727 a8a7 8667 4a34
00000370: 2dee 2100 20ec 7a80 fc7c a0b6 dc5d 00a9
00000380: 3a0e b6b7 8bd8 dbb9 00cc 7981 05b8 e8b5
00000390: 2d03 c5b8 0c6d c4b4 a5db a8b5 55b2 5cb9
000003a0: 0b88 2d80 3406 159d a862 c500 4289 68b8
000003b0: 9649 6bba 43de 81b9 dbc8 8db8 abfd 8a33
000003c0: 6408 3fb4 16db 3934 47e6 56b7 3f42 edb2
000003d0: 56ff 40b9 c415 6eb8 cb95 c902 d35d 8db3
000003e0: efc0 42b1 c389 7ab8 8723 88b9 f46f b1ba
000003f0: 67f0 fbb9 669a 0500 9cf3 0500 78fb 87b9

fc3.bias f4 [64]
0.102276556 -1.1754024e-06 -2.4340118e-26 0.12583157 0.026940128 0.13840048 -0.047217816 0.030742297
-0.0117872115 -2.927717e-05 -0.05380054 -9.745595e-08 0.10161996 2.5747496e-16 0.04435416 -0.100432605
-0.034011345 -0.11223857 0.18008515 0.18494572 -0.008748188 0.10693879 0.107867174 -0.00056426146
0.0706757 -0.07359506 0.032120924 0.028525319 -6.078893e-06 -0.051037043 0.14661047 -1.5766273e-05
-0.0004935477 -0.0224291 0.0150072295 0.095410615 -0.03277796 -1.4778506e-36 0.0075276685 -0.00027796626
-0.017904704 -0.098621905 -0.031563833 -0.023960259 -0.06871625 0.1834923 -7.880944e-09 0.013399357
0.020164048 0.13086465 -4.728298e-05 -0.11336117 0.084101565 0.0046898546 -0.014330912 -3.5717953e-06
0.046564043 0.039520398 0.10199914 -0.08859765 0.018131055 -0.020665433 0.09379102 -0.000708854
00000000: 5f76 d13d 85c2 9db5 880d f194 fed9 003e
00000010: 8bb1 dc3c dbb8 0d3e 7867 41bd 45d7 fb3c
00000020: 261f 41bc 3e98 f5b7 f45d 5cbd fa48 d1b3
00000030: 201e d03d 996c 9425 b5ac 353d 9caf cdbd
00000040: 7b4f 0bbd 56dd e5bd 3e68 383e 6962 3d3e
00000050: 8f54 0fbc b902 db3d 77e9 dc3d f2ea 13ba
00000060: 6cbe 903d 02b9 96bd 3b91 033d eead e93c
00000070: 4bf9 cbb6 380c 51bd 0e21 163e d041 84b7
00000080: 6d61 01ba 3bbd b7bc e2e0 753c a466 c33d
00000090: 2f42 06bd 7971 fb83 a9aa f63b 00bc 91b9
000000a0: e3ac 92bc 48fa c9bd 1449 01bd 4e48 c4bc
000000b0: 1bbb 8cbd 68e5 3b3e c264 07b2 fa88 5b3c
000000c0: 132f a53c 6201 063e b751 46b8 e729 e8bd
000000d0: 713d ac3d 5aad 993b 34cc 6abc fab2 6fb6
000000e0: f0b9 3e3d 24e0 213d ede4 d03d af72 b5bd
000000f0: 9487 943c 8e4a a9bc 8215 c03d 63d2 39ba

fc4.weight f4 [10, 64]
-0.16313854 0.010679591 -0.0043317624 0.16019522 -0.013091222 -0.25267723 -0.22470327 0.06817857
-0.18363573 -1.7410335e-05 0.2146114 0.002107323 -0.1510891 4.483189e-08 -0.13508815 -0.074068435
0.02979211 -0.1418873 0.06275983 -0.102905594 -0.016203681 0.083047576 -0.2231858 0.005961387
-0.0193598 0.090652674 0.0014746109 -0.10764746 0.009685897 -0.026827227 0.08267968 0.0021779798
0.007614994 0.31449252 -0.04946476 0.15124348 -0.09542545 -0.0003754136 0.20018905 -0.15973346
0.0028390435 -0.057454336 0.12156396 0.031577293 0.05039125 -0.1933782 -0.00017302026 0.13743316
-0.09626005 -0.17400667 0.015333525 -0.025420493 0.10007887 0.12529942 0.04893244 -0.0055339164
-0.03899097 -0.15434507 0.1483972 -0.3143068 0.06015325 -0.24081028 0.16211857 0.21550676
-0.2918763 0.01601835 -8.92723e-05 0.06622867 0.052703958 0.048079107 -0.055572737 -0.0776124
0.10712215 -0.0041222638 -0.045187898 0.0012285127 -0.24904968 1.3449894e-08 -0.17005783 0.12867936
0.007856337 0.055476904 0.016086223 -0.26313558 -0.021743016 0.0002821442 -0.15279265 0.028668458
-0.040954974 0.17243905 -0.2182707 0.07017295 -0.046222445 0.22915985 -0.31539994 0.003835894
-0.020861764 -0.084130496 0.16060853 -0.0430713 0.1786838 9.0148365e-07 -0.004873981 -0.15503806
-0.014159368 -0.016312012 -0.2559674 -0.01691753 -0.1992492 -0.17798944 -0.001245511 -0.11187543
-0.13710676 0.20024998 -0.022906745 0.049310636 0.039144527 0.21008995 -0.18784192 0.019045064
0.15220611 0.1177024 -0.19018297 0.13821323 0.08584245 0.061521318 -0.12962922 -0.05009206
-0.1631031 0.014129591 -0.0017893811 0.16760013 0.10254234 0.13951728 0.16631305 -0.116570115
0.12327745 -0.016810974 -0.05170439 -0.024637958 -0.13644193 -3.2736723e-06 0.08882631 0.04905042
-0.00052707474 0.083886705 -0.23532717 0.05989997 -0.019799918 -0.15429942 0.15860671 0.021965599
-0.1249928 0.11790026 -0.07618956 -0.0095141055 -0.020054683 0.01051306 0.18813255 0.025732128
0.04141849 -0.16778292 0.032083824 -0.05282438 -0.007132299 -9.779141e-05 0.19776064 -0.1299167
0.0018561588 -0.10847138 -0.02170621 0.041447185 -0.031150216 -0.12885086 -0.0013801053 0.07091275
0.08910354 -0.20956679 0.021544132 0.15180282 0.049450845 -0.13132422 -0.11434563 0.007829235
-0.38043547 0.070584975 0.19659147 -0.19676109 -0.10933172 -0.22322485 -0.19198939 0.19274859
-0.010238953 -0.017370949 -7.76944e-06 -0.056974586 0.020401375 -0.17448165 0.18264896 0.12393387
0.174716 -0.011073968 -0.33857542 -0.003960868 -0.06557708 -6.669082e-06 0.06705701 -0.24731922
-0.09459321 0.169314 -0.04269455 0.021060567 0.0014749017 -0.03692391 0.033809673 -0.04861345
-0.0029853897 -0.11566718 -0.07012672 -0.22868407 0.0195994 -0.39111724 0.016275078 -0.002135738
-0.02822196 0.017446851 -0.27640554 0.016041156 -0.010760954 0.0007152131 -0.11643663 -0.13381422
-0.014129401 0.15415908 -0.034969922 -0.027700316 -0.14868891 0.100374356 -0.004216499 0.052212454
-0.115889564 -0.26120552 -0.0025530586 0.12779559 0.19327518 -0.036189895 0.10085835 -0.014997665
0.088099025 -0.11031248 -0.16264684 0.17109407 0.18112387 -0.14784469 -0.23853022 0.051655162
00000000: ca0d 27be 74f9 2e3c 75f1 8dbb 370a 243e
00000010: 917c 56bc e95e 81be 9d18 66be 35a1 8b3d
00000020: 010b 3cbe 690c 92b7 17c3 5b3e 031b 0a3b
00000030: 1ab7 1abe 2f8d 4033 8c54 0abe 31b1 97bd
00000040: 950e f43c e84a 11be 3a88 803d 2bc0 d2bd
00000050: 95bd 84bc d914 aa3d d18a 64be bd57 c33b
00000060: 7198 9ebc 1ca8 b93d bb47 c13a 4676 dcbd
00000070: 99b1 1e3c c6c4 dbbc f753 a93d 70bc 0e3b
00000080: 3387 f93b 2a05 a13e 8f9b 4abd 92df 1a3e
00000090: 6b6e c3bd 29d3 c4b9 5cfe 4c3e 2b91 23be
000000a0: 3f0f 3a3b 3d55 6bbd 87f6 f83d 3157 013d
000000b0: 0e67 4e3d ef04 46be c66c 35b9 47bb 0c3e
000000c0: fd23 c5bd ce2e 32be 7739 7b3c a33e d0bc
000000d0: 27f6 cc3d 7e4e 003e 626d 483d db55 b5bb
000000e0: ffb4 1fbd a20c 1ebe 70f5 173e d2ec a0be
000000f0: 4163 763d f896 76be 6902 263e cead 5c3e
00000100: cf70 95be ea38 833c b337 bbb8 e6a2 873d
00000110: 1be0 573d 99ee 443d 3da0 63bd 40f3 9ebd
00000120: dc62 db3d 0e14 87bb f216 39bd 0c06 a13a
00000130: e106 7fbe 4211 6732 a423 2ebe 86c4 033e
00000140: deb7 003c c03b 633d 41c7 833c b5b9 86be
00000150: 691e b2bc c1ec 9339 ad75 1cbe 1dda ea3c
00000160: 67c0 27bd dd93 303e 5b82 5fbe d6b6 8f3d
00000170: bf53 3dbd e1a8 6a3e 1a7c a1be 9f63 7b3b
00000180: 4ae6 aabc 9c4c acbd 9076 243e 886b 30bd
00000190: e3f8 363e 7cfd 7135 eab5 9fbb 4cc2 1ebe
000001a0: b2fc 67bc c5a0 85bc 290e 83be a296 8abc
000001b0: fb07 4cbe dd42 36be 6a40 a3ba f21e e5bd
000001c0: b765 0cbe 550e 4d3e eda6 bbbc f3f9 493d
000001d0: 0356 203d d221 573e a259 40be 6504 9c3c
000001e0: ebdb 1b3e f50d f13d 53bf 42be c587 0d3e
000001f0: 2bce af3d c7fd 7b3d 86bd 04be 552d 4dbd
00000200: 8004 27be cd7f 673c ab89 eaba 5e9f 2b3e
00000210: b801 d23d 9edd 0e3e f84d 2a3e 50bc eebd
00000220: e378 fc3d 2bb7 89bc fcc7 53bd 8bd5 c9bc
00000230: 6fb7 0bbe 43b1 5bb6 92ea b53d 18e9 483d
00000240: 632b 0aba cbcc ab3d 9bf9 70be ac59 753d
00000250: 7033 a2bc ab00 1ebe cc69 223e 33f1 b33c
00000260: 3afc ffbd b175 f13d 4609 9cbd 0de1 1bbc
00000270: b849 a4bc f83e 2c3c d2a5 403e 2fcc d23c
00000280: 6fa6 293d 49cf 2bbe 546a 033d 615e 58bd
00000290: 0fb6 e9bb 5d15 cdb8 c481 4a3e e208 05be
000002a0: 5b4a f33a 3e26 debd 39d1 b1bc 86c4 293d
000002b0: bd2e ffbc 7bf1 03be a6e4 b4ba b43a 913d
000002c0: eb7b b63d ad98 56be 527d b03c 3372 1b3e
000002d0: f88c 4a3d db79 06be 0b2e eabd 3146 003c
000002e0: 70c8 c2be db8e 903d 464f 493e bd7b 49be
000002f0: 4fe9 dfbd 0e95 64be de98 44be e35f 453e
00000300: 48c1 27bc 854d 8ebc 7e59 02b7 2f5e 69bd
00000310: c920 a73c 51ab 32be 5408 3b3e 0ad1 fd3d
00000320: c0e8 323e 976f 35bc c259 adbe 2bca 81bb
00000330: 474d 86bd fac6 dfb6 3055 893d 4041 7dbe
00000340: 16ba c1bd a660 2d3e 7be0 2ebd 3687 ac3c
00000350: 7d51 c13a 873d 17bd 037c 0a3d e61e 47bd
00000360: 87a6 43bb eae2 ecbd 999e 8fbd 282c 6abe
00000370: ec8e a03c 8540 c8be 5053 853c bdf7 0bbb
00000380: bd31 e7bc b3ec 8e3c 0785 8dbe be68 833c
00000390: b64e 30bc 237d 3b3a 5476 eebd 9806 09be
000003a0: 017f 67bc e1db 1d3e 9f3c 0fbd c6eb e2bc
000003b0: e841 18be 1291 cd3d 8f2a 8abb badc 553d
000003c0: 8257 edbd bbbc 85be 3751 27bb d9dc 023e
000003d0: eee9 453e db3b 14bd d38e ce3d c4b8 75bc
000003e0: 436d b43d 82eb e1bd e58c 26be 4933 2f3e
000003f0: 8978 393e 9964 17be 4441 74be 5d94 533d

fc4.bias f4 [10]
-0.041425444 -0.17080306 -0.06900456 -0.111001946 -0.026072431 -0.1316527 -0.1201134 -0.16664109
0.31198415 0.15013275
00000000: baad 29bd ffe6 2ebe 4352 8dbd fd54 e3bd
00000010: da95 d5bc f7cf 06be 04fe f5bd f6a3 2abe
00000020: 63bc 9f3e 66bc 193e
