model/artifacts/model_fp32.pth (torch, 448119 bytes, 8 tensors)

fc1.weight f4 [128, 784]
00000000: 2776 1700 c59b 0700 6c76 5982 f4c3 2780
00000010: f03d 8701 a89a c581 e32d 0380 df04 3200
00000020: 2695 4180 eb47 2180 a13f 1880 62f7 3b00
00000030: e63d 8cb4 d02f 7437 c76e 3580 d459 0801
00000040: bd6b 2a80 76e1 8601 0e8e 1280 eeaf 1080
00000050: 6efc 0780 d845 2380 0ea9 3480 1f0f 0700
00000060: d883 1380 eb96 3980 9e30 a381 700a 0e00
00000070: a479 6982 3b50 1300 50c4 0300 af7a 1780
00000080: 9007 9800 dc97 1a00 12b1 9133 2d2c 1f35
00000090: 5b35 db3c 376f cc3c dedc 8839 0e17 6f39
000000a0: d5ea e73b c224 803b cf39 d939 2a99 663b
000000b0: 27c0 333c 98b0 2f36 846a 093a 0e9f 0c3a
000000c0: 5be4 8738 daac 71b3 e266 2bb4 2aae 8235
000000d0: 507f 0680 bf09 2700 7631 0182 5a2a 0800
000000e0: c8fd 5681 38d4 9300 f22f 6cab a638 f9b1
000000f0: caad 1fa7 0daf 13a9 21c2 3a32 2bba 5439
00000100: 5403 db3c ede4 6f3c 9a83 17bc 941c 8a3a
00000110: e2f4 b8bc dc85 06bd 45da 243c 99f8 513c
00000120: 12ca b83c 5c4c bb3c 91a3 ae3c 170c 263c
00000130: aa0a 573b 9df3 1c3c 0a56 113c 5b18 0739
00000140: b7fb 50b7 f673 9735 4e6f 3b80 571b 1100
00000150: da60 2680 bcc8 e701 2141 9cbc 19aa e9bb
00000160: d146 0ab3 2a70 1736 bf9d b0b8 c3ca 61bb
00000170: 7680 273b e21f d53c b86e f93c 0895 4e3c
00000180: 97bc 1ebd 2e46 ea3b 2b01 c83d f393 353d
00000190: e578 473d a53e 4b3d 1789 1b3c ee7b 0abd
000001a0: 51ba 1abd 3862 36bc 2872 eb3b 1a74 d23c
000001b0: 99fe c83c 81bb d0bc 584a 98bc 1657 d581
000001c0: de12 2a00 a956 a8a2 3122 10bd 1568 8fbc
000001d0: 65f6 8135 a7b9 73bb 82aa 72bc c109 debc
000001e0: e342 c8bc 940e a43c ce1f e53c 1389 893c
000001f0: 7ccc 5d3a 380f 03bd 22d4 243b c58d 463b
00000200: 1438 403d 7e1e 61bc e790 82bd 6c20 b6bc
00000210: 1439 5aba 3ee1 533d aa6a 433c 345b 53bc
00000220: 33d3 21bd c7c6 0bbd 33fe 37bc e913 51b1
00000230: b2a2 2280 2fd8 1100 508e 56bc 5404 25bb
00000240: f7b1 93ba d471 cabc 380e 84bd aa29 63bd
00000250: eae1 e3bd 105e 12bd ef8a eb3b 92e8 e43c
00000260: d564 9f3c 754b 32bd dbeb 8e3d b4ec f33c
00000270: 0133 2c3d 6159 b33d 5e13 24bd a633 80bb
00000280: c65f b13b 08c2 09bd cdde 8dbd a8e1 b2bd
00000290: f08a 07bd 883b cfbb 2c34 d93b fa8b 642b
000002a0: a742 0502 1e1b 12a9 8b83 c933 a8cf 10bc
000002b0: ab16 98bc a25d 09bd 0b3b 9ebd 7dca a8bd
000002c0: c9a9 b3bd f279 82bd 5220 75bd bdae 22bd
000002d0: 7db3 47bc 33ec b6bc 16bd 1b3c 8784 773d
000002e0: db0b b43d 03c2 633d c096 e2bc baf4 a43c
000002f0: 69c5 8abb 25d1 a0bd 1c7e f8ba 699b 903c
00000300: e59a b03c fade 5f3c 14a3 96bb a0dc 9832
00000310: 3cf9 a281 3708 5933 2d48 f0b5 3612 53bc
00000320: ef92 f9bc 2961 42bd 1b1d d2bd 9c37 31be
00000330: 786f f6bd 8249 13bd 7e7c 1abc 166f eebc
00000340: 738b 9fbd 9040 73bd b9bb 0fbd 101e 013e
00000350: bb5f 503d 75ef c53d 1eb7 5b3d c7e3 c13c
00000360: 267b b73c 88f4 b6bc 51b0 883d 5a99 103c
00000370: 69d0 e13a c431 b7bc 1b14 7f3b b669 5d35
00000380: dfc1 2c00 578a 90ae 664b 10bb d8fe 94bc
00000390: db7f c6bc 35e6 23bd 53a3 e4bc aa5b 40bd
000003a0: 7cf6 0dbd 3888 a03d 7183 9d3d 8b73 863d
000003b0: 6e9e 5f3c f537 163c 9867 cebc f2a0 d8bb
000003c0: 0ff3 cd3b fb0d a6bb f63b babd 2be6 90bd
000003d0: d895 023d f0f6 9abc 71db 9bbd c401 80bd
000003e0: 05c9 39bd 60f2 b7bc 1f9a 403c 423a f135
000003f0: a0ac 1a00 b57b 94ae bf89 7ab9 4168 efbc
2.154601e-39 6.98728e-40 -1.5976628e-37 -3.651879e-39 4.9680044e-38 -7.258829e-38 -2.91968e-40 4.593522e-39
-6.022812e-39 -3.05637e-39 -2.226878e-39 5.507039e-39 -2.612207e-07 1.45546655e-05 -4.907021e-39 2.5043703e-38
-3.89574e-39 4.9547347e-38 -1.703999e-39 -1.53248e-39 -7.33403e-40 -3.239298e-39 -4.836091e-39 6.48273e-40
-1.792171e-39 -5.288762e-39 -5.9946506e-38 1.289441e-39 -1.7153046e-37 1.773656e-39 3.4593e-40 -2.156227e-39
1.3961708e-38 2.4422e-39 6.7842976e-08 5.92964e-07 0.02675884 0.024955375 0.000261045 0.00022801405
0.0070775547 0.003910632 0.00041432536 0.0035186508 0.010971106 2.6179823e-06 0.00052420073 0.0005364277
6.479836e-05 -5.6269393e-08 -1.5963045e-07 9.736443e-07 -5.96684e-40 3.58508e-39 -9.491618e-38 7.49877e-40
-3.9487671e-38 1.3575948e-38 -8.391058e-13 -7.253294e-09 -2.2159894e-15 -3.279239e-14 1.0870765e-08 0.00020287248
0.026734985 0.0146419825 -0.009247685 0.0010537081 -0.022577707 -0.032842502 0.010061805 0.012815618
0.022557292 0.02286356 0.021318229 0.010134718 0.0032812753 0.009579566 0.008870611 0.00012883676
-1.2456373e-05 1.1284126e-06 -5.458223e-39 1.571011e-39 -3.524493e-39 8.514404e-38 -0.019074025 -0.007130873
-3.2195036e-08 2.2566041e-06 -8.4217165e-05 -0.003445313 0.0025558746 0.02601618 0.030448303 0.012608774
-0.038754072 0.0071494794 0.09765848 0.04433055 0.04869928 0.04962029 0.009493134 -0.033809595
-0.03777534 -0.011131816 0.0071852393 0.025690127 0.024535464 -0.025480034 -0.018590137 -7.8368805e-38
3.863859e-39 -4.5628246e-18 -0.035188857 -0.017505685 9.682959e-07 -0.0037189515 -0.01481116 -0.02710426
-0.024445957 0.020026483 0.027969267 0.016788995 0.00084609515 -0.031996936 0.0025150855 0.0030296904
0.04692848 -0.01374018 -0.06375294 -0.022232257 -0.00083245453 0.05172848 0.011927286 -0.0129001625
-0.039508056 -0.034125116 -0.011230039 -3.042482e-09 -3.180771e-39 1.638755e-39 -0.013095453 -0.0025179582
-0.0011268248 -0.02471248 -0.064480245 -0.055459656 -0.11127074 -0.035734236 0.007188193 0.02794293
0.01945726 -0.043528993 0.069785796 0.029775955 0.04204083 0.08757282 -0.040057532 -0.003912407
0.0054130284 -0.03363231 -0.069272615 -0.08734447 -0.033091486 -0.0063242353 0.006628534 8.119613e-13
9.790425e-38 -3.2442033e-14 9.3837194e-08 -0.008838572 -0.018565496 -0.03353656 -0.07726105 -0.082417466
-0.08772618 -0.063709155 -0.059845276 -0.039717425 -0.012188789 -0.022329425 0.009505531 0.060429122
0.08791324 0.055604946 -0.027659774 0.020136226 -0.004234959 -0.07852391 -0.0018958482 0.01765223
0.021558234 0.013664002 -0.004597077 1.7795458e-08 -5.9867035e-38 5.053172e-08 -1.7902399e-06 -0.01288276
-0.030465571 -0.04745594 -0.10259458 -0.1730637 -0.1203298 -0.035958774 -0.009429095 -0.029105704
-0.0779027 -0.059387743 -0.035091136 0.12609124 0.050872546 0.096648134 0.05364143 0.023668183
0.022397589 -0.022333398 0.06674255 0.008825624 0.0017228249 -0.022362597 0.0038921896 8.2482745e-07
4.11031e-39 -6.572936e-11 -0.0022017597 -0.018187925 -0.024230888 -0.040014464 -0.02790991 -0.046962418
-0.034658894 0.07838482 0.07691086 0.06565007 0.013648612 0.009168615 -0.025195882 -0.006610983
0.0062850784 -0.0050675846 -0.09093468 -0.07075151 0.031881183 -0.018916577 -0.076102145 -0.06250337
-0.045357723 -0.02245444 0.011755495 1.7972854e-06 2.449649e-39 -6.7522356e-11 -0.00023893172 -0.029224517

fc1.bias f4 [128]
00000000: 39d9 04bd b423 5a3c 0a06 8f3d 0458 e43d
00000010: 6b1b 1f3c ea96 863e 39de 31bd afaf cab7
00000020: 0506 163e bea1 3fbd 779e 9c3c 1848 e73d
00000030: 61a2 7abd 657d d2bd 916e 593d aaf1 a93c
00000040: 10c0 4b3d 4a97 3d3c 8e9a 633c b9d9 043e
00000050: d447 14bc a7fc 9dbd a890 a43d bacd ccbd
00000060: ada4 223e 590a 2d3e ccd5 c3bc 3fb4 4d3d
00000070: c8b6 f73b d4c5 8cbd 8783 503d 9b83 893c
00000080: 78dc 2fbd 14b6 7bbd 3b75 8f3d c46d e73c
00000090: c8c7 5e3d c91d 0cbc 9926 2dbd ae97 a4bd
000000a0: 1a4f 05be 9653 433d a629 94bc c9f8 c6bd
000000b0: ec29 063b 7578 4d3c ee8f acbb 973e ad3d
000000c0: 5ce8 9c3a 0138 41bd 25c6 b33c 73d8 2e3d
000000d0: 72aa bc3c 4201 463d d75a adbd 1d7e 50bd
000000e0: 5553 19be eb50 e43d 5982 933b 48ff d73c
000000f0: 0560 763c 8bd0 833d aeca 2d3c 3308 793d
00000100: 9042 8dbd 58f0 ab3d f6c8 7a3e af5f 673d
00000110: cd16 0a3e 9bdd 3f3d e27d bebc da02 4d3d
00000120: 89f9 aa3b 075c 063e 13ba 4dbd 0de3 5c3d
00000130: f7ed abbd c9a8 c23d ff84 fcbd 492b a83c
00000140: 2aac 453b 0bfa 533c 4d13 013e 0166 ecbd
00000150: 7b1d 5b3d 5f34 973d 0892 4cbd 33be 753b
00000160: 307a fd3c 49be 993d eb28 39bd 3f63 17be
00000170: 1138 93bd b632 bf3d 8ee0 1b3d a138 1b3e
00000180: 8cba 0dbc 59f5 a63c 044b 0a3d f036 0d3d
00000190: 55bd 1bbd 4e82 543a 012f a4bd 5f9d 13bd
000001a0: 9af5 bd3d 8671 5e3d d13e 8f3d 33b3 103e
000001b0: 7f12 363e b340 2b3d 6838 46bc 8c77 153e
000001c0: f23f 04be 92f4 adbd 0e92 213e 7088 0e3d
000001d0: adfe 3a3d ea11 dc3d 1df7 093d 66f9 febc
000001e0: 03c6 013e ca25 243e 346e 673d 62db 74bc
000001f0: 56bd f83d 6b84 643e e634 cf3d 10b1 5f3e
-0.032433722 0.013314176 0.06983574 0.111496 0.009711127 0.26287013 -0.04342482 -2.4162086e-05
0.14650734 -0.04678511 0.01911853 0.11293048 -0.061190013 -0.10277823 0.05308396 0.020745117
0.049743712 0.011571715 0.013891829 0.1297368 -0.009050328 -0.07714205 0.080354035 -0.10000177
0.15883131 0.16898479 -0.023905657 0.050220724 0.007559631 -0.0687367 0.050906684 0.016786387
-0.042934865 -0.06145294 0.07004782 0.028250583 0.054389745 -0.008552023 -0.042273138 -0.08036743
-0.13018456 0.047687136 -0.018086266 -0.09715421 0.0020471765 0.012540926 -0.005266181 0.08459204
0.0011971104 -0.04717255 0.021945069 0.04268689 0.023030493 0.048341043 -0.08464592 -0.05090152
-0.14973195 0.111482464 0.0045016226 0.026366845 0.015037541 0.06436261 0.010607405 0.060798835
-0.068974614 0.08395451 0.24490723 0.056487735 0.1348526 0.0468422 -0.023253385 0.050051548
0.005217735 0.13121043 -0.050226282 0.05392747 -0.083949976 0.095048495 -0.123300545 0.020528452
0.0030162432 0.012938033 0.12605019 -0.11542893 0.05349491 0.07383036 -0.049943954 0.00374974
0.030942053 0.07506997 -0.045205038 -0.14783953 -0.07188428 0.09335844 0.03805595 0.15158321
-0.008650433 0.020380663 0.033762947 0.03447622 -0.038022358 0.0008106575 -0.08016778 -0.036038753
0.092753604 0.054307483 0.06994403 0.14130859 0.17780493 0.04180975 -0.012098409 0.14596385
-0.12915018 -0.08493914 0.15778372 0.034798086 0.045653034 0.10745604 0.03368293 -0.031124782
0.12673192 0.1603004 0.056501582 -0.014944883 0.12145488 0.22316138 0.101175115 0.21844888

fc2.weight f4 [64, 128]
00000000: 275d 0c3e 8e02 eabd 17f7 0e3d c2ca b93d
00000010: 2d24 fd3c 2abb e13d 8eb3 023d 786c 8038
00000020: 2aec a93d daac 1abd 825c 903d 6d15 993c
00000030: deff 98bd eb4d 723e 0960 07bc 91cb 4f3e
00000040: 1127 083d 2428 fd3c 0c78 38be 273d 5e3c
00000050: 6ad2 09be 7534 38bd a102 833d a4b5 ae3d
00000060: 868c 95bb 656c 31be 3ad5 a43d 66c0 a13d
00000070: f25a 3e3e d3d6 0fbd 8af1 bcbd fd8d 0d3d
00000080: d96e f2bd 15bb 8f3d 0b5a 543e d4e9 353b
00000090: 5e08 123e dca1 503d 1383 353d 8056 9a3c
000000a0: 64d2 0e3e a04f aebc 67dc 093e 287a adbd
000000b0: 9a2b 2f3e e72d fa3c d539 61bd 7212 a9bd
000000c0: c416 62bc b5b3 e43b becc f1bc 3a3b d53d
000000d0: 5076 08bc 880d ebbd afc8 d2bd f579 7abd
000000e0: 5a51 87bd cef5 8a3d 36f4 843e e211 ac3d
000000f0: 620a 8ebd 5360 3b3e 11fd cc3d 5509 a5bd
00000100: 63d8 f73d 0d09 0e3d d898 86be 0bd0 973d
00000110: 4825 03be 569f bb3d 6e14 293b fab3 933d
00000120: 7fee b03c 8df3 94bd 11bf be3d 7057 ff3d
00000130: 2805 723d b6b0 eb3c 471b 033d 0802 663d
00000140: 17ed 873e 8cdc a839 3382 9ebd 8a3c d13d
00000150: c719 a23d 2597 bdbc 7328 2bbd 166b 283e
00000160: 88c8 91bc a982 dc3d 8ecd 353c a162 433d
00000170: 009b f23c 17f3 1a3c f89f 6dbd 373c 48bd
00000180: ebcc 943d 9df9 2e3d 579c be3c 72cf 0e3d
00000190: 9bb1 1b3e 2154 c7bc efd1 1a3e e80f a6bc
000001a0: 7776 a03c e7b6 f63d 11e2 29be c168 813b
000001b0: 535b 31be 96f8 d53c e5b9 b4bc 912c 95bb
000001c0: 4c74 493e 76b8 f43d 6ee1 fc3d 1553 bf3d
000001d0: 6b80 253e 4923 f53a d2ce 24bd 401b 363e
000001e0: 4c74 dcbd 8e00 63be 82df 363e 59cc 053d
000001f0: 207f 6d3e 0925 85bd bc3c 3c3d 47d9 b2bd
00000200: 1c0a fc3d d007 82bd 7abc 5bbd bb9b 7e3c
00000210: 7452 c4bd d2d1 453e 76f2 b33d 1b56 8c3a
00000220: 079a e93d f76b 93bd ba4a af3a 8c81 d43d
00000230: f4fc 6abe 13cb 2f3e 61be 2a3e b441 e53d
00000240: ebfe f6bd 43d0 ad3d 59a9 5bbc cac3 53bd
00000250: b3c3 afbd ab8d 80be 00cd 7fbd d177 233e
00000260: df03 c53b 0d23 b2bc ef66 fc3d 0972 0b3e
00000270: 7827 8c3e cc5d 15be 9ac0 453e e333 0e3e
00000280: 45d8 08be 2c7e 953e a635 993d 03d7 85bd
00000290: 5756 cb3c 84fc d0bd cc98 a23c 2adc b43d
000002a0: 1243 35be c054 65be 4521 eabc 2112 24be
000002b0: a933 40bd 2581 01be 6b95 f13d c798 ebbc
000002c0: b3c9 db3d 2997 1abd d70d 66be 782b 083e
000002d0: 6171 fdb9 5911 99bd 0d29 22be 89d4 173d
000002e0: 0565 96bd bb85 47be 06d5 3b3e 3c35 363e
000002f0: f242 a8bb 8f33 043d 329d 043e 24db 42bb
00000300: 0b4d 60bd 70bd b83d 19ae ae3d 9f50 b4bd
00000310: 926f 5a3c e535 203e 6f96 1d3d b22e 30be
00000320: ff35 5a3c 6037 3dbc e2be 83be 630d 3d3e
00000330: b2b9 e13c 91b8 2e3e f416 16bb 2d11 b43d
00000340: 468d a93d f011 89be dfeb f33d 3ed6 7d3e
00000350: 7b31 01be 8213 103d bd33 f93c f871 12be
00000360: 2e1c 3d3d ee62 313e 7c53 29bc c770 ae3e
00000370: 406e 923e cdc7 aebd 62dc 97bd 4202 88bd
00000380: bf4a bfbd 2ad0 0abe fbed ae3c 89d4 b73d
00000390: cb73 403d d032 1bbe cd81 6b3d eff2 103e
000003a0: 49c3 473e 9be8 12bc 27c1 9bbd 3997 cd3d
000003b0: 678c ecbd cea2 bc3d 9e65 44bd 7317 b63d
000003c0: 2cdc 353d e18a 11bd cbcd 483e cdaf 993d
000003d0: deb8 1e3d ff76 993c 16f3 3f3e 3405 643d
000003e0: d762 d1bc 095b 3e3e 7861 cf3e ce05 833b
000003f0: 1cab 893d 7ff0 8c3d 330f ee3c 0bdd 1abd
0.1370741 -0.114262685 0.034903612 0.09071876 0.030901039 0.11022027 0.031909518 6.1237195e-05
0.08296998 -0.0377625 0.070488945 0.018686974 -0.07470678 0.23662536 -0.008262643 0.20292498
0.03324038 0.03090293 -0.18014544 0.013564385 -0.13459173 -0.044971902 0.06396986 0.08530739
-0.004563871 -0.17326505 0.08048482 0.07898025 0.1858938 -0.03511698 -0.092257574 0.03455924
-0.11837549 0.07018105 0.20737474 0.002775778 0.14261004 0.05093561 0.044314455 0.018840075
0.13947445 -0.021278203 0.13462983 -0.08470565 0.17106476 0.030539466 -0.054986794 -0.08255471
-0.013799373 0.0069794306 -0.029516574 0.10411687 -0.008328989 -0.1147719 -0.102921836 -0.061151464
-0.066073135 0.06785165 0.25967568 0.084018484 -0.06935574 0.18298464 0.10009206 -0.080584206
0.12101819 0.0346766 -0.26288486 0.07412728 -0.1280719 0.0916125 0.002579953 0.07212062
0.021598099 -0.07273016 0.09313787 0.12467849 0.05908695 0.028770786 0.032008436 0.05615428
0.26548073 0.00032207777 -0.07739677 0.10216625 0.07915073 -0.02314336 -0.041786622 0.164471
-0.017795816 0.10767109 0.011096371 0.04770148 0.029614925 0.009457371 -0.058013886 -0.04888555
0.072656475 0.04271852 0.023267908 0.034865804 0.1520447 -0.024332108 0.15119146 -0.020271257
0.019587738 0.120466046 -0.16590144 0.003949255 -0.17319994 0.026119512 -0.022061298 -0.004552432
0.1967327 0.11949246 0.12347685 0.093420185 0.16162269 0.0018702532 -0.0402363 0.17783833
-0.10764369 -0.2216818 0.17858699 0.032665584 0.23193026 -0.065012045 0.04595636 -0.087328486
0.12306616 -0.06349146 -0.053646542 0.015540059 -0.09586039 0.19318321 0.0878648 0.0010706814
0.114063315 -0.07198327 0.0013373711 0.103762716 -0.22948056 0.1716731 0.16674186 0.111941725
-0.120603405 0.084869884 -0.013407075 -0.05170039 -0.085822485 -0.25108084 -0.062451363 0.15963675
0.0060124244 -0.02174523 0.123243205 0.1361772 0.27373862 -0.14586562 0.19311753 0.1388698
-0.1336375 0.29197824 0.07480936 -0.06535151 0.024821443 -0.102044135 0.01984825 0.088310555
-0.17701367 -0.22395611 -0.028580317 -0.1602254 -0.046924267 -0.12646921 0.11796077 -0.028759373
0.107318304 -0.037741814 -0.22466217 0.13297832 -0.00048340394 -0.07474012 -0.15835972 0.037067924
-0.07343487 -0.19484608 0.1834298 0.17793745 -0.0051349336 0.032275733 0.1295059 -0.0029732669
-0.054760974 0.09020507 0.085293 -0.0880444 0.0133322645 0.15645559 0.038473543 -0.17205313
0.013318538 -0.011548847 -0.2573157 0.18462138 0.027554367 0.17062594 -0.0022901865 0.087923385
0.08278899 -0.26771498 0.11910223 0.24788758 -0.12616532 0.035174854 0.030420179 -0.14301288
0.046169452 0.17322895 -0.010334846 0.34070417 0.2859974 -0.08534203 -0.074150816 -0.06641056
-0.093404286 -0.13555971 0.021353712 0.08976085 0.04698543 -0.15156102 0.057496835 0.14155172
0.19508089 -0.00896659 -0.076052 0.10038609 -0.11550217 0.0921074 -0.047948472 0.08891191
0.044399425 -0.035532836 0.19609754 0.075042345 0.03875052 0.0187335 0.18745074 0.055669025
-0.025559826 0.18589415 0.4050405 0.0039984947 0.0672209 0.068818085 0.029059982 -0.03780846

fc2.bias f4 [64]
00000000: f933 f73d 5816 323d 7769 d43d 2e9c 933d
00000010: 7fe6 0495 dc5f e43d f66c e83b 54bb 233e
00000020: 1482 7d3e 717d 343d 3a58 733e a2f6 903c
00000030: e350 b63d d995 273e d857 e53c 85ba 35bd
00000040: 01c6 253d bb33 f13d ffb0 39bd 93bc 23bd
00000050: 8c72 7bbd addf 2c3e 636f 72bc f008 573e
00000060: fcec 763d c779 30b2 6c79 3fbd df76 173d
00000070: 5448 4dbd ac46 bbba e6c2 4e3e 9636 87bc
00000080: ebe2 cd3d 9307 883d 0531 41bc f15e 78bc
00000090: 36cd f43d 63f1 ed3d bd6c 823d f752 82bd
000000a0: df43 173e caf9 99bc df36 5abc 557e b23d
000000b0: 6f3d 3c3c 7996 ea3c c820 afbc 6a69 503d
000000c0: d191 f93d cd74 fbbb 3616 5d3d 2061 baac
000000d0: 203f 463d 9ccf 823a 910e 1bbd e189 203e
000000e0: f5b5 b2bc 09c1 873d f6f0 073b 48a0 033d
000000f0: aa2b 133e 1fa0 1c3d aeea c73d e71a 513d
0.1207046 0.04347834 0.10371678 0.07207523 -2.6839017e-26 0.11151096 0.0070930673 0.15989429
0.24756652 0.044064943 0.23764125 0.017695729 0.08902147 0.16365756 0.027995989 -0.044367332
0.040472034 0.11777445 -0.045334812 -0.03997476 -0.061388537 0.168822 -0.0147970645 0.20999503
0.0602846 -1.0272237e-08 -0.046746656 0.0369786 -0.050117806 -0.001428803 0.20191535 -0.01650552
0.10053047 0.0664207 -0.011791472 -0.015159355 0.119532034 0.116183065 0.063683964 -0.063634805
0.14771985 -0.018795867 -0.013318746 0.08715502 0.011489256 0.028636204 -0.021377936 0.05088178
0.121860154 -0.007673836 0.05397626 -5.297221e-12 0.048400044 0.0009980085 -0.03785569 0.15677597
-0.02181528 0.066286154 0.002074299 0.032135278 0.14372125 0.03823864 0.097615585 0.051051047

fc3.weight f4 [32, 64]
00000000: 6555 0c96 0110 1180 ea51 2180 e235 158e
00000010: 1609 3d80 0766 1180 b2bf 2180 cc7d 47a0
00000020: 44d3 5a89 4924 2180 2906 2280 0850 2580
00000030: d653 3680 8597 2080 55a1 9780 cb70 1b00
00000040: 1f32 1c80 8faa 1f80 c93c 3f80 f8c9 3e80
00000050: b6ef 0a00 fc60 3091 d2aa 0780 b10d ee9a
00000060: a170 4e8a c234 1780 f0cf 2900 9220 8a96
00000070: be8e 2080 dc8f 1880 6081 1e80 4169 1880
00000080: de5a 6897 9943 1b80 d2fc 1a80 577e 0300
00000090: e752 218d 4249 2e86 ec9e 3880 4993 1980
000000a0: df0e 2380 c3fb 0691 6d78 0580 ed06 2080
000000b0: 51d6 1300 fb04 2180 568d 3500 2170 2680
000000c0: 7876 1480 1f1b 1d80 08a3 e605 4d1c 4280
000000d0: 0e72 1480 7ddf 1b80 c91a 0b00 9f7c 1d80
000000e0: 58cf 2d00 bbe0 2780 a32b 1a80 1319 1e80
000000f0: 3060 1780 27a5 3180 a656 6703 4c58 1e80
00000100: c5da 223d e5de 45be 3f64 ff3d 2134 96bc
00000110: e891 8c31 d8d9 913c 2f73 b43d f5dc 013e
00000120: a862 cb3e 1706 6c3d 8c5a eb3c 4e4e ad3d
00000130: 4e38 ca3d fdea 7e3e cfbd 5f3d dd4b 81be
00000140: dab0 e9bd d0b0 7bbc df11 fc3e 6721 91bd
00000150: feeb a0be 17d6 d53d 8a72 303e f869 de3d
00000160: 0b1c 833d 0f23 70bb d67c 543d 96ce cabc
00000170: fa8b 0cbe 22f1 5fbe 707e 943e 9673 bfbd
00000180: d961 ec3d 50ca 2c3e 7e32 66be 4305 063d
00000190: 8594 5f3d 61f4 ca3e 1b90 713e 4820 4ebe
000001a0: 05ae a13b 52e6 3fbd 5dd1 f2bd 5d63 6cbd
000001b0: 621f f03d b89e e6bd 1864 bc3b 65a9 703e
000001c0: 95dc 143e 73bd cdbd 6530 363e 32ef 27a9
000001d0: 1c98 283e 811e 35be 7e20 8b3c 7e72 fa3c
000001e0: 4b5b 863c dddc a4bd af5f 31be d609 dabc
000001f0: f87f 983e 5e06 863e 6e0b e63d e7ec a03d
00000200: 9c55 ab3d 1daf d33e d5ea 21bd 2b25 933d
00000210: 1453 4c2f bf8a 1cbe 1a05 d23d 17a3 1f3e
00000220: d664 283c efd8 c9bd dbb9 1d3d 32db 4b3e
00000230: 75de 063d 02f5 fdbd 3c51 b4bd 9c8e 35be
00000240: f063 50bd aff4 20be 11c4 20be 3d4f 343d
00000250: af8b ccbd 86c6 073d 3ee1 d7bd 513f bdbd
00000260: cd24 633e fb16 acb9 df9a aa3c 3053 603e
00000270: e640 803e 08d5 d63d 8006 0fbe 6e41 3e3d
00000280: c324 023e 1124 673e 5a85 493d 88ce 5d3b
00000290: 496e 27be 4149 80be 1577 b43e 983f febd
000002a0: 0ad3 133d 46ce 133e abcf 813d a189 113e
000002b0: 6f48 4cbd 944d 873d c5c1 13bd 95cf 863c
000002c0: d384 b3be 7293 ccbc 5438 0bbc 081f 272b
000002d0: 0378 b63c 799b e23d 7258 193a f4ab 97be
000002e0: 005f f9bc 1500 1d3e fb36 dbbd 204b 0e3e
000002f0: caef c9be 2942 5d3e 947d 3e3e 5b54 fa3c
00000300: e4be 4a3e fff6 84bc 4964 0ebe 7555 0cbd
00000310: 4a69 45ba 5c11 b33e a9f8 883d f67f 0d3e
00000320: e1f9 ca3c 9c01 4dbe 74a7 4c3d 9a32 fabc
00000330: 583a 8e3e 4dd5 9c3e e1b1 8fbc ea63 95be
00000340: 0e59 bd3d b8a2 e23d 02bd 163f c9c6 b4bc
00000350: e551 823d db34 423e 9e50 ca3e bf0f 1d3c
00000360: eb21 20be 1b1a 5a38 5cd7 2dbc 6f90 0e3d
00000370: 45b7 51bd eeff 043e b2ed 9c3d cc57 8e3e
00000380: 23c5 2a3e fb99 f0bd 3549 a03e a244 8bbc
00000390: ca90 a83b 310c 773d d458 28bc cb2c 333e
000003a0: fcf6 7abe cfa1 dd3c 1081 863e 6fa0 083e
000003b0: 7ea3 953e 6e13 e3bd 03de 693c 603f a3be
000003c0: 878d 56bd 0385 56be d121 fdbc 2d16 b8b1
000003d0: 9c0a 54be caa2 443e 1d18 a1bc 718c d9bc
000003e0: bdb4 1d3d ddfb 14be 6a6b 633c 7c20 dbbe
000003f0: 1934 e7be 0cf8 63be a110 1b3e 04f0 c03d
-1.1336056e-25 -1.566945e-39 -3.059957e-39 -1.8391612e-30 -5.605225e-39 -1.597804e-39 -3.099339e-39 -1.6897578e-19
-2.6340132e-33 -3.043588e-39 -3.124617e-39 -3.426623e-39 -4.989191e-39 -2.993091e-39 -1.3925035e-38 2.520021e-39
-2.589374e-39 -2.908085e-39 -5.807442e-39 -5.766253e-39 1.004347e-39 -1.3913838e-28 -7.04127e-40 -9.845661e-23
-9.939722e-33 -2.131142e-39 3.839849e-39 -2.2315657e-25 -2.989942e-39 -2.255659e-39 -2.801476e-39 -2.24181e-39
-7.5077934e-25 -2.503808e-39 -2.478418e-39 3.20829e-40 -4.9711745e-31 -3.2779584e-35 -5.199798e-39 -2.348723e-39
-3.219577e-39 -1.0648316e-28 -5.02378e-40 -2.94122e-39 1.821757e-39 -3.032358e-39 4.917983e-39 -3.529973e-39
-1.879209e-39 -2.672959e-39 2.1688984e-35 -6.071295e-39 -1.877625e-39 -2.559731e-39 1.019799e-39 -2.707935e-39
4.206978e-39 -3.662202e-39 -2.403377e-39 -2.76406e-39 -2.146722e-39 -4.559185e-39 6.7984266e-37 -2.78674e-39
0.039759416 -0.19323309 0.12470292 -0.018335404 4.091124e-09 0.017804071 0.08811032 0.12681945
0.39723706 0.057622995 0.0287297 0.08462201 0.098740205 0.24894328 0.054624375 -0.25253192
-0.11410685 -0.01536198 0.49232385 -0.07086449 -0.31430048 0.10441225 0.17231193 0.10860056
0.06401833 -0.003664199 0.051876865 -0.024756711 -0.13725272 -0.21869329 0.29002714 -0.09348218
0.115421005 0.16874051 -0.22480199 0.03271986 0.054585 0.3963957 0.23590128 -0.20129502
0.004934075 -0.04685051 -0.11856339 -0.057711948 0.11724736 -0.11260742 0.005749237 0.23502119
0.1453727 -0.100459 0.17791899 -3.7288918e-14 0.16464275 -0.17687418 0.016983267 0.030572172
0.016400954 -0.08049939 -0.17321657 -0.026616018 0.29785132 0.26176733 0.11232649 0.078576855
0.08365938 0.41344538 -0.039530594 0.071848236 1.8583207e-10 -0.15287302 0.10254879 0.15589558
0.010277947 -0.0985583 0.038507324 0.19907835 0.032926995 -0.12400247 -0.08804557 -0.17730182
-0.050876558 -0.1571834 -0.15699793 0.04402088 -0.0998758 0.03314831 -0.105410084 -0.09240592
0.22182007 -0.00032823518 0.020825801 0.21906734 0.25049514 0.10489851 -0.13967323 0.046449117
0.12709336 0.22572352 0.04919944 0.0033845026 -0.16350664 -0.25055888 0.35247102 -0.12414473
0.036089934 0.14434156 0.06338438 0.14212658 -0.049873766 0.06606594 -0.036073465 0.016456405
-0.35062274 -0.024972651 -0.008497316 5.9373383e-13 0.022274023 0.1106481 0.0005849666 -0.29623377
-0.030440807 0.15332063 -0.10703846 0.13895845 -0.39440757 0.2160727 0.18602592 0.030557802
0.19799381 -0.016231058 -0.13905443 -0.034261186 -0.0007530643 0.34974182 0.06688053 0.13818344
0.024777355 -0.20020145 0.049964383 -0.030541707 0.27778888 0.30631486 -0.017540874 -0.2917779
0.092455015 0.110661924 0.58882153 -0.022067444 0.063632764 0.18965475 0.3951463 0.009586274
-0.15637939 5.1999563e-05 -0.010610428 0.03480571 -0.05120017 0.12988254 0.07662524 0.2780136
0.16676764 -0.117481194 0.31305853 -0.0170005 0.0051442133 0.06031436 -0.0102750845 0.17497556
-0.2450828 0.027054695 0.26270342 0.1334245 0.29226297 -0.1108769 0.014274123 -0.3188429
-0.052381065 -0.20949177 -0.030899914 -5.357626e-09 -0.20707172 0.19202724 -0.019664818 -0.026556225
0.038502444 -0.14549203 0.01388059 -0.4279822 -0.45156935 -0.22262591 0.15143062 0.09420779

fc3.bias f4 [32]
00000000: 63d0 0280 cd4f ab3d f070 8d3b 9dcc 333e
00000010: 2cdd ad3d 34fc 263e 9d4a c03c b208 d73d
00000020: a27b 0f3e d50c a0bc a6f0 8b3d 0863 4abc
00000030: 25aa 803d 0480 0b3e d645 2e3d c6c9 903e
00000040: f3d3 c2ba 3025 1680 bfa1 363d bc3e 393d
00000050: da39 0d3e 3e47 003e f067 6c3e 88a5 203e
00000060: 01ae ca3c 3187 293d 40d1 333d 8f89 243e
00000070: 31d5 e83d d858 293d f55a 1998 34e7 b13d
-2.58426e-40 0.0836483 0.0043164417 0.17558523 0.08489451 0.16307145 0.023473078 0.104997054
0.14012006 -0.019537369 0.068330094 -0.012352712 0.062824525 0.13623053 0.04254707 0.2827894
-0.0014864191 -2.033721e-39 0.044587847 0.045225844 0.137916 0.12527177 0.23086524 0.15688145
0.024741175 0.041388694 0.04390073 0.160681 0.11368788 0.041344494 -1.9820708e-24 0.086866766

fc4.weight f4 [10, 32]
00000000: 8587 3630 b143 bdbe 6254 9a3e b818 b0be
00000010: 0ae7 f2be 2980 cfbd acfd 313e 0bcc 993e
00000020: d28f e83d 133d 0bbf 7a4a 2e3e 5a84 36bc
00000030: 1f05 b5bd 8f1f 343e 93e1 573d 4bc9 6abe
00000040: 2dda 08bc 80e0 a4ab 5219 603e 1d77 9b3e
00000050: d9eb b2be de05 c03d 2a6e 70bd 72c3 1dbf
00000060: 08d9 f63d 12a2 593e 9653 ac3e 71b7 343e
00000070: b791 57be 9b92 323d 3706 5023 5220 b1be
00000080: 6cc6 b532 4988 aabe 464e cdbe c80d a5bd
00000090: b585 5f3e 3171 a2be 4ae3 7b3d 18b6 b7be
000000a0: e11a cabe 8a90 533e 2885 6e3e 5eff 803c
000000b0: dde7 c5bd 1e0d 283d 08af 563e 5407 683d
000000c0: e32a 15bd b484 d2b3 d688 ae3e dbcb a0be
000000d0: 3c08 c9be 11d6 27bd 49ae 1b3e 1820 4f3e
000000e0: f5ba cd3d b4ad 9bbd 32dd 77be a374 d9be
000000f0: 2e12 b4be 66d7 47be ad18 0ea8 8d14 7c3e
00000100: d9ac 07b3 b8a6 fabd d11d 9f3e 6f3d f8bb
00000110: 85c9 773d d26b eb3d e8d8 713e 1d27 73be
00000120: 147f 373e 9a9b 85be 5dc8 d7bd aa31 703c
00000130: b937 a4be 35bd b33c dbf7 303d 77ee 0f3e
00000140: 93bf 1d3d d6e6 adb5 2f61 c3be cd70 a03e
00000150: f710 8d3e b30d 96be fb16 cdbe 8c0c 61bd
00000160: 4433 b13e 0fe8 123d 75e9 83bd 9e11 99bd
00000170: d0ce a6be 5916 9ebe 6643 21af e429 4a3e
00000180: 936d b032 e46c b0be 3a73 253d c04d 893e
00000190: 7069 783d 49c9 14be 6175 07be 48fa b73e
000001a0: 6989 37be b496 763e 1e5e 23bf e3fb 6b3d
000001b0: 2727 8fbe 18fe b2be 5367 6bbc b370 81be
000001c0: f72f 933b b7ea e535 bbf5 793d a58c 17be
000001d0: 7b96 833e 8dd3 ee3d 91cc 82be 22ab 7c3e
000001e0: db98 3c3c b7cd 543e b73e 23bd 3386 473e
000001f0: fbcd e53d c601 5a3e cb98 0db8 87fa 78bc
00000200: dadb dd32 cd18 943d 9d1a 51bc 1f39 26bf
00000210: e573 6bbe 3105 9e3e b66d 0bbf 01f9 b2bd
00000220: 8a2a f0be 0bd1 9dbc 1acb dfbd c938 1cbc
00000230: f1e4 973e 2084 b03e 3a4d 8fbe 1fcc 413e
00000240: 926f eebc 4034 5830 a49d 6fbe 1562 d7bd
00000250: 2f45 cdbe db1f 9dbe 1faa 4e3e 4bb9 4e3d
00000260: 66cc a7bc e6d3 343e 8706 94be b372 0dbf
00000270: 50bf 853e 2c0b 04be 1621 ec2b a9b1 abbd
00000280: 0302 85b5 4d9d 963e edf6 7ebc 6371 663e
00000290: dd3b 5f3e 82d0 e3bd fb7a a33e 1aec 63be
000002a0: ec66 743e 7014 2a3c 5b40 123e c9af 84bd
000002b0: de39 50be b3ff cfbe 4bdb 15be d7af 80be
000002c0: 6375 fa3c 8940 ffb1 1f99 1d3e e801 1fbe
000002d0: fc04 b4be c173 4b3e b077 193c c399 283e
000002e0: eaa7 62be 44a0 c43d 4c74 3dbe d5e6 533e
000002f0: b12d c63e dd8a 46be 1581 8b37 9cf4 eebe
00000300: ed01 31ad d906 8f3e f79e c83d 8ee7 26be
00000310: feda 9cbe f417 23bf 1e5f b03d a335 79be
00000320: b19a 72bd 7a74 e7be b2ff 493e 637b c33c
00000330: 929c 893e 9131 f13d 578e ac3e 5ec2 29bf
00000340: 560d b3bc 66ad 47a2 b6c0 453d c7b4 413c
00000350: 0b3e adbe 844d 5e3d 420b 42be 5508 973d
00000360: 621e 9bbe 4a4a a5be ebd2 d03e 617d 7abe
00000370: f229 1f3d dce7 63be 4305 2920 b609 3c3d
00000380: 8411 30b0 1b96 acbe f709 72be 3a7f 3ebd
00000390: 21b8 83be aaef 12bf 7118 a83e df46 1a3e
000003a0: 7a25 c6bd 04a1 1a3e b46b bf3e db7f 76bc
000003b0: 6783 1fbe b612 893e b68f b8be d35f 4d3e
000003c0: bebe 8a3d 9f84 3937 f381 53be ca99 c0be
000003d0: e009 3e3d 1dc6 14bf e6c6 d5be ec0a 33be
000003e0: 7134 453d 313f 893e bb9c b7be c3f5 7abd
000003f0: 04f7 423e 43dd 873e 56af f42c c32f f23d
6.64038e-10 -0.36965707 0.30142504 -0.3439386 -0.47441894 -0.101318665 0.17381924 0.30038485
0.113555565 -0.54390067 0.17020598 -0.0111399535 -0.088388674 0.17590164 0.05270536 -0.2292835
-0.008352798 -1.1715212e-12 0.21884659 0.30364314 -0.34945562 0.09376119 -0.05869881 -0.6162635
0.12053114 0.21253231 0.3365752 0.17648102 -0.2105168 0.043596845 1.1277019e-17 -0.3459497
2.1161405e-08 -0.33307102 -0.4009878 -0.08059269 0.21828349 -0.31726983 0.061496057 -0.35881114
-0.39473632 0.20660606 0.23292983 0.015746769 -0.09663365 0.041028135 0.20965207 0.056647614
-0.036417853 -9.8030256e-08 0.34088773 -0.3140553 -0.39264095 -0.040975634 0.15203203 0.20227087
0.10045425 -0.076014906 -0.24205473 -0.424718 -0.3517012 -0.19515762 -7.887934e-15 0.24617215
-3.158934e-08 -0.1223883 0.31077436 -0.007575683 0.06049492 0.114951745 0.236179 -0.2374539
0.1791957 -0.26095277 -0.10536263 0.014660278 -0.32073763 0.021940807 0.043205123 0.14055811
0.038512778 -1.2956687e-06 -0.38160083 0.3133606 0.27552006 -0.29307327 -0.40056595 -0.054943606
0.34609425 0.03586584 -0.06441013 -0.07474063 -0.3257966 -0.30876425 -1.466681e-10 0.19742543
2.0538925e-08 -0.34458077 0.04039309 0.2681713 0.060647428 -0.14529909 -0.1322837 0.35933137
-0.17923512 0.24080926 -0.63815486 0.057613265 -0.27959558 -0.34959483 -0.014367896 -0.25281295
0.004491802 1.7130141e-06 0.061025362 -0.14799745 0.25700745 0.11661444 -0.25546697 0.24674657
0.011511053 0.20781599 -0.03985473 0.19484787 0.11220928 0.21289739 -3.375932e-05 -0.015196449
2.5827763e-08 0.07231293 -0.012762693 -0.6493091 -0.22993429 0.30863336 -0.5446428 -0.087389
-0.46907455 -0.019264719 -0.109274104 -0.009535023 0.29666856 0.34475803 -0.27988607 0.18925522
-0.029105935 7.8654594e-10 -0.23399979 -0.105167545 -0.40091845 -0.30688366 0.20182084 0.050469678
-0.020483207 0.17658958 -0.2891123 -0.5525314 0.26122522 -0.12894887 1.6777992e-12 -0.08383495
-9.909858e-07 0.29416886 -0.015561801 0.22504191 0.2180018 -0.11123754 0.31929764 -0.22258034
0.23867387 0.010380849 0.14282362 -0.06478841 -0.20334575 -0.4062477 -0.14634435 -0.25134155
0.030573552 -7.4288136e-09 0.15390442 -0.15528071 -0.35160053 0.19868375 0.009366915 0.16464905
-0.22134367 0.09600881 -0.18501395 0.20693524 0.38706735 -0.1938891 1.66302e-05 -0.46670997
-1.0061713e-11 0.27934912 0.09795945 -0.16299269 -0.30635828 -0.63708425 0.08611892 -0.24336867
-0.059229556 -0.45206052 0.19726446 0.023862546 0.26877266 0.11777032 0.33702347 -0.66312206
-0.021856945 -2.7061325e-18 0.048279487 0.011822886 -0.33836398 0.054273143 -0.18949607 0.07374636
-0.30296618 -0.3228324 0.40785918 -0.24461891 0.03885836 -0.22256416 1.4316598e-19 0.0459077
-6.405332e-10 -0.3370827 -0.23636614 -0.04650805 -0.25726417 -0.5739695 0.32831147 0.15066098
-0.09675117 0.15100485 0.37386858 -0.015045132 -0.1557747 0.26772088 -0.36047143 0.20056085
0.067746624 1.10577375e-05 -0.2065504 -0.37617332 0.046396136 -0.58114797 -0.4175331 -0.17484635
0.048145715 0.26806024 -0.35861763 -0.061269533 0.19039541 0.26535997 6.9543633e-12 0.11825516

fc4.bias f4 [10]
00000000: cf8e 23be 790d db3d bf6c 673c 0460 25be
00000010: ebf4 593e b24f 69bd 09d8 d9bb 6cc0 07be
00000020: 1754 cc3c 7b33 8a3e
-0.15972446 0.10695929 0.014125048 -0.16149908 0.21284835 -0.05696077 -0.006648068 -0.13256997
0.02494244 0.269924
