model/artifacts/model_fp32.onnx (onnx, 972152 bytes, 8 tensors)

fc1.weight f4 [256, 784]
000000 58 52 aa 3c e7 6d aa 3c ba ad a8 3c 39 93 aa 3c
       0.020791218 0.020804359 0.020590652 0.020822154
000010 28 b4 a8 3c 59 65 a9 3c 65 43 a8 3c b7 07 aa 3c
       0.020593718 0.02067821 0.020539949 0.020755632
000020 98 83 aa 3c 6d db a7 3c 62 7e aa 3c 39 5f a9 3c
       0.020814702 0.020490373 0.020812217 0.020675289
000030 89 4d aa 3c af 63 a9 3c df e9 a9 3c 8e d5 a8 3c
       0.020788925 0.020677416 0.020741401 0.020609643
000040 00 55 aa 3c a9 4e a9 3c d3 4b a8 3c bf 7b a9 3c
       0.020792484 0.02066739 0.020543968 0.02068889
000050 5e 4e a8 3c 0d df a8 3c 66 65 a8 3c bd 27 aa 3c
       0.02054518 0.020614171 0.020556163 0.020770902
000060 fa c3 a7 3c 44 4e a8 3c 81 99 a8 3c 33 13 a8 3c
       0.020479191 0.020545132 0.020581009 0.020516967
000070 24 38 a9 3c 70 70 a7 3c aa 8c aa 3c 9c aa a7 3c
       0.020656653 0.020439357 0.020819027 0.020467095
000080 81 55 aa 3c 81 57 a9 3c e0 c5 a8 3c af 79 aa 3c
       0.020792725 0.020671608 0.020602167 0.020809976
000090 0f 44 ab 3c 74 f9 aa 3c 1a b6 a9 3c 53 9d a9 3c
       0.020906476 0.020870902 0.020716716 0.0207049
0000a0 ec f5 ac 3c 98 34 ab 3c 51 3d b6 3c 47 70 e4 3c
       0.021113358 0.020899102 0.022246035 0.02788557
0000b0 de a7 b6 3c 4c 7e bb 3c 36 c7 ba 3c 0c f2 ae 3c
       0.022296842 0.022887371 0.02280007 0.021355651
0000c0 0f f0 aa 3c b1 95 aa 3c a8 ac a8 3c d7 79 a8 3c
       0.020866422 0.020823332 0.020590141 0.02056591
0000d0 62 cd a7 3c e3 69 aa 3c b4 89 a9 3c d3 be a9 3c
       0.020483676 0.020802444 0.020695545 0.020720875
0000e0 8e 95 a9 3c 15 09 a9 3c ff 59 aa 3c 95 63 a5 3c
       0.020701196 0.020634213 0.020794867 0.020189086
0000f0 62 52 a8 3c 41 05 a8 3c 22 75 aa 3c 93 23 aa 3c
       0.020547096 0.020510318 0.020807806 0.020768916
000100 ae 37 b0 3c 21 d0 ad 3c d5 6b ac 3c 79 ea b2 3c
       0.021510925 0.021217408 0.021047512 0.02184032
000110 68 4e 74 3c d4 9c 13 3c 59 1b 9e 3c 0b 6e dc 3c
       0.014911272 0.009009559 0.01930015 0.026907941
000120 83 5e c7 3c 03 68 df 3c 89 67 f3 3c 79 2e de 3c
       0.024337059 0.027271276 0.029712455 0.02712177
000130 6b 9c b4 3c a7 94 ab 3c 6a 27 b6 3c 97 ab ae 3c
       0.022047242 0.020944906 0.022235591 0.021322055
000140 d6 a5 b2 3c 02 27 af 3c cd ef a9 3c 2a 66 a8 3c
       0.021807592 0.021380905 0.020744229 0.020556528
000150 f3 0f aa 3c 81 ac a8 3c 3a f6 a9 3c dc 5b a0 3c
       0.020759558 0.020590069 0.020747293 0.019575052
000160 24 3d a5 3c f9 23 b4 3c 0c db be 3c dc c9 b1 3c
       0.020170756 0.02198981 0.023297809 0.0217027
000170 d4 55 aa 3c 24 2c ac 3c 49 ea 9f 3c 02 4d 95 3c
       0.02079288 0.021017142 0.019520896 0.018225197
000180 06 ce ce 3b dd ba 4f bc 96 5c 21 bc ca 6e a1 bc
       0.006311181 -0.012678829 -0.009848734 -0.019706149
000190 ae 5c dd bb e5 c8 73 bb 75 7d 1e 3d c3 c3 8d 3d
       -0.006755433 -0.00371986 0.038693864 0.06922104
0001a0 0a c1 a0 3c 76 ab 81 b7 0f 0e a8 3a af 92 c2 3b
       0.019623298 -1.5457841e-05 0.0012821573 0.005937896
0001b0 12 c9 a2 3c 87 8a b0 3c a7 dc aa 3c f1 5f a9 3c
       0.019871268 0.02155043 0.020857168 0.020675631
0001c0 2c 92 a9 3c 96 87 a7 3c 61 e8 a7 3c 2e 45 a8 3c
       0.020699583 0.020450395 0.02049655 0.0205408
0001d0 45 7f a3 3c 40 5c 13 3c 9e e9 c4 3b 33 db 1a bb
       0.019958148 0.008994162 0.0060092947 -0.0023629188
0001e0 69 2e 5b b9 90 d7 2c 3c 71 c4 b7 ba a7 1d 98 bc
       -0.00020902757 0.010549441 -0.0014020336 -0.018568827
0001f0 f0 19 86 bc 6a 96 ea 3a 24 ca a8 bc 59 da 71 bd
       -0.01636979 0.001789761 -0.0206042 -0.059046123
000200 4a 14 9e bc a0 f2 0a 3b 66 c4 23 3d 50 d5 ba 3c
       -0.019296784 0.0021201745 0.039982222 0.022806793
000210 91 19 e3 3b 58 a2 dd 3b 29 b5 0d bc 47 5f 03 bc
       0.006930538 0.0067637376 -0.008649149 -0.008018321
000220 91 97 12 3b a4 af 9f 3c 67 7c a9 3c d9 b6 a8 3c
       0.0022368173 0.019492932 0.020689202 0.020595001
000230 56 b4 a9 3c cf b6 a7 3c f2 90 aa 3c 5a 84 a6 3c
       0.020715874 0.020472912 0.020821068 0.020326782
000240 f0 42 78 3c 0a 6c 36 3c 0a 8b 60 3b ac 0c e2 bc
       0.015152678 0.011134157 0.0034262561 -0.027593933
000250 04 f4 f1 bc 67 53 9f bc b6 c6 9c bc 4a 2d ae bc
       -0.029535301 -0.019448949 -0.019137722 -0.02126183
000260 f9 30 8e bc 9e 9c 44 3c 4c 13 d8 3b 8d e7 e5 bc
       -0.017357336 0.012000231 0.0065940972 -0.028064514
000270 ff 50 97 3c 1d 98 66 3d 07 60 95 3d af 4c ef 3c
       0.01847124 0.05629741 0.072937064 0.02921137
000280 dd b0 47 3c 62 0a 88 36 18 e0 e4 bb b9 ba 2c ba
       0.012188164 4.0543246e-06 -0.006984722 -0.0006589103
000290 70 e1 bc ba 80 ab 34 3c 3e 38 a8 3c b3 81 aa 3c
       -0.0014410447 0.011027217 0.02053463 0.020813799
0002a0 46 6e a9 3c 00 27 a8 3c 80 11 a8 3c 62 7b a8 3c
       0.020682465 0.02052641 0.020516157 0.020566646
0002b0 dc 05 35 3c 56 3a 2e bc e2 0f 08 bd b8 69 41 bd
       0.01104876 -0.010634026 -0.033218272 -0.047219962
0002c0 6b ac 6f bd a6 50 86 bd fe 2a 06 bc 67 99 66 3c
       -0.05851404 -0.06558351 -0.008188961 0.01407466
0002d0 75 41 c5 3b b9 b4 62 bc 39 1f 92 bc 21 bd a4 bb
       0.006019766 -0.013837033 -0.017837154 -0.0050274287
0002e0 d7 8c 26 3d ea 05 4c 3d aa 29 58 3d df 46 08 3d
       0.04066166 0.049810328 0.05277411 0.033270713
0002f0 1b 2c 48 bb 84 32 9d bc c3 ac e7 bc 12 4e 96 3a
       -0.0030543867 -0.019189127 -0.028280621 0.0011467359
000300 5c e6 fc 3b 81 a8 8d 3c 5b c6 aa 3c a1 ca a8 3c
       0.0077178907 0.017292263 0.020846536 0.020604433
000310 95 16 a9 3c 51 9f a8 3c d1 74 a9 3c 87 14 a5 3c
       0.02064065 0.02058378 0.020685585 0.02015139
000320 11 06 50 bc 5b fd b1 bc 58 7a 08 bd 27 4b 83 bd
       -0.012696759 -0.021727255 -0.0333198 -0.064108185
000330 0c 87 bc bd c8 6d a7 bd df 4e 67 3c f6 bd 86 3d
       -0.09205446 -0.08175236 0.014117925 0.06579201
000340 84 5f 88 3d c8 0e 26 3d 55 1a 10 3d d8 82 a6 bb
       0.06658843 0.04054144 0.035181362 -0.0050815158
000350 de 7a 9d bc 1a 50 61 3b 52 0f 71 bc 21 25 78 bc
       -0.019223627 0.003438002 -0.014713125 -0.015145571
000360 87 58 2d 3c 2e 5a 50 bc 80 58 73 bd 25 64 07 bd
       0.010580189 -0.012716813 -0.059410572 -0.03305449
000370 27 44 5b 3c 0f ee 9e 3c bb 94 a8 3c d3 cc a8 3c
       0.013382948 0.019400625 0.020578733 0.02060548
000380 a9 63 a7 3c 0f 62 ae 3c 70 16 aa 3c e2 df a3 3c
       0.020433264 0.021286992 0.020762652 0.020004217
000390 4c 08 41 bc c6 4e ef bc 71 b8 7b bd 02 88 b7 bd
       -0.011781763 -0.029212367 -0.061455194 -0.08961488
0003a0 a2 7a da bd fe 04 96 bd df 5c ca 3c 5e 1a bc 3d
       -0.106679216 -0.07325171 0.024702488 0.09184717
0003b0 6d cc 87 3d 33 66 21 3d 22 20 9e bc 2f a1 61 bd
       0.06630788 0.039404105 -0.019302431 -0.055085357
0003c0 08 8a 3a bd 32 cf 9f 3a 3c 8d fc 3b 6a fd d9 bc
       -0.045541793 0.0012192486 0.007707266 -0.026610095
0003d0 11 75 ed bc 67 65 61 bd a1 8e 74 bd 50 34 50 bd
       -0.028986486 -0.055028345 -0.059706334 -0.05083114
0003e0 45 cd 0a 3c e0 95 a9 3c ed 32 a8 3c 9d dd a7 3c
       0.008471792 0.020701349 0.020532096 0.020491416
0003f0 f5 c5 a8 3c b8 3f a8 3c 26 0e a7 3c 2d 77 a2 3c
       0.020602206 0.020538196 0.020392489 0.019832218

fc1.bias f4 [256]
000000 2d 5a 00 bd 19 12 0c bc 2e e7 8b 3c c2 71 98 ba
       -0.031336 -0.008549237 0.017078009 -0.0011630582
000010 e4 5a f1 3b 1a 59 c6 bc c8 22 4e ba 90 b2 14 bd
       0.0073655713 -0.024212409 -0.0007863459 -0.036303103
000020 a6 a3 05 bc 12 bb 54 bc 89 72 cb bc d6 8a d1 bc
       -0.008156693 -0.012984054 -0.024834888 -0.025578897
000030 c5 d6 7c bc 13 cb 0d bc 6e 83 4e bc d4 ad c4 bc
       -0.015432064 -0.008654374 -0.0126045775 -0.024008669
000040 cd cb 83 bc ae 27 01 bc b6 ca d0 3c b5 5e 10 bc
       -0.01608839 -0.0078829955 0.025487285 -0.008811642
000050 4d af 6b b9 ff ad 5a 3c cd a8 60 bc a9 f6 b4 3c
       -0.00022476651 0.013347148 -0.01371212 0.022090273
000060 04 23 1f bc 37 fc 44 bc 42 b2 19 bd e9 26 ff bb
       -0.009712938 -0.012023023 -0.037523516 -0.007786621
000070 38 a6 6e bc c4 9f 06 bd d2 31 1e bd 98 39 f6 bb
       -0.014565997 -0.032867208 -0.03862173 -0.00751419
000080 d5 8e 09 bc b7 1c 02 bd 3d c1 c9 bc fc f2 fa ba
       -0.00839587 -0.031765666 -0.024628276 -0.0019145901
000090 c2 5b b6 bc 1e 34 cc bc 96 6d e8 bc 72 4f 9b bc
       -0.02226055 -0.024927195 -0.028372567 -0.01895878
0000a0 97 f9 82 bb 84 cd 35 3c b4 2c 66 bc be b5 df 3a
       -0.0039970386 0.011096362 -0.014048744 0.0017067713
0000b0 bf 43 1a bc b4 03 3f bc 68 b1 ae bc bb 9a be bb
       -0.009415566 -0.011658598 -0.021324828 -0.005816785
0000c0 ee b9 ec bc 87 ea 65 bc 39 70 e6 bb 1c 8d 41 3b
       -0.028897252 -0.014032966 -0.007032421 0.002953357
0000d0 31 8a ba bb 2d d2 bd bb e3 5e 3f bc 5a ef a7 bc
       -0.005692743 -0.005792877 -0.011680338 -0.020499874
0000e0 3b e5 cb bc 5c ff cc bb 2d d6 3e bc 5d 94 5c bd
       -0.024889579 -0.006256027 -0.011647743 -0.053852428
0000f0 03 81 86 3c c4 aa 61 ba c4 62 4f bc cb c5 c6 bc
       0.01641894 -0.0008608515 -0.012657825 -0.024264237
000100 18 cc 1a bd 81 18 c3 bb ef 67 70 bc dc 39 50 bc
       -0.037792295 -0.005953849 -0.014673217 -0.012709107
000110 28 da 5d bc b4 ea 75 bb e0 b4 a7 bb d5 76 7f bb
       -0.013540782 -0.0037523927 -0.0051179975 -0.0038980742
000120 e0 c8 c7 bb af 16 0a 3c 44 e3 61 bc 0d bd c5 bc
       -0.006096944 0.00842826 -0.0137870945 -0.024137998
000130 ec 16 fc bc 59 a3 f0 bc 6b 0c ad bc 69 f8 03 bd
       -0.030772649 -0.029374765 -0.021124085 -0.032219324
000140 96 ff 0e bd 90 89 ef bb 0d 34 bb bb 7d b4 be bb
       -0.034911714 -0.0073101 -0.005712992 -0.0058198557
000150 a8 b4 0e bc e7 5e b9 bc e1 9d b2 bc 04 7d d6 bc
       -0.008710064 -0.02262826 -0.021803798 -0.026182659
000160 17 d8 12 bc 8e 39 05 3b 7b 03 42 bc be 37 ef bc
       -0.008962653 0.0020328495 -0.01184165 -0.029201385
000170 e0 ae 30 bc 31 0a 92 bc b9 14 89 ba a0 25 60 bc
       -0.010783881 -0.017827125 -0.0010458446 -0.0136808455
000180 63 c9 52 bc 3d b8 93 bb fa 48 bc ba f2 3b 8e bb
       -0.012865397 -0.004508047 -0.001436501 -0.004340642
000190 21 1b 4a 3c 46 44 04 3b da 9e e2 bc 01 bd ab bc
       0.01233557 0.0020182296 -0.027663637 -0.020964148
0001a0 f3 07 05 bc 3a ea 06 bd 6a 1b 33 bb f5 d8 41 bc
       -0.008119571 -0.03293822 -0.0027329572 -0.011831512
0001b0 51 da b4 ba 3c f1 f3 bb ff 0e 2d bd 67 61 03 bd
       -0.0013797974 -0.007444529 -0.04225063 -0.032075312
0001c0 32 b2 db bb 12 cb 30 bd 4c 45 79 bc 2a f4 a1 bc
       -0.006704592 -0.043162413 -0.015214276 -0.019769747
0001d0 e8 9c 08 bd ba f9 02 bc 36 70 c3 bc 6a 59 cb bc
       -0.033352762 -0.00799411 -0.023857217 -0.02482291
0001e0 6c ad 4f 3b ea 1c bc bc 8e e3 1a ba 35 1e 58 bc
       0.003168906 -0.022963006 -0.0005908542 -0.013190796
0001f0 e0 59 ca bc c3 eb 4b 3d 79 c2 56 bc 31 a4 13 bc
       -0.024701059 0.049785387 -0.013107889 -0.009011314
000200 08 0c 62 bb 49 c5 16 bd 20 45 8f bc e1 c6 0d 3c
       -0.0034492034 -0.03680924 -0.017489016 0.008653373
000210 c5 40 7f 3c 00 80 d6 bc c8 4e 8e 3c 1c a6 92 3b
       0.015579407 -0.026184082 0.01737155 0.004475368
000220 d5 c2 3a bb f8 c0 d1 bb 3f a9 b6 bc c9 80 fb bb
       -0.0028497477 -0.0064011775 -0.0222975 -0.0076752645
000230 10 e2 31 bc b5 b2 c5 bc 39 57 93 bc 39 e2 a9 bc
       -0.01085712 -0.024133066 -0.017985927 -0.020737754
000240 10 5a 93 bc fb 47 80 bc dd 12 18 bd a6 4b a8 bc
       -0.017987281 -0.015659323 -0.037127364 -0.020543884
000250 29 70 93 bc d6 80 21 bd e4 20 f3 bc 5b 1a 03 bd
       -0.017997818 -0.03942951 -0.02967877 -0.032007556
000260 91 8c bf bc fc 6b 9e bc b2 1a 14 bc 0b 5b 69 bc
       -0.023382457 -0.0193386 -0.009039568 -0.014242898
000270 db 33 b9 bc 7a 24 05 bd e7 34 58 3c 47 8e df ba
       -0.022607734 -0.03250549 0.013196207 -0.0017055952
000280 ff 82 90 bb 47 63 59 bd 4d da 9d 3b f0 20 03 bc
       -0.004410147 -0.053073194 0.0048172832 -0.008003458
000290 6c a6 20 bb 44 5a 1c bd 53 6b 5d ba ca 86 52 b8
       -0.0024513258 -0.03817202 -0.00084464735 -5.0193434e-05
0002a0 11 df 8e bc 38 4b 23 bc 4c ee 1d bd 8a 1f f6 bb
       -0.01744035 -0.009966664 -0.038557336 -0.007511084
0002b0 ab 56 7c bd 9f 01 49 bc cd 3c 1f 3d 56 d6 4d 3c
       -0.06160609 -0.012268453 0.038876344 0.012563309
0002c0 af 25 96 bc b4 b9 be bc 01 65 4e ba b1 96 38 bc
       -0.018328516 -0.02328191 -0.0007873327 -0.011266396
0002d0 ab cc aa bb 9e f4 14 bc 72 a0 c0 bc bd da c5 bb
       -0.0052123866 -0.009091524 -0.023514006 -0.0060380385
0002e0 bd 8d 62 bb bb 9e 1c bd 60 9d 15 bc 6a 68 21 bc
       -0.0034569346 -0.038237315 -0.009131759 -0.009851554
0002f0 29 28 8c bb f0 79 df 3c 20 97 90 bc da 28 1c bc
       -0.0042772484 0.027279824 -0.017650187 -0.009531224
000300 26 d9 05 bc f8 5f 58 bc cd d8 dd bc 97 aa b2 bc
       -0.008169448 -0.0132064745 -0.027080918 -0.02180986
000310 6a 74 13 ba af 6d 78 bc 35 12 b7 bb 2d a3 20 3c
       -0.0005624952 -0.015162869 -0.0055868872 0.009804529
000320 9e a9 2b ba 28 1f a5 bc 31 05 70 bd f8 54 0c 3c
       -0.0006548407 -0.020156458 -0.0585987 0.00856518
000330 db 4d c6 bc be 51 24 bc bf a2 2b bc 98 2f ed bc
       -0.024207046 -0.0100292545 -0.010475813 -0.028953359
000340 cd e5 14 bd a6 09 1e bb 09 17 54 bc 67 af 12 bc
       -0.036351968 -0.0024114638 -0.012944945 -0.008952952
000350 c9 e2 27 bc b2 1e 7d bc dc 13 59 bc 14 e6 c9 bc
       -0.010246941 -0.015449213 -0.013249364 -0.024645843
000360 0c af 56 bc cf 20 a8 bb 74 1d 09 bd fd df 95 3c
       -0.013103258 -0.005130864 -0.033475354 0.018295282
000370 cd c4 51 bc 28 0b 36 3c d3 35 8d 3c 87 91 ec bc
       -0.012803269 0.011111058 0.01723758 -0.028877987
000380 9e bb 30 bd 59 a9 16 bd 1a cd 9e 3c a4 5e 5d bb
       -0.043147676 -0.036782596 0.01938491 -0.0033778334
000390 86 f4 8f bb 82 80 af bb ca c0 a7 bc ec ff db bb
       -0.004393163 -0.0053558955 -0.020477671 -0.006713858
0003a0 bc a3 28 bc 9f cb 18 bc 96 3b 71 bb fb 02 60 bc
       -0.010292944 -0.009325891 -0.0036809198 -0.013672586
0003b0 2e 6f 3d 3b 5d bd d3 bc 22 0b 79 ba cc 21 ad bc
       0.002890538 -0.025847131 -0.0009500255 -0.02113428
0003c0 aa 9d 9d bc 5e a2 3c bc b4 6d dd bb dc 7e 61 bb
       -0.01924022 -0.011513321 -0.0067574624 -0.003440789
0003d0 1a ac 9c bc d6 dc bc 3a 8f a6 95 bc d6 f9 c6 bc
       -0.019125033 0.0014409076 -0.018267898 -0.024289053
0003e0 92 e7 10 bd 92 cc 46 bb 41 c7 7a bc 29 c2 d4 bc
       -0.035377093 -0.0030334336 -0.015306295 -0.025971489
0003f0 c6 b4 8a bc b2 53 b4 ba 87 78 08 bc 18 5a 0f bd
       -0.016931903 -0.0013757853 -0.008329517 -0.03499803

fc2.weight f4 [128, 256]
000000 38 cb 00 bc 91 43 28 bb 4f b6 92 3d b9 07 e8 bb
       -0.007860951 -0.0025675038 0.07163679 -0.0070809987
000010 d4 5a 45 3d ee 9b d5 3d cc bf 40 bb 09 51 34 3d
       0.048182324 0.10430132 -0.0029411195 0.044022594
000020 62 3f 93 bc 53 6d 71 3d a5 0c 9d bc 4d 50 e4 bd
       -0.01797456 0.05894215 -0.019171068 -0.11148129
000030 a3 b6 36 be 1d aa c2 bc ff 8f a8 3b 5e 2a d4 bd
       -0.17843108 -0.023762757 0.005144119 -0.103596434
000040 00 b3 e5 bc ec f8 7b bb 42 38 4e 3d 9f 21 27 be
       -0.028039455 -0.003844793 0.05034662 -0.16321419
000050 fe b3 87 3c 9c e5 a3 3d 55 96 dd 3d 9c 6a 18 be
       0.01656532 0.08002779 0.10819689 -0.14884418
000060 a1 2d 93 bd ba a7 a9 bc c8 9b 00 bc 46 7b 6e b9
       -0.071864374 -0.020709861 -0.007849641 -0.00022743372
000070 2b d2 ef bd 70 e6 d9 3d b6 c7 d7 3c 6c 09 de 3b
       -0.11710008 0.106396556 0.026340347 0.0067760255
000080 96 bf 81 bb eb f8 9c bd 9d 07 e9 bd d1 79 3b 3d
       -0.0039596064 -0.07664665 -0.11378405 0.04577047
000090 5d eb 33 bc 93 5d 96 3c 81 76 2b 3d 8b f4 06 3e
       -0.010981408 0.018355167 0.04186106 0.13179223
0000a0 cb 27 7a 3b 3c b9 d2 bd 4e ce 37 3c 7e 68 62 3d
       0.003817069 -0.10289237 0.01121862 0.055275433
0000b0 d7 d9 b5 bb 9a b7 50 3e 37 de cb 3d 86 e5 ce ba
       -0.00554965 0.20382538 0.099544935 -0.0015784956
0000c0 41 8d 68 3c c7 00 3a 3b 91 a1 c9 3d 3c e3 03 3d
       0.014193834 0.002838181 0.098452695 0.03219913
0000d0 49 83 de bb 00 aa 8c ba bb 03 41 3d 5f 29 29 3d
       -0.0067905528 -0.0010731816 0.0471227 0.04129922
0000e0 93 18 21 3d 53 08 0e 3d 81 85 2d bc 5e 9f d8 3b
       0.039330076 0.034675907 -0.010590912 0.006610795
0000f0 7a b7 3a be 22 ce 49 3e 6d 63 53 ba c2 e3 0f 3d
       -0.18234053 0.1970754 -0.0008063827 0.035129316
000100 80 88 3f 3d b1 2a 95 bc b3 af 0f bd 26 c1 be bc
       0.046761036 -0.018208833 -0.03507967 -0.02328546
000110 a0 0b f5 3d 81 93 e8 3b 10 26 0a bd 6d 61 4b 3b
       0.11965108 0.007097662 -0.033727705 0.0031033412
000120 3c 9f 0a bc c6 ca 14 be 38 11 6e 3c 3e 73 d4 bc
       -0.008460816 -0.14530477 0.014530472 -0.025933858
000130 d8 4f 10 bd 92 4f 30 be 1b a0 44 bd e0 fc 05 3e
       -0.035232395 -0.17217854 -0.04800425 0.13084745
000140 7b 38 ec 3d 1d 02 72 3b cc 5d 2b 39 b5 30 5c 3c
       0.1153421 0.003692753 0.00016342773 0.013439347
000150 89 5a 20 3d e9 b7 b0 bb 15 9a cf bc 59 4c 88 3d
       0.03914884 -0.0053930175 -0.025342027 0.06655187
000160 9c ec 8d 3c a3 af 30 3d 8d e7 2f bc 6d 6c 55 bd
       0.017324738 0.04313625 -0.010736358 -0.052105356
000170 52 4b 9f bd 9d 9e 42 3c ea 3c 47 ba 6f 6a b7 3d
       -0.07778038 0.011878637 -0.00076003245 0.089558475
000180 4d 86 40 3d 28 91 a8 3b 95 f5 8f 3b 08 86 bf 3b
       0.04700308 0.005144257 0.0043932893 0.005844835
000190 cd 8e bb 3c 81 b9 62 3b cf 63 5c 3c a4 07 ce 3b
       0.022895241 0.0034595432 0.013451531 0.006287532
0001a0 ae 0e a9 3c b8 38 01 be 11 af 10 3b 7d bc 9e 3b
       0.020636883 -0.12619293 0.0022077004 0.004844247
0001b0 0a 66 cd 3d 24 b8 b5 bd ef 8e 13 3e 22 0a aa bc
       0.10029228 -0.08873013 0.14409994 -0.020756785
0001c0 4f cb d1 3c 4c e9 84 3e 51 84 8d bd e9 9b c6 3c
       0.02560964 0.2595924 -0.06910003 0.024244266
0001d0 24 7b 21 bd 13 6c 0c 3d f7 89 37 bd f4 d4 ab 3b
       -0.039424077 0.034282755 -0.044809308 0.005243892
0001e0 90 42 eb bd a8 f7 1b bd 33 c4 95 bd f1 d6 b4 bd
       -0.11487305 -0.03807798 -0.07312813 -0.08830059
0001f0 e0 a6 cc 3c 40 10 50 3c 94 6f 11 bd a3 f6 5e ba
       0.024981916 0.012699187 -0.0355068 -0.00085053797
000200 d3 f2 06 bc c7 20 c0 bc 69 f6 5a 3b c6 f6 05 3e
       -0.008236605 -0.02345313 0.0033411032 0.13082418
000210 07 db 63 bd b9 62 a9 3d 23 07 6f 3d 30 71 d2 bc
       -0.055628803 0.08270783 0.058356415 -0.025688738
000220 c0 8b 7f bd ec 1b e5 bc 4f 92 4b be 76 55 d1 3c
       -0.062389135 -0.027967416 -0.19880031 0.025553446
000230 9a 57 98 bd 7a 14 8d bc 4f d3 98 bc 03 e0 36 bc
       -0.07438584 -0.017221678 -0.018655447 -0.011161807
000240 03 5f 6c 3d 9d 0d 8b 3c 3e 0e a7 3d 6c a4 fa bb
       0.057707798 0.016974265 0.08157013 -0.007648995
000250 6e 50 6e bc 0a 9f 31 3e 48 79 09 be b0 7c c7 3c
       -0.014545543 0.17345825 -0.13425171 0.024351448
000260 0f fe 02 bc a2 1b 3f be 05 32 37 be 48 f0 f9 3b
       -0.007995143 -0.18662885 -0.17890175 0.0076275207
000270 eb e1 ed bb 59 f6 a9 bb 31 46 f0 bb b6 24 99 3d
       -0.0072595975 -0.0051868376 -0.007332586 0.07477705
000280 b5 ab 30 3d 71 74 62 bc 7c 30 05 3e 73 9e 57 bd
       0.043132503 -0.013821707 0.13006777 -0.052641343
000290 e7 fb 8f 3c 03 e5 81 bd f9 e7 bb 3c 0a a1 55 3d
       0.017576171 -0.06342509 0.022937762 0.052155532
0002a0 49 90 3b 3e d2 7f 15 bc 55 c6 32 3a 86 da 7b 3c
       0.18316759 -0.009124713 0.0006819715 0.015371924
0002b0 1b b2 d5 3d e0 60 9a 3d b7 b1 ec 3d e6 74 a6 3b
       0.104343615 0.07538009 0.11557334 0.0050798533
0002c0 86 df 6f bc aa 20 46 bb 39 00 00 be 99 4d f4 bd
       -0.0146406945 -0.0030231872 -0.12500085 -0.11928863
0002d0 3a 51 d8 bc 5d 43 71 3d 1d 79 1d 3d 85 c5 ca bc
       -0.02640592 0.058902133 0.03844558 -0.024752388
0002e0 90 a0 26 bd e5 47 23 3d 2f a5 64 bb b4 44 aa ba
       -0.040680468 0.039863486 -0.0034888496 -0.0012990446
0002f0 5f ce 87 3b 79 35 57 3e df 79 bc bd 9e 3c 7f 3c
       0.0041444744 0.21016492 -0.092029326 0.015578417
000300 17 0f dc bb 14 c6 88 bc 50 58 65 3d 0d 94 9f bd
       -0.006715666 -0.016696014 0.055992424 -0.0779191
000310 11 72 09 be 0c d5 d3 3d 7d 87 12 bc f5 e3 a5 bc
       -0.13422419 0.1034337 -0.008943436 -0.0202503
000320 ab 24 e2 3b 11 1d 96 3d 1b b2 20 bc 92 f1 9b bd
       0.006901344 0.07329763 -0.009808089 -0.07614435
000330 dd 8c 93 3c 3a 83 c1 39 26 6b 44 bc de f3 15 bc
       0.018011505 0.000369096 -0.011988437 -0.009152381
000340 29 70 a7 3d c4 14 f3 3c 24 3e d3 3d ca 63 68 3d
       0.0817569 0.029672988 0.10314587 0.05673579
000350 7f 21 ae 3c 5b c9 36 bc c3 cc ee bc 8f 4c c8 3c
       0.021256207 -0.011156405 -0.029150372 0.024450568
000360 b4 12 43 3d 7d cc 9d 3c d8 93 ef bd 91 ec 69 bd
       0.04762526 0.019262547 -0.11698121 -0.057110373
000370 38 64 38 bd f3 7c a5 3d e8 e5 75 bd d8 c4 a1 bd
       -0.04501745 0.08080473 -0.06003371 -0.07898873
000380 99 16 2a 3e 01 48 60 3e d9 5f 83 bd 85 e6 a1 3d
       0.16610183 0.21902467 -0.06414766 0.07905296
000390 9c f2 49 3d 63 f6 2f bc 41 7d 1f 3c ba d5 37 3a
       0.049303636 -0.0107398955 0.009734453 0.0007012744
0003a0 e1 66 16 3c fe 63 b0 bc 95 fb 3f bd 6f 46 cf bd
       0.009179802 -0.021532055 -0.046870787 -0.10120856
0003b0 3b fc a5 bd 7a 95 fe bb 4c 25 15 3c 85 a0 c8 bb
       -0.0810475 -0.007769284 0.009103131 -0.006122651
0003c0 9e 25 25 3d 32 5b 8c 3c 1c a9 50 be 16 68 b3 bd
       0.040319078 0.017133329 -0.2037701 -0.08760087
0003d0 80 d9 a9 bb 0b 18 58 3d 85 e6 91 bb 7e aa fc 3b
       -0.0051833987 0.052757304 -0.004452529 0.007710754
0003e0 eb b3 13 3d 44 ba 37 bc da e0 2c bd 6b e2 3e 3b
       0.036060255 -0.011213843 -0.042206623 0.0029126655
0003f0 7c 54 83 bd 59 46 eb bd e2 aa 66 bc 92 01 39 bd
       -0.064125985 -0.11488027 -0.014078828 -0.045167513

fc2.bias f4 [128]
000000 e1 29 80 bd 6a a9 cb 3d 3d f7 0c bc 5a f5 80 bd
       -0.06257988 0.099444225 -0.008603868 -0.06296797
000010 42 8c 8e 1b b0 5c b1 b8 f3 f6 b0 3c 10 37 a1 bd
       2.358257e-22 -8.457282e-05 0.02160213 -0.078718305
000020 fd 21 37 3c 59 74 85 bd bd 5f c4 b2 9f 7e 85 bd
       0.011177537 -0.06516332 -2.286094e-08 -0.06518292
000030 40 24 ef ba 52 46 2e 3b 7e 74 ca 3d b4 0d 9f 3d
       -0.0018245056 0.0026592207 0.098855 0.077662855
000040 bd 9f 58 b8 73 20 c3 bd 52 c2 35 bb 0a bb 14 3c
       -5.164718e-05 -0.095276736 -0.0027734232 0.009077797
000050 8a 5f 04 bd 75 6a 22 bb e7 6f 0a bd 47 f0 d7 3d
       -0.032317676 -0.0024782692 -0.033798125 0.10543876
000060 b2 1d 21 80 8e a7 cf 3d 79 f1 11 3e c8 41 a6 bb
       -3.041224e-39 0.101393804 0.14252271 -0.0050737597
000070 55 12 1c be 2c 3d ba b7 39 47 66 3c 8f dc 88 3d
       -0.15241368 -2.2201413e-05 0.014055067 0.06682693
000080 f4 55 28 bd 34 45 da bd 4b cc 75 bd be f1 ca bd
       -0.041097596 -0.10657731 -0.060009282 -0.0990939
000090 f9 0f 06 bd 5e e9 19 bd cd 49 ba bd 24 93 1e 3d
       -0.032730076 -0.037576072 -0.09096108 0.038714543
0000a0 1a 07 ef 3d 4f de 24 3d aa d5 4b 3d b0 06 84 3c
       0.116712764 0.040251072 0.049764313 0.01611647
0000b0 63 3c 3d bc 69 7b 90 bd 70 4d 7c 3c 21 fd de bd
       -0.011550042 -0.070547886 0.015399322 -0.10888124
0000c0 00 f5 30 3e 80 8d 24 3d 2f 7e c5 3d 64 a6 8d bb
       0.1728096 0.040174007 0.09643208 -0.004322814
0000d0 2a 81 68 3b 5b 90 20 3c 73 d4 97 bc 88 af 8e bd
       0.0035477378 0.009800042 -0.01853392 -0.06967074
0000e0 7c 6a ef bb 43 e3 10 3d 3d db a5 3d d9 08 48 3e
       -0.007306395 0.035372984 0.08098457 0.19534625
0000f0 26 18 ce 3d 2a 57 62 bd 1a bb ad 3d a9 0c 90 bd
       0.100632 -0.055258907 0.084829524 -0.07033665
000100 6b bb 9e bd bf ea c5 bc 81 30 53 bd cf fc d7 3b
       -0.07750591 -0.024159787 -0.05155993 0.0065914164
000110 02 55 95 bd 8e e1 8c 3d 4a b0 99 0a 7b 99 e3 3d
       -0.072916046 0.06878959 1.4799677e-32 0.111132585
000120 17 9d b4 3d cc 20 b4 3b c9 53 5d b8 71 ca 71 bd
       0.08819025 0.0054970738 -5.2768537e-05 -0.059030954
000130 54 ee 99 bd 40 1e f0 bb 2d 48 71 3c 0a a5 2a 3e
       -0.075161606 -0.007327825 0.014726681 0.1666452
000140 d2 d3 4b bc 5a a9 03 3d 5d 18 82 bd 0a e2 3e bd
       -0.012440639 0.032143928 -0.06352303 -0.046602286
000150 f6 96 31 1f 3e ff c2 bc 29 b4 88 bc 33 da d7 bd
       3.760608e-20 -0.02380335 -0.01668747 -0.10539665
000160 0b f3 93 3d ee f3 cc 3d 89 db 8c 3d db f4 81 3d
       0.07224091 0.100074634 0.068778105 0.063455306
000170 8a 09 eb ba 80 ab 1a 00 00 6d a7 bd a8 39 c3 3b
       -0.001793192 2.449246e-39 -0.08175087 0.005957801
000180 4b f5 3d 3c b5 b3 1b 3d 77 15 76 1e 66 0d e4 3c
       0.011594127 0.03801318 1.302757e-20 0.02783842
000190 ef 36 a3 bd ef ba 5f 3d 07 95 c0 3c a1 6f 5c bd
       -0.07969462 0.054621633 0.023508562 -0.053817395
0001a0 43 9a 74 a5 c5 6e e1 3c 0e 82 0d bb 29 4e a4 3d
       -2.1215892e-16 0.02751864 -0.0021592411 0.0802272
0001b0 e8 b8 88 3d 7c f2 3b 39 56 ee 02 3e 12 c7 90 3d
       0.06675893 0.00017924042 0.1278623 0.0706922
0001c0 49 5a bb bd 12 65 1e 3c 39 a9 49 bc de fc 0a 3e
       -0.0914808 0.009667652 -0.012308412 0.13573024
0001d0 07 e5 b7 3c 1e ed 15 bd 7f 5d f1 bc 19 1b 74 bb
       0.022448076 -0.036603086 -0.029463528 -0.0037247597
0001e0 6b 44 07 3c 02 d2 a8 bd ee 0d 9e 3d d3 75 e5 3c
       0.008256058 -0.08243181 0.077175006 0.028010285
0001f0 55 2f 80 3d 20 3a a3 a5 ab 35 5f 25 20 10 9f bd
       0.06259028 -2.831538e-16 1.936035e-16 -0.077667475

fc3.weight f4 [64, 128]
000000 b8 ff eb bd c2 34 76 bd 9e 9c a1 3c db cb 26 3c
       -0.11523384 -0.060108908 0.019728001 0.010180439
000010 9d 06 a9 98 4d 04 89 bb 38 82 75 3d 72 64 1c be
       -4.3692154e-24 -0.004181421 0.05993864 -0.15272692
000020 bb 33 fc bd a0 dd d4 bd 9c df b9 b8 00 5f 7b bd
       -0.12314554 -0.10393834 -8.863138e-05 -0.061369896
000030 25 93 f7 3d 8d 9b f3 bd 92 bf 14 3d 38 8a 40 3d
       0.120886125 -0.11894903 0.03631551 0.047006816
000040 3a 81 2e 34 fb f1 25 3c ea 7a 2e 3d 70 da 6c 3d
       1.6252025e-07 0.010128493 0.04259769 0.057825506
000050 c1 7f 5f 3e 4c ed f4 bd d9 ca 21 bd e2 aa 29 3d
       0.21826078 -0.11959323 -0.03950009 0.041422732
000060 28 d0 33 a9 5a 08 30 3e aa 41 b9 3d b5 69 4f 3d
       -3.992653e-14 0.17190686 0.090457276 0.05063792
000070 19 22 b5 bd ad 51 75 ba e9 99 96 3d f2 f1 07 bc
       -0.08844394 -0.0009358179 0.07353575 -0.00829743
000080 41 f8 16 3e ba 9c 2e be 3b d8 3c bd 80 14 42 be
       0.14743139 -0.17051974 -0.04610465 -0.18953133
000090 17 be 44 bb 3b 62 9c 3d 39 a7 d1 bd 8f b3 fe 3d
       -0.003002053 0.076359235 -0.10236973 0.12436592
0000a0 e7 1b 95 3d 2b d9 8a 3d ed 8c 4c 3d 6b b4 52 3e
       0.072807126 0.06779703 0.049939085 0.20576636
0000b0 4a 13 0f 3d 77 e6 b4 bc 8b ed 00 3e 26 74 ac be
       0.034930505 -0.02208255 0.12590615 -0.33682364
0000c0 13 53 07 3e 24 fe c6 3c 48 19 48 3d eb 57 a0 3b
       0.13215284 0.024291106 0.048852235 0.004893293
0000d0 99 a3 45 3c a6 d4 f0 3d 70 56 c1 bc fb 2b 18 be
       0.0120629305 0.117593095 -0.023600787 -0.14860527
0000e0 c1 cc 02 3e ca 8d c7 3d d3 cc 78 3d 8a b8 86 bd
       0.1277342 0.09743841 0.06074221 -0.06578167
0000f0 a8 b2 4a 3c e5 a4 8f be 28 4b c6 3b 88 61 8d be
       0.0123716965 -0.28055492 0.00605144 -0.27613473
000100 a3 07 88 3c 59 7b 13 bd 54 c4 39 3d e7 08 26 bd
       0.016605204 -0.036006305 0.04535325 -0.040535834
000110 67 5e 8b 3d f8 bd b4 3d 86 ed bf 1d 08 37 4c 3e
       0.06805115 0.08825296 5.0802873e-21 0.19942868
000120 81 31 04 3e d8 b2 1d 3e 7a de 98 3b 80 47 7c 3d
       0.12909509 0.15400255 0.004665193 0.061591625
000130 ff 2c 3d bc 5a 1b d6 3d eb f2 c9 bd dc a6 4b 3e
       -0.011546372 0.10454436 -0.09860786 0.1988787
000140 16 62 95 3c 4f 11 29 3c 1b 0c 33 3e 3d e2 4c 3d
       0.018235248 0.010319068 0.17485087 0.050020445
000150 b3 f1 47 b4 c8 05 be bd 96 bd bb bc 30 62 af bd
       -1.8621249e-07 -0.092784464 -0.02291755 -0.0856365
000160 0b 54 38 bd 2b 2e cc 3d da 16 0d 3d 89 89 e0 bd
       -0.045002025 0.09969743 0.03444562 -0.10963733
000170 bf 33 b4 3c 7e 79 aa b1 ba 2d f5 3d cb 51 51 bd
       0.02199733 -4.9614632e-09 0.11971612 -0.051103394
000180 fc 3a 0e 3e c1 af 05 be 90 4e 48 af ab 44 2a bd
       0.13889688 -0.13055326 -1.8217805e-10 -0.041569393
000190 8a 06 8c bd f3 bf 17 3e c7 dd f4 3d 72 64 9b 3c
       -0.06837185 0.14819317 0.11956363 0.018968794
0001a0 1d 66 c0 34 31 bf be 3c e6 ff 16 3c c6 8c 10 3d
       3.5837084e-07 0.023284527 0.009216284 0.035290502
0001b0 10 59 54 3d f8 e5 c8 3d 2d 2a ed 3d 70 bb 15 be
       0.05184275 0.09809488 0.1158031 -0.14622283
0001c0 be db c8 bd e5 06 c0 3d 31 01 3a 3c 61 2f a0 3d
       -0.098075375 0.09376315 0.011352823 0.07821537
0001d0 5d 1d 14 3d 3c 33 07 be a1 5b 5b bc bf 07 2b 3d
       0.036160816 -0.13203138 -0.013388545 0.041755434
0001e0 5b d6 d3 bc 8d 76 83 3d 62 ba 1e 3e aa 49 c3 3d
       -0.025859049 0.06419096 0.15500787 0.09535535
0001f0 84 8f ea 3d 9c dd 11 b3 1b 65 00 26 29 6b f1 bb
       0.11453155 -3.3961996e-08 4.4545944e-16 -0.007367511
000200 01 3a 0a 98 43 f6 9f b0 5f c1 b3 b1 c9 d1 6b b8
       -1.7865366e-24 -1.1638764e-09 -5.2315694e-09 -5.6223744e-05
000210 76 64 25 00 4f 94 2f 00 bc c6 e8 b6 25 64 62 b6
       3.433952e-39 4.369471e-39 -6.9372745e-06 -3.3734916e-06
000220 5c 82 6d 1d f6 31 8e 31 3d 64 0d 80 80 48 16 00
       3.1434083e-21 4.138424e-09 -1.22982e-39 2.046389e-39
000230 bf bd 2b ae b9 41 81 b4 0f 13 c6 b1 ee 11 a2 a2
       -3.9049427e-11 -2.4075942e-07 -5.764725e-09 -4.392917e-18
000240 bd 1d 40 00 44 0e cc 0d 3c 18 ba b6 60 1d e7 b5
       5.88814e-39 1.2575905e-30 -5.546053e-06 -1.721939e-06
000250 54 bc cb 92 eb 87 d9 b3 7e 27 34 b4 f5 6f ae b0
       -1.2857528e-27 -1.0129573e-07 -1.6778174e-07 -1.2691986e-09
000260 20 f2 73 81 44 98 75 b6 95 a8 91 b4 48 7d 74 31
       -4.4805767e-38 -3.6596475e-06 -2.7131014e-07 3.5577887e-09
000270 88 21 5f b4 e3 19 3a 00 2d d4 c0 b6 7d 2a 1e b8
       -2.0780692e-07 5.335745e-39 -5.7467464e-06 -3.7709706e-05
000280 6a 4e f8 a8 59 eb 87 b7 1b 96 38 0c 46 f4 b9 b7
       -2.7567538e-14 -1.6202846e-05 1.4220015e-31 -2.2167467e-05
000290 e1 b6 a0 b6 0f a3 01 b6 e3 80 11 32 c3 ba a5 ae
       -4.7896615e-06 -1.931741e-06 8.469416e-09 -7.536507e-11
0002a0 84 db bc b5 76 e8 00 2c 5c 95 02 b6 48 ba 04 aa
       -1.4070979e-06 1.8318936e-12 -1.9458448e-06 -1.1788584e-13
0002b0 00 a8 8a 01 09 da 85 b5 71 54 ea b1 c7 b1 11 b5
       5.093426e-38 -9.972729e-07 -6.819896e-09 -5.427541e-07
0002c0 7c 03 ad b0 5f 27 aa b5 db 85 44 31 55 44 eb b4
       -1.2588397e-09 -1.2677446e-06 2.8597842e-09 -4.382188e-07
0002d0 bd d0 1f b3 e9 b9 ea b6 17 9b 53 b7 97 42 04 b2
       -3.720992e-08 -6.9953862e-06 -1.261269e-05 -7.698552e-09
0002e0 03 c1 9e b6 ae 71 86 b7 1c 98 4b b2 1a 45 4e b3
       -4.7312365e-06 -1.6026981e-05 -1.1850741e-08 -4.802596e-08
0002f0 b8 ba 16 b2 c2 0b 8a b6 92 a3 f4 b6 33 7a 37 b5
       -8.773604e-09 -4.1140893e-06 -7.2908088e-06 -6.8350636e-07
000300 16 e6 a1 b7 fd 83 8b b1 ec 62 97 b1 76 c9 12 b3
       -1.9299838e-05 -4.0604378e-09 -4.4059245e-09 -3.41765e-08
000310 f5 f2 83 a7 f2 50 1a b7 7c 62 f9 80 4b 34 2c ad
       -3.662322e-15 -9.197962e-06 -2.2902368e-38 -9.788679e-12
000320 1e 84 ff af e3 27 52 a2 1c 15 32 00 65 6d 9b b7
       -4.6478105e-10 -2.8481423e-18 4.599347e-39 -1.852838e-05
000330 e5 8b 9e b6 46 4a 94 af 5c 0c 6b a6 25 09 0e b6
       -4.725053e-06 -2.6973818e-10 -8.1548753e-16 -2.1164972e-06
000340 06 27 58 b5 9a 28 86 b7 5e 90 c8 a5 57 97 d5 a6
       -8.0523057e-07 -1.5992951e-05 -3.4792297e-16 -1.4820865e-15
000350 61 7d 3f 80 77 b6 8b b8 5c 09 95 b2 9d 3a 9e a4
       -5.830614e-39 -6.662023e-05 -1.7350139e-08 -6.862087e-17
000360 48 72 ff 2d 4c 4f bb 2e a9 6e 32 ad 72 7d 12 31
       2.9040895e-11 8.5178614e-11 -1.01427e-11 2.1317104e-09
000370 d1 12 49 00 c7 ca 3a 00 48 27 0a b3 74 7f 8b b4
       6.710741e-39 5.399202e-39 -3.2166355e-08 -2.5983502e-07
000380 78 57 b4 b7 3d 38 d2 b6 00 cc 79 81 b2 8e f7 b7
       -2.1498403e-05 -6.2650347e-06 -4.588044e-38 -2.9511142e-05
000390 bb 08 36 b7 f0 5d 1b b7 dc 81 16 b7 1d 88 1a 2d
       -1.0850078e-05 -9.2605915e-06 -8.970932e-06 8.78411e-12
0003a0 6b bf 44 00 20 5a 56 24 b7 83 2a 00 06 a1 0b b6
       6.313482e-39 4.6480192e-17 3.904341e-39 -2.0806342e-06
0003b0 06 97 5d b6 13 c1 67 b4 6c 47 98 a7 1f b9 81 b4
       -3.3019473e-06 -2.1583791e-07 -4.226591e-15 -2.4162816e-07
0003c0 40 8b bd 1c ad 94 1b 33 b1 cf 91 01 08 03 4d b3
       1.2542966e-21 3.622397e-08 5.356261e-38 -4.773304e-08
0003d0 97 5c aa b7 ba dd c0 b7 ab c0 95 81 78 1a 07 80
       -2.0308695e-05 -2.2991433e-05 -5.501042e-38 -6.52344e-40
0003e0 b2 1b a7 b0 6d a5 bd b0 da 88 6f b4 94 5c 39 b1
       -1.2158721e-09 -1.3798577e-09 -2.2308396e-07 -2.6973668e-09
0003f0 93 1b ef b6 2f 01 0e 81 1e fc 11 00 fa c9 17 80
       -7.125965e-06 -2.608213e-38 1.651646e-39 -2.184672e-39

fc3.bias f4 [64]
000000 1f e4 c5 3d c2 23 cf b4 9d 19 33 92 79 7c e5 3d
       0.09662651 -3.8582772e-07 -5.651401e-28 0.11205382
000010 9e 61 cb 3c e5 46 00 3e 6c 9a 35 bd 8b 56 1d 3d
       0.024826821 0.12527044 -0.04433672 0.038412612
000020 f6 78 f9 3a 81 b3 7d b5 0b f6 74 bd 32 65 ff a6
       0.0019033242 -9.4511057e-07 -0.059804957 -1.7721608e-15
000030 c4 02 c4 3d 83 e6 62 bc 4b 64 29 3d 6f 43 c3 bd
       0.0957084 -0.013848904 0.041355412 -0.09534346
000040 4a e7 41 bd a3 37 d5 bd a8 02 2e 3e 12 18 35 3e
       -0.047339715 -0.104110025 0.16993201 0.17684963
000050 78 e2 99 af 22 2d d6 3d a0 86 d0 3d bf 33 4a 00
       -2.7991454e-10 0.10457827 0.10181928 6.81439e-39
000060 1e c5 88 3d af ab 84 bd 47 81 d9 3c 67 45 c9 3c
       0.06678222 -0.064780585 0.026550902 0.024569226
000070 e7 b0 20 bb 96 c9 46 bd 63 57 25 3e d8 d7 f3 b9
       -0.0024519505 -0.04853209 0.16146617 -0.00046509388
000080 6e b7 d1 ba e9 0f 19 bd 99 cd 05 3c db 09 02 3e
       -0.0016000101 -0.03736869 0.008166694 0.12699072
000090 b2 12 ba bc 82 dc 28 bc 0f 54 f2 bb e5 d3 bf 3b
       -0.022713993 -0.010306479 -0.0073952745 0.005854117
0000a0 aa d0 38 bc 2e fc a5 bd 7d e0 67 bd 2b e8 c3 ba
       -0.011280218 -0.0810474 -0.056610573 -0.0014946511
0000b0 b1 df 37 bd b6 fe 2c 3e ea 6e 06 b0 08 02 12 bc
       -0.044891063 0.1689404 -4.8906534e-10 -0.008911617
0000c0 89 fe cb 3c ad 8e 04 3e 8c 8d 4c b7 5a 73 a2 bd
       0.024901645 0.12945051 -1.2192304e-05 -0.07932158
0000d0 2d e1 de 3d 8a ce 8d 3b b6 5a ac 3b 94 aa d6 a4
       0.108827926 0.0043276 0.005259837 -9.3096677e-17
0000e0 95 a6 7b 3d e1 86 bb 3c da 65 a1 3d e2 30 ac bd
       0.061438162 0.022891464 0.07880755 -0.08407761
0000f0 7c c4 0a 3d 9d 1c 82 bc 6b 86 d2 3d b2 43 27 3c
       0.03387879 -0.015882785 0.102795444 0.010209011

fc4.weight f4 [10, 64]
000000 8e d2 27 be b5 64 d9 b5 a1 62 68 b6 e3 60 1c 3e
       -0.16388914 -1.619707e-06 -3.4628104e-06 0.15271334
000010 a0 e7 89 bd e8 98 85 be b1 f5 43 be ee 49 a0 3d
       -0.06733632 -0.2609322 -0.19136693 0.07826601
000020 ef 74 41 be 85 7b eb bc fe 0b 53 3e 17 93 fc aa
       -0.18892263 -0.028745422 0.20610043 -4.4866256e-13
000030 db 2f 21 be 2e 31 10 3d d9 54 22 be d3 08 7a bd
       -0.15740912 0.03520315 -0.1585268 -0.06104357
000040 4a 5e 10 3d 2b 8c 08 be af 91 df 3c 9d c3 b6 bd
       0.03524617 -0.1333472 0.027291147 -0.08924029
000050 35 ae 3f b9 01 42 c6 3d 22 2b 6c be 62 f3 f3 32
       -0.00018280077 0.09680558 -0.23063329 2.8399601e-08
000060 67 0b c9 bc 57 e2 a9 3d d6 71 c3 3c aa fa 0f be
       -0.02454157 0.08295124 0.023857992 -0.14060465
000070 9a 4e 35 3c 65 34 43 bd 7c e5 cb 3d 30 9d de bc
       0.011066103 -0.04765739 0.0995588 -0.027174562
000080 44 e5 a8 3c 61 3a 9e 3e 4f e9 93 bd 1f cc 26 3e
       0.020617135 0.30903915 -0.072222345 0.16288804
000090 dd a0 94 bd 84 02 e6 bb 44 61 3a 3e 11 81 f3 bd
       -0.07257245 -0.007019343 0.18201166 -0.11889852
0000a0 b6 f5 8f bd 7d c2 42 bd 8a d5 00 3e d1 80 5a 3c
       -0.070292875 -0.04754876 0.12581459 0.013336376
0000b0 68 ad 31 3d fc 83 34 be 21 8d a5 bb eb f0 0c 3e
       0.043378264 -0.17628473 -0.0050522243 0.13763778
0000c0 b8 1f af bd d0 c6 38 be 55 c2 10 af a9 8c 26 bd
       -0.08550972 -0.18044591 -1.3165764e-10 -0.040661488
0000d0 2a 70 40 3d 00 6c 0e 3e 10 16 63 3d 27 65 db ba
       0.046981968 0.13908386 0.055440962 -0.001673852
0000e0 cc 13 0f bd c4 2d 38 be f9 15 0a 3e d0 ed a5 be
       -0.03493099 -0.17986208 0.13484944 -0.32408
0000f0 30 72 88 3d 66 46 8d be 85 e0 21 3e e0 77 4f 3e
       0.066624045 -0.27592772 0.15808304 0.20260572
000100 c5 30 98 be f5 38 01 bc 13 c1 3b b9 56 f4 80 3d
       -0.29724708 -0.007887115 -0.00017905635 0.062966034
000110 c4 24 69 3d 3a 25 3e 3d a4 ad 84 bd 24 f6 80 bd
       0.056919828 0.04642222 -0.06478432 -0.062969476
000120 8e e5 d7 3d 5d 36 c8 3a 62 6b ed bc db a5 f6 bb
       0.10541831 0.0015274991 -0.028981868 -0.0075270957
000130 39 1c 73 be 32 86 72 bb 2d ee 37 be 3d 68 1c 3e
       -0.23741235 -0.0037006256 -0.1796195 0.15274139
000140 51 ff 16 3d 86 1e 7a 3d 37 e3 64 3c 35 b3 90 be
       0.036864582 0.061064266 0.013970188 -0.28261724
000150 a2 cb ed ba a1 e8 ef bb be 77 02 be 8b 73 16 b5
       -0.0018142352 -0.0073214327 -0.1274099 -5.604749e-07
000160 12 1d ed bc de 25 35 3e a1 de 44 be 53 ae a7 3d
       -0.028944526 0.17690226 -0.19225551 0.081875466
000170 c3 6b 9b bb 56 bb 67 3e f4 e1 a0 be a6 65 36 ba
       -0.004743071 0.22630057 -0.3142239 -0.0006957896
000180 6c 5f e1 bb 68 32 15 bd 79 35 2c 3e 2e 1a ec bc
       -0.0068778303 -0.036425024 0.16817273 -0.028821077
000190 76 9b 3d 3e e9 7c a1 bc 82 fe a8 bc 63 be 37 be
       0.18516335 -0.019712882 -0.020629171 -0.1794372
0001a0 ab e3 f8 3c 20 6b a3 bc 07 58 48 be e6 dd 4f 3b
       0.030381998 -0.019948542 -0.1956483 0.0031717955
0001b0 df 62 71 be 90 c4 3a be 1b d9 ce 3b 97 bc 09 be
       -0.23572873 -0.18239045 0.006312502 -0.13450848
0001c0 6c c5 22 be 99 5e 47 3e fb 1a 17 3c a4 63 0b 3d
       -0.15895623 0.1946968 0.009222741 0.03403057
0001d0 b1 03 5d 3d b3 3e 7e 3e 0a 1d 3b be 9e 29 40 bb
       0.0539586 0.24828605 -0.18272796 -0.002932168
0001e0 e6 6d 27 3e 74 a6 fb 3d 0b 66 69 be 84 24 22 3e
       0.16350517 0.12287608 -0.22792833 0.15834242
0001f0 22 6b ae 3d eb f6 9d 3d 09 e9 07 be 73 56 85 bd
       0.08516528 0.077131115 -0.1327249 -0.065106295
000200 2b 18 19 be 2b 62 45 3c 3f 47 b2 3a 2d 45 22 3e
       -0.14950626 0.012047331 0.0013601555 0.15846701
000210 84 9a d4 3d 3c 00 08 3e 71 1d 2c 3e 73 a6 eb bd
       0.10381034 0.1328134 0.16808106 -0.11506357
000220 44 d1 e3 3d da fa b4 3c 54 31 92 bd 26 dd 20 ba
       0.111238986 0.022092272 -0.07138315 -0.00061364693
000230 90 b4 0a be d2 3f 80 bc db cd 8c 3d 3f 78 20 3d
       -0.13545442 -0.015655432 0.06875201 0.039177176
000240 39 bd 72 3b f3 f6 65 3d a1 76 81 be 66 47 8a 3d
       0.0037039055 0.056143712 -0.2528582 0.067518994
000250 08 97 bc 39 4b d5 22 be 71 d0 1a 3e 09 a6 d9 37
       0.0003597068 -0.15901677 0.15118577 2.5945732e-05
000260 1a 6f 0c be 30 fb c4 3d af 9d f1 bd 1b ec 5b bc
       -0.13714257 0.09618223 -0.11797654 -0.013422991
000270 ca b1 b9 bb d9 b7 6d 3c 02 2a 46 3e 2e 65 37 3c
       -0.005666946 0.014509165 0.19351962 0.011193557
000280 a3 6b 01 bc b4 1e 29 be 6c 9c 15 3d 73 91 52 bc
       -0.007899198 -0.16515619 0.03652613 -0.012852061
000290 a2 69 83 bc e6 1a 41 bc 28 b8 41 3e 0e 6b 30 be
       -0.01604158 -0.011786198 0.18917906 -0.17228338
0002a0 a1 98 8c bd 57 ac e3 bd 7c 42 8c bb 8a 46 32 bd
       -0.06865049 -0.111168556 -0.0042803865 -0.043524303
0002b0 8f 0f 2a bd fc 49 14 be c0 aa c1 3b 11 ae d6 3d
       -0.041518744 -0.14481348 0.0059102476 0.10482419
0002c0 ec c8 b5 3d 96 7e 77 be 19 1a b9 38 2d 56 0c 3e
       0.088762134 -0.24169382 8.8263485e-05 0.13704748
0002d0 f7 71 87 3d f1 9c 03 be df 4b f2 bd a9 41 f4 ba
       0.06613534 -0.12852837 -0.118308775 -0.0018635291
0002e0 4f 43 d0 be 3e 12 73 3d 34 60 4c 3e 61 65 3c be
       -0.40676352 0.05934357 0.19958574 -0.18398048
0002f0 79 26 d4 bd 69 b6 6b be f3 87 4e be fb 44 50 3e
       -0.103589006 -0.23018803 -0.20169048 0.20338814
000300 66 dc 96 bc d1 f1 7a 3b 7a 81 a2 bb f5 6b 9c bd
       -0.018415641 0.0038291106 -0.0049592825 -0.07637779
000310 f7 96 03 3d c5 54 30 be 6d 31 3e 3e 8b 55 07 3e
       0.032126393 -0.17219837 0.18573542 0.13216226
000320 de 4c 38 3e f8 30 83 bb ce fc ab be 5e d3 5c 3a
       0.17998073 -0.0040036403 -0.33591312 0.000842383
000330 f8 a3 9c bd 60 5e 90 bd 2e b9 bb 3d ba 35 6e be
       -0.07648462 -0.070492506 0.091661796 -0.23262683
000340 31 72 9c bd 77 89 35 3e 9b d4 70 bd 81 71 98 3c
       -0.07638968 0.1772822 -0.058796506 0.01860881
000350 41 94 b2 3b 65 e0 97 bc 09 71 e0 3c a4 52 94 35
       0.005449802 -0.018539617 0.02739765 1.1050911e-06
000360 f3 f7 3b bb 2c 6f 07 be b9 9f 5a bd 96 5f 8d be
       -0.0028681725 -0.13226002 -0.05337498 -0.2761199
000370 ad dc 20 bc 2f f4 c5 be 53 55 62 3c 2d 1e 9c bc
       -0.009818238 -0.3866286 0.013814288 -0.019057358
000380 5c 5e f1 bb aa 03 27 3c 96 68 85 be 07 d6 15 3c
       -0.007365985 0.010193745 -0.26056355 0.009145266
000390 12 f1 83 ba 4e ad 75 bb 64 09 06 be f9 14 2f bd
       -0.0010066351 -0.003748733 -0.1308952 -0.04274461
0003a0 b2 c3 f5 ba be 02 25 3e 21 54 49 bd 29 bd 85 ba
       -0.0018750338 0.16114327 -0.049152497 -0.0010203469
0003b0 71 4a 01 be 9c fb b8 3d 1d dc 4a 39 e0 4a 69 3d
       -0.12626053 0.09032366 0.0001934622 0.056956172
0003c0 37 6b d0 bd 19 7f 83 be 93 bf 05 bc 15 0f 0c 3e
       -0.101766996 -0.25682905 -0.008163351 0.13677628
0003d0 ac bc 3f 3e d4 06 5b bd ca 18 c2 3d d0 56 65 3b
       0.18724316 -0.05347331 0.094773844 0.0034994371
0003e0 90 0e a7 3d 74 e1 bc bd 3a 5d 1a be 3e 2a 2e 3e
       0.081570745 -0.09222689 -0.15074626 0.17008302
0003f0 c6 4b 3a 3e 13 4e 01 be d9 84 75 be d0 1a 96 3d
       0.18192968 -0.12627439 -0.23976459 0.07329333

fc4.bias f4 [10]
000000 7e 55 42 bd af a9 26 be 2b 82 a4 bd 7c d5 bd bd
       -0.047444813 -0.16275667 -0.0803264 -0.092692345
000010 78 81 ea bc 09 be 06 be a9 a7 01 be 58 91 2c be
       -0.028626189 -0.1315843 -0.12661614 -0.16852319
000020 e8 8e 9c 3e cf 3b 1c 3e
       0.3057778 0.1525719
