artifacts/model_fp32.onnx (onnx, 10427 bytes, 3 tensors)

fc2.bias f4 [64]
000000 c0 50 ef 3d 22 a8 37 3d a0 c7 e0 3d 7f 37 df 3c
       0.11685324 0.04483808 0.109755754 0.027248142
000010 81 13 8f 29 4e b9 01 3e 2b 95 28 3b 83 b6 01 3e
       6.353859e-14 0.12668344 0.0025723677 0.12667279
000020 04 8a 47 3e 6e eb f3 3c 1b eb 60 3e 8e 47 31 3d
       0.19486243 0.029775348 0.21964686 0.04328113
000030 f2 a7 b8 3d c8 e3 eb 3d 67 85 d4 b9 57 fc 09 bd
       0.09016408 0.11518055 -0.00040535184 -0.033687916
000040 f9 3a 57 3d bb 3a ff 3d 75 1a e7 bc 72 ba e1 bb
       0.052546475 0.12462374 -0.028210858 -0.006888681
000050 c5 d3 95 bc f3 9e 0c 3e ee 1b a6 3b 2c ec 53 3e
       -0.018289456 0.1373251 0.0050692474 0.20695561
000060 c0 09 8f 3d 43 1d 17 9e 1b b3 b2 b3 43 54 83 3d
       0.069842815 -7.999925e-21 -8.32135e-08 0.06412556
000070 e3 4b 3a bd 9d ad 77 3c 3b be 0b 3e 6b 56 56 3c
       -0.045482527 0.015117076 0.13646786 0.013082127
000080 e2 2b 93 3d b0 10 b0 3d 36 6b 43 bd fb ca 37 b5
       0.07186104 0.08596933 -0.047709666 -6.846819e-07
000090 48 bc 8f 3d 15 56 ff 3d 96 ec 86 3d ba dd 7e bd
       0.07018334 0.12467591 0.06588094 -0.062223174
0000a0 5c c2 09 3e e0 8c 9b bc 3a c6 b7 3c 49 cc 9a 3d
       0.13453048 -0.018988073 0.022433389 0.075584956
0000b0 a7 68 d6 3c 3a 1f 06 3c 2c 38 14 b4 52 3e ed 3b
       0.026172949 0.008186156 -1.380401e-07 0.007240095
0000c0 39 2b 04 3e d2 c8 49 3d ff c5 8d 3d 48 b3 09 80
       0.12907113 0.049263783 0.069225304 -8.90833e-40
0000d0 63 be 39 3d a8 b2 0e 3d 76 03 b5 b2 78 f9 ed 3d
       0.045347583 0.03483835 -2.1072747e-08 0.11619848
0000e0 ca 07 95 a8 78 12 96 3d 50 d0 b3 bb e1 23 7d 3d
       -1.6545701e-14 0.073277414 -0.0054874793 0.061801795
0000f0 e3 42 c6 3d f7 a6 6a 3d 6c cc 9b 3d 10 17 9f ba
       0.096807264 0.057288136 0.0760735 -0.001213761

fc3.bias f4 [32]
000000 d5 ec 62 aa 45 ce cf 3c 77 88 35 bc a7 7e 2d 3e
       -2.0155e-13 0.025366912 -0.011079899 0.16942845
000010 1b e5 b4 3d 2b f4 b9 3d df dd 45 3d 99 97 ad 3d
       0.08832761 0.090797745 0.048307296 0.084761806
000020 21 4c dc 3d 03 0e b6 bb 94 96 f1 3d a9 f2 16 bc
       0.10756708 -0.0055558695 0.117962986 -0.009213128
000030 2b af 1f 3b 1f 77 1a 3e de 29 a4 3d 12 7e 84 3e
       0.0024365883 0.15084504 0.08015798 0.25877434
000040 1c 73 31 0c c9 df 19 b6 b5 03 87 3d 0d d1 aa bc
       1.3670223e-31 -2.2929037e-06 0.06592504 -0.020851636
000050 15 d1 ee 3d 4d b2 cf 3d a4 36 42 3e 6b 3f 3b 3e
       0.11660973 0.1014143 0.18966156 0.18285911
000060 97 09 95 3d a8 13 8a 3d b8 f7 10 3c 55 e4 04 3e
       0.0727722 0.067420304 0.008848123 0.12977727
000070 10 d3 00 3e 63 79 87 3c e3 36 96 b9 ce fb 9c 3d
       0.12580514 0.016537374 -0.00028651123 0.076652154

fc4.bias f4 [10]
000000 32 aa 24 be b3 30 32 3e fc 23 9e 3b b6 66 1c be
       -0.1608055 0.1740139 0.004826067 -0.15273556
000010 af d5 59 3e 48 b8 2c bd 90 71 6e 3b b8 d3 e0 bd
       0.2127292 -0.04216793 0.0036383606 -0.10977882
000020 e8 d4 b6 bc 4b ba 7b 3e
       -0.022318318 0.24582784
