artifacts/model_fp32.pth (torch, 974583 bytes, 8 tensors)

fc1.weight f4 [256, 784]
0	0x3c454265	0.0120397555
1	0x3c4a93ac	0.012364309
2	0x3be842b2	0.007088029
3	0x3c51c623	0.012803587
4	0x3beab97d	0.007163225
5	0x3c178d08	0.009249933
6	0x3bbf38b4	0.005835617
7	0x3c36dc88	0.011160977
8	0x3c4ec343	0.012619796
9	0x3b971f7b	0.004611907
10	0x3c4dc286	0.012558585
11	0x3c165cbc	0.009177383
12	0x3c44f38e	0.012020959
13	0x3c1638ba	0.009168798
14	0x3c2e7cd7	0.010649881
15	0x3bf7655d	0.0075499252
16	0x3c45c65e	0.01207122
17	0x3c132a7c	0.008982297
18	0x3bc27961	0.0059348796
19	0x3c1bdd41	0.0095132
20	0x3bc3774f	0.0059651504
21	0x3bfb44a6	0.0076680956
22	0x3bcc5566	0.006235766
23	0x3c3d0a8e	0.011538161
24	0x3b8e10ae	0.0043354845
25	0x3bc36bd9	0.005963784
26	0x3be07208	0.006849531
27	0x3baca176	0.005268271
28	0x3c0ed38c	0.008717429
29	0x3b5bac39	0.00335194
30	0x3c5083d7	0.012726746
31	0x3b844c6d	0.004037431
32	0x3c45e025	0.012077366
33	0x3c14da56	0.0090852585
34	0x3bf5bf4c	0.007499611
35	0x3c4f6f21	0.012660773
36	0x3c4f0f92	0.01263799
37	0x3c5d156d	0.013493878
38	0x3c20da9a	0.009817744
39	0x3c10e5b7	0.008843831
40	0x3c66a6aa	0.014077822
41	0x3c2228ff	0.00989747
42	0x3c2d199d	0.010565189
43	0x3c9b74f3	0.018976664
44	0x3d069e5a	0.03286586
45	0x3c6b283d	0.014352855
46	0x3c577f7e	0.013152955
47	0x3c5dd037	0.013538412
48	0x3c5edfba	0.013603145
49	0x3bf3374a	0.0074223625
50	0x3bbb3d91	0.0057141264
51	0x3bd85285	0.006601634
52	0x3b91b268	0.0044463165
53	0x3c49cece	0.0123173725
54	0x3c1e8e29	0.009677448
55	0x3c28cde6	0.010302996
56	0x3c20d928	0.009817399
57	0x3c05bf36	0.008163264
58	0x3c46bbe9	0.012129762
59	0x3b8ab41f	0.004232898
60	0x3c0a2682	0.008432033
61	0x3ba4aab2	0.0050252313
62	0x3c6041d5	0.013687571
63	0x3c4fdb67	0.012686587
64	0x3c92fb00	0.017941952
65	0x3c751ddf	0.014960735
66	0x3cc2ca3c	0.023778073
67	0x3cb0ca70	0.021580905
68	0x3c92300b	0.017845174
69	0x3c9b8a50	0.018986851
70	0x3d54001f	0.051757928
71	0x3d7a7329	0.06114498
72	0x3da00167	0.078127675
73	0x3d581d4f	0.052762326
74	0x3cf6f7e4	0.0301475
75	0x3c51fe18	0.012816928
76	0x3c47198c	0.012152087
77	0x3c9f2cbd	0.019430513
78	0x3c977177	0.018486721
79	0x3c873ea2	0.016509358
80	0x3bd7a4da	0.006580931
81	0x3b9c98c5	0.0047789537
82	0x3c324191	0.01087989
83	0x3bcca694	0.0062454436
84	0x3c3874e8	0.011258341
85	0x3be7c4bc	0.007073013
86	0x3c33c081	0.0109711895
87	0x3b446665	0.0029968258
88	0x3bc1c4e8	0.0059133656
89	0x3c3ad516	0.011403343
90	0x3cc331f0	0.023827523
91	0x3c7f5e45	0.01558644
92	0x3c1ebb50	0.0096882135
93	0x3c72286a	0.014780143
94	0x3c08d8f5	0.008352508
95	0x3ab591ee	0.0013852695
96	0xbba93e54	-0.005164901
97	0xbc28799f	-0.010282903
98	0x3cda2c84	0.026632555
99	0xbb597cf8	-0.003318606
100	0x3b403b33	0.002933216
101	0xbabceae6	-0.0014413267
102	0x3c44a4c5	0.012002175
103	0x3d299510	0.041401923
104	0x3c5ff6bf	0.013669669
105	0x3cb46811	0.022022279
106	0x3bdeafc4	0.0067958552
107	0x3c0450c1	0.008075894
108	0x3bba865d	0.005692287
109	0x3b9a910f	0.0047169994
110	0x3c5f4d01	0.013629199
111	0x3c168071	0.009185896
112	0x3c2030c1	0.009777249
113	0x3b6d8ce8	0.0036247317
114	0x3b978309	0.004623775
115	0x3bba1de6	0.0056798337
116	0x3c1a1005	0.009403233
117	0x3c55ce6a	0.013049701
118	0x3cce6443	0.025194293
119	0x3c8184a4	0.015810318
120	0xbb861b42	-0.004092605
121	0x3c9788d8	0.01849787
122	0x3cac0c0e	0.021001842
123	0xbcf36460	-0.029710948
124	0xbd31ddf9	-0.04342458
125	0xbd7508ca	-0.059822835
126	0xbd94a9d9	-0.07258958
127	0xbdb6e283	-0.089299224
128	0xbc0a5302	-0.008442642
129	0x3c0897e4	0.008336995
130	0x3cf9854b	0.030459067
131	0x3d17aff5	0.03703304
132	0x3b9224ce	0.004459954
133	0x3d0b2a9d	0.033976186
134	0xbc79b430	-0.015240714
135	0xbbe8e0e5	-0.0071068876
136	0xbb7937e2	-0.0038027694
137	0x3aff1cc0	0.0019463524
138	0x3c18e6cf	0.009332373
139	0x3bebc190	0.0071947053
140	0x3c26c847	0.010179586
141	0x3b88fac4	0.004180284
142	0x3c44b3a9	0.012005725
143	0x3b83bc8c	0.0040202793
144	0x3c4a66c7	0.012353606
145	0x3c92390d	0.01784947
146	0x3d234986	0.03986504
147	0x3c8cde68	0.017195895
148	0x3c055379	0.008137577
149	0x3c0495d4	0.008092362
150	0x3c4e6b95	0.012598892
151	0xbcc3ad95	-0.023886481
152	0xbc2ed5e9	-0.010671117
153	0xbc9083dc	-0.017641
154	0x3c949546	0.018137585
155	0xbb5b69c2	-0.0033479785
156	0x3d8741c5	0.066043414
157	0x3db7bebc	0.089719266
158	0x3dbe3c10	0.092888
159	0x3d7018cc	0.0586174
160	0x3d16718d	0.036729384
161	0xba874047	-0.0010318839
162	0xbc1228da	-0.008920873
163	0xbc805314	-0.015664615
164	0x3ab61269	0.0013890985
165	0x3b7dcc4c	0.0038726507
166	0x3bb8ec4c	0.005643403
167	0x3c4e4576	0.012589803
168	0x3c1944e7	0.0093548065
169	0x3bb451e3	0.0055029257
170	0x3bb07dc9	0.0053860885
171	0x3b728d62	0.003701054
172	0x3a9246f1	0.0011160058
173	0xbc802fc2	-0.015647773
174	0x3aa7039d	0.0012742166
175	0xbc6aa33c	-0.014321145
176	0xbd33ca45	-0.04389407
177	0xbc25b051	-0.010112838
178	0x3c386617	0.011254809
179	0x3c4f940f	0.012669577
180	0x3d03911f	0.03212082
181	0x3cd97487	0.026544822
182	0x3d19c1f0	0.03753847
183	0x3d1f5d24	0.038907185
184	0x3da0bd7b	0.078486405
185	0x3da85829	0.0821994
186	0x3d4dd7d9	0.050254676
187	0x3bfddd4e	0.007747329
188	0xbd2468fe	-0.04013919
189	0xbd41dfde	-0.047332637
190	0xbd213b76	-0.039363347
191	0xbcdc102b	-0.026863178
192	0xba899840	-0.0010497645
193	0x3c5ce065	0.013481234
194	0x3bfa5575	0.007639582
195	0x3bf4007f	0.007446348
196	0x3c085856	0.008321842
197	0x3c0154c0	0.007893741
198	0x3c164afd	0.009173152
199	0xbc6f1649	-0.014592716
200	0xbc989cfe	-0.018629547
201	0xbcb84904	-0.022495754
202	0x3be873b5	0.0070938715
203	0xbc2f806a	-0.010711769
204	0xbd4a313a	-0.049363352
205	0xbcfd384c	-0.030910634
206	0x3cd471ac	0.02593311
207	0x3d47ee07	0.048810985
208	0x3d47de4e	0.04879599
209	0x3d296987	0.041360404
210	0x3d674fb8	0.05647251
211	0x3ca886b6	0.020572048
212	0xbcb9db9c	-0.022687726
213	0x3c1a674d	0.009424043
214	0xbd409be9	-0.047023688
215	0xbd3f0778	-0.046637982
216	0xbd27bb8e	-0.04095035
217	0xbd42ef4a	-0.047591485
218	0xbd2a7d5f	-0.04162347
219	0xbd869e60	-0.065731764
220	0x3b1fea65	0.0024401185
221	0x3c941e03	0.018080717
222	0x3bdc62a6	0.006725627
223	0x3bf41b2f	0.0074495296
224	0x3b58b942	0.0033069407
225	0x3c3d4cf8	0.011553995
226	0x3c3a77db	0.011381115
227	0xbb24d938	-0.0025153887
228	0xbc26bac4	-0.010176364
229	0xbc281fb8	-0.010261469
230	0xbb802b53	-0.0039114146
231	0xbc8e75e6	-0.017390203
232	0xbd23163c	-0.039816126
233	0xbcdc052f	-0.02685794
234	0x3caa6acd	0.02080288
235	0x3d4b5bcc	0.04964809
236	0x3ccfeb8d	0.025380874
237	0x3ce44a29	0.027867394
238	0xbc04ffb8	-0.008117609
239	0xbda0304e	-0.078217134
240	0xbd89f336	-0.06735842
241	0xbd6a62f2	-0.057223268
242	0xbcd92f2f	-0.026511757
243	0xbd3a613a	-0.04550288
244	0xbd2773a0	-0.040881753
245	0xbd9ef138	-0.077608526
246	0xbd2852ca	-0.04109458
247	0xbd525d92	-0.051358767
248	0xbc7d5959	-0.015463197
249	0x3c0d41f9	0.008621686
250	0x3b9f67dd	0.0048646764
251	0x3b9620ed	0.004581562
252	0x3bf199a5	0.007373052
253	0x3bbdeef9	0.00579631
254	0x3ba6a63d	0.005085735
255	0xbb335ca6	-0.0027368455

fc1.bias f4 [256]
0	0xbb2cf929	-0.0026393628
1	0xbc179118	-0.009250902
2	0x3d0a7982	0.033807285
3	0xbc33bdc4	-0.010970537
4	0xbab7201b	-0.001397136
5	0xbcc508c5	-0.024052033
6	0xbca38989	-0.019963043
7	0xbcd93c27	-0.02651794
8	0xbc3373e6	-0.010952925
9	0x3c0c0c55	0.008547862
10	0xbd234c35	-0.0398676
11	0xbccf1827	-0.025280071
12	0xbca193aa	-0.019723732
13	0x3b7f07dd	0.00389146
14	0x3c8575f9	0.016291605
15	0xbcbcef54	-0.02306334
16	0xbc756a0f	-0.0149789
17	0x3a222766	0.00061856804
18	0x3d2e10f1	0.042496625
19	0xbc800f6e	-0.015632357
20	0x3c6bb037	0.014385275
21	0x3c84c016	0.016204875
22	0xbb810b9e	-0.0039381525
23	0x3ca6bd48	0.020353928
24	0xbc5f3ccf	-0.013625338
25	0xb9bdf4e2	-0.0003623134
26	0xbca2621e	-0.019822177
27	0xbbcdd019	-0.0062809107
28	0xbc409ea4	-0.011756573
29	0xbce2cf13	-0.027686631
30	0xbb7e3f40	-0.0038795024
31	0x3af965a0	0.0019027479
32	0xbc977273	-0.01848719
33	0xbc3399f0	-0.0109619945
34	0xbd071d36	-0.032986842
35	0x3ccb2465	0.024797628
36	0xbc3f26f8	-0.011667006
37	0x3c11b1f9	0.00889253
38	0xbd02edda	-0.031965114
39	0xbbce0bd2	-0.00628803
40	0x3bcf1540	0.006319672
41	0x3c998cb6	0.018743854
42	0xba7dcae7	-0.0009681419
43	0x3cc14a11	0.023594888
44	0xbc7cdec3	-0.01543397
45	0xbc67dafa	-0.014151329
46	0x3c0e5f1c	0.008689668
47	0x3c743359	0.01490482
48	0xbc7e60bd	-0.015525994
49	0xbca23650	-0.019801289
50	0xbc4aba74	-0.012373555
51	0x3bf35c6e	0.00742679
52	0x3b723c4d	0.0036962212
53	0x3ce8f461	0.028436841
54	0xbc3e51ae	-0.011616154
55	0xbb11b4d0	-0.0022233017
56	0xbc88e9d7	-0.016713066
57	0x3b83ac9b	0.004018379
58	0xbbd882a1	-0.006607369
59	0xbd418b79	-0.047252152
60	0x3d046c9a	0.032330133
61	0xbbf885b7	-0.0075842994
62	0xbc05fe83	-0.008178356
63	0xbcefdb0c	-0.029279254
64	0xbcc37466	-0.023859214
65	0x3c6144b8	0.013749294
66	0xbb1e782b	-0.0024180512
67	0x3c03b7bd	0.008039412
68	0xbb9265a1	-0.0044676815
69	0x3c87e295	0.016587535
70	0xbbe1b13f	-0.0068875845
71	0xbc4161dc	-0.011803117
72	0x3ca440a3	0.020050352
73	0x3b60a27e	0.003427654
74	0xbcf34a09	-0.029698389
75	0xbc8fb445	-0.017542014
76	0xbcfbaae2	-0.030721132
77	0xbca764c0	-0.020433784
78	0xbcbdd5c3	-0.023173219
79	0xbd02f5cd	-0.031972695
80	0xbd036ca8	-0.032086045
81	0x3b65ed26	0.0035083978
82	0xbc6786cc	-0.014131259
83	0xbc119929	-0.008886614
84	0xbbfac38c	-0.0076527055
85	0xbc234a9e	-0.009966521
86	0xbc1fc0c3	-0.009750548
87	0xbcbf09cb	-0.0233201
88	0x3bb17273	0.0054152547
89	0x3b8dfc44	0.004333051
90	0xbc2e3c55	-0.010634501
91	0xbcfa587a	-0.030559767
92	0xbbd29451	-0.006426372
93	0xbc7add2b	-0.01531152
94	0xba34b62b	-0.00068936
95	0xbc8b5ff0	-0.01701352
96	0xbcd61e6b	-0.026137551
97	0x3a7c361a	0.0009621099
98	0xba8d99f1	-0.0010803324
99	0xbbfea7d8	-0.0077714734
100	0x3ca8e455	0.02061669
101	0x3c02b51c	0.00797775
102	0xbcc99f83	-0.024612194
103	0xbc5061c5	-0.012718623
104	0xbc6eb311	-0.01456906
105	0xbd0bdf35	-0.034148414
106	0xbb9ae8ae	-0.0047274446
107	0xbccc40f6	-0.02493332
108	0x3af6d57c	0.0018831934
109	0xbbd1f2f0	-0.0064071342
110	0xbd4c18b1	-0.049828235
111	0xbccd50f7	-0.025063021
112	0x3b86417f	0.004097163
113	0xbd2efbd4	-0.04272063
114	0xbc9d36df	-0.019191204
115	0xbc339145	-0.010959928
116	0xbd03811e	-0.032105558
117	0x3ab4bcde	0.0013789197
118	0xbc924f23	-0.017860001
119	0xbc6424c6	-0.013924783
120	0xbac049b2	-0.00146704
121	0x3b54fdba	0.0032499866
122	0x3c289d41	0.0102913985
123	0xbc150c14	-0.009097118
124	0xbc61cf57	-0.013782344
125	0x3d4b2290	0.04959351
126	0xbc64cc42	-0.0139647145
127	0xbc318517	-0.010834954
128	0x3ae14c72	0.001718892
129	0xbcb4d53a	-0.02207433
130	0xbca0406f	-0.019561974
131	0x3c8c56d0	0.01713124
132	0x3cc352bf	0.023843167
133	0xbcc6ce25	-0.02426822
134	0x3ca3abdb	0.019979408
135	0x3c638ea6	0.0138889905
136	0x3ad503f1	0.0016251785
137	0x3ba857fa	0.0051374407
138	0xbc82417b	-0.015900364
139	0x3b561aec	0.0032669855
140	0xbc4b71ea	-0.012417296
141	0x3c038c89	0.008029112
142	0xbcdc1d41	-0.026869418
143	0xbc97df6b	-0.018539151
144	0xbc9b807a	-0.01898216
145	0xbcdc25d7	-0.026873512
146	0xbc94dfd2	-0.018173132
147	0xbc5a3ffd	-0.01332092
148	0xbc14bcfe	-0.009078262
149	0xbcc4f8f5	-0.024044493
150	0xbcaa7335	-0.020806888
151	0xbcbf90be	-0.023384448
152	0xbb6dc5b6	-0.0036281175
153	0xbbfc987f	-0.0077086086
154	0xbc35f966	-0.0111068245
155	0x3c8336da	0.016017366
156	0xbb51a238	-0.003198756
157	0xbca8e5f8	-0.02061747
158	0x3c671f53	0.014106589
159	0xbb870fed	-0.0041217715
160	0xbc6152e4	-0.013752673
161	0xbd2ccd7c	-0.042188153
162	0xb8509ba1	-4.9736005e-05
163	0xbc28f0b3	-0.010311293
164	0x3b065aeb	0.0020500969
165	0xbd0b5fb0	-0.0340268
166	0xbb17c181	-0.0023156109
167	0x3c08e6c7	0.008355803
168	0xbb6a38a7	-0.0035739334
169	0xbbe82458	-0.0070844106
170	0xbc5bfd03	-0.013427022
171	0xbc0f4e1b	-0.008746649
172	0xbd5c99fe	-0.053857796
173	0xbc0b2dd0	-0.008494809
174	0x3d0945d2	0.03351385
175	0x3c3cf6dd	0.011533466
176	0xbbdc9c96	-0.0067325337
177	0xbc9a5d3e	-0.01884329
178	0x3a98d708	0.0011660764
179	0xbc9ee9a3	-0.019398516
180	0xbc47fede	-0.012206761
181	0x3c314c55	0.010821422
182	0xbc4b982e	-0.012426419
183	0xbbe11de7	-0.0068700197
184	0xbc470dff	-0.012149333
185	0xbd20c2fa	-0.039248444
186	0xbc1dc8d1	-0.009630398
187	0xbba848bc	-0.0051356237
188	0x3c89f49b	0.01684027
189	0x3bbe145a	0.005800766
190	0x397331e0	0.00023192866
191	0xbc3b48e8	-0.011430956
192	0xbb8b942b	-0.0042596064
193	0xb8b077be	-8.414638e-05
194	0xbcab8f1b	-0.020942261
195	0xbcf368cb	-0.029713055
196	0xbca00b36	-0.019536596
197	0x3b9add3d	0.0047260807
198	0xbc6008e2	-0.013673993
199	0xbacb0af4	-0.0015490935
200	0xbcc9d67f	-0.024638413
201	0xbca51884	-0.020153292
202	0xbd453299	-0.048143957
203	0x3cc39f05	0.023879537
204	0xbd0d27ed	-0.034461904
205	0xbb333dcd	-0.0027350069
206	0xbce1ace9	-0.02754827
207	0xb994128a	-0.00028242572
208	0xbcf88dd3	-0.030341065
209	0x3ca5c0dc	0.020233564
210	0xbc57a631	-0.013162182
211	0xbba44bd8	-0.005013924
212	0x3b3e3218	0.0029021557
213	0x3bf22db1	0.0073907007
214	0xbcc386f2	-0.023868058
215	0xbd0cc5c8	-0.034368306
216	0x39a27131	0.00030983382
217	0x3c54117e	0.012943624
218	0xbc8b336e	-0.016992297
219	0x3d09981a	0.03359232
220	0xbc14b355	-0.009075959
221	0xb978ceaa	-0.00023728111
222	0x3c9bc290	0.019013673
223	0xbc9da3ba	-0.01924311
224	0xbd1ad642	-0.03780199
225	0xbce0dadb	-0.027448108
226	0x3bd55189	0.006509964
227	0x3cb2aa84	0.021809824
228	0xbc80fbae	-0.01574501
229	0xbb190b75	-0.0023352776
230	0xbb30e503	-0.002699197
231	0x3b4c6fc0	0.0031194538
232	0x3b8d4c66	0.004312086
233	0xbbce81af	-0.0063020806
234	0x3c1ca3d4	0.009560544
235	0xbbbb309c	-0.005712582
236	0x3c115b28	0.008871831
237	0xbcc802a0	-0.024415314
238	0xbab2b3e3	-0.0013633933
239	0xbc8b44f4	-0.017000653
240	0xbc3b231c	-0.011421945
241	0xbc6ab848	-0.014326163
242	0xbc68ae91	-0.014201776
243	0xbba876cc	-0.005141115
244	0xbcda179f	-0.026622592
245	0xbb9cd761	-0.0047864174
246	0xbcc28d6d	-0.023749078
247	0xbca085d4	-0.019595064
248	0xbd193ed0	-0.03741342
249	0x3c1109a5	0.008852397
250	0xbc055caa	-0.008139769
251	0xbbfc3ea5	-0.0076978975
252	0xbb981b45	-0.0046419227
253	0x3c5274fa	0.012845272
254	0xbc7862d1	-0.015160278
255	0xbc6cf69e	-0.014463095

fc2.weight f4 [128, 256]
0	0xbba6226c	-0.0050700214
1	0xbd9e0b59	-0.07717008
2	0x3d782d1d	0.0605899
3	0xbd1589e6	-0.036508463
4	0x3d8bbf1b	0.0682356
5	0x3dba3d4b	0.09093722
6	0xbd50243f	-0.050815817
7	0x3d56499d	0.052316297
8	0x3a19ae71	0.00058624806
9	0x3d89865e	0.06715082
10	0xbdd70d15	-0.10500542
11	0xbe0c9286	-0.1372777
12	0xbda8b3d2	-0.08237423
13	0xbd2433bf	-0.04008841
14	0x3d805c93	0.06267657
15	0xbe24162b	-0.16024081
16	0xbd18720b	-0.037218135
17	0x3c8dac77	0.017294152
18	0x3d1d70cd	0.038437653
19	0xbe029ef5	-0.1275595
20	0x3d22a116	0.039704405
21	0x3d6e70e1	0.05821312
22	0x3e1320d7	0.14367996
23	0xbd89bba1	-0.067252405
24	0x36729c40	3.615176e-06
25	0x3a00f486	0.00049192493
26	0xbd2f8519	-0.04285154
27	0xbc982ef7	-0.018577082
28	0xbddace7a	-0.106839135
29	0x3e124534	0.14284211
30	0x3a8f83f9	0.0010949365
31	0xbbabe76c	-0.0052460935
32	0x3b69414c	0.0035591898
33	0xbd776b78	-0.060405225
34	0xbdf5073f	-0.11964273
35	0x3cf0a49f	0.029375372
36	0x3d911732	0.07084502
37	0x3d117c13	0.035518717
38	0x3ccbc72f	0.024875252
39	0x3c3b73e1	0.011441202
40	0x3c98618f	0.018601207
41	0xbc8ac3ba	-0.016939033
42	0x3d63d264	0.055620566
43	0x3d693b54	0.056941345
44	0x3cc861d6	0.024460714
45	0x3e3e37cc	0.18575972
46	0x3d9b4556	0.07581584
47	0xbc447f9e	-0.011993317
48	0xbd0ebdc5	-0.034848947
49	0x3c5300fb	0.012878652
50	0x3cd34944	0.025791772
51	0x3db59595	0.08866421
52	0xbb877c52	-0.004134693
53	0x3c64df60	0.013969272
54	0x3de51df7	0.11187356
55	0x3d400868	0.046883017
56	0x3d8d400e	0.06896983
57	0xbd0b05c6	-0.033941053
58	0xbc9a3744	-0.01882518
59	0x3bfeae9a	0.007772279
60	0xbe23a560	-0.15981054
61	0x3e0c07d4	0.13674861
62	0xbca71e80	-0.020400286
63	0x3b9caab9	0.004781094
64	0x3d9b7750	0.075911164
65	0xbd525a32	-0.05135555
66	0x3c323c58	0.010878645
67	0xbc5eeb25	-0.0136058675
68	0x3df8902e	0.12136875
69	0xba9b497e	-0.0011847464
70	0x3cd1317b	0.02553629
71	0x3da01f04	0.07818416
72	0xbd3599a9	-0.044335995
73	0xbd8b9e76	-0.068173334
74	0xbc9a6ec6	-0.018851649
75	0x3cdb1dd6	0.026747625
76	0xbc147eac	-0.009063404
77	0xbe11b9c2	-0.14231017
78	0xbdaf1b3a	-0.08550115
79	0x3d8d6084	0.069031745
80	0x3dd1ba1d	0.102405764
81	0x3d79d3b6	0.06099292
82	0x3c7a2525	0.015267645
83	0x3d4f29b9	0.0505769
84	0x3d845f3e	0.064634785
85	0x3b85c839	0.0040827063
86	0xbd72b303	-0.05925275
87	0x3d8a9627	0.067669205
88	0x3ccf1a96	0.025281232
89	0x3d7ec5db	0.06220041
90	0xbd3d2291	-0.046175543
91	0xbd19209c	-0.037384614
92	0xbd7d8416	-0.061893545
93	0x3c2f4732	0.010698127
94	0x3a6bf8f1	0.0009001634
95	0x3db10c97	0.086449794
96	0x3d79ab25	0.06095423
97	0x3ca86f13	0.020560777
98	0x3d2b4e2c	0.041822597
99	0x3d654118	0.05597028
100	0x3d2724a5	0.04080643
101	0xbc9ddea4	-0.019271202
102	0xbbd08c19	-0.006364357
103	0xbd1eb486	-0.03874638
104	0x3d71c591	0.059026305
105	0xbd05a049	-0.032623563
106	0x3ce3ec80	0.027822733
107	0x3d0954d9	0.033528183
108	0x3db53b2b	0.08849176
109	0xbe0bd6a6	-0.136561
110	0x3e0780cd	0.13232727
111	0xbd38d0ee	-0.045121126
112	0x3cacb116	0.021080535
113	0x3e7419d4	0.23837978
114	0xbd9706c0	-0.07374334
115	0x3d7e3242	0.06205965
116	0xbd10c76b	-0.03534643
117	0xbc45c695	-0.012071271
118	0xbd54b04d	-0.051925946
119	0xbcc33039	-0.023826705
120	0xbdcccf25	-0.10000447
121	0xbdbaf7fd	-0.09129331
122	0xbd66295f	-0.0561918
123	0xbd3fa8f4	-0.046791986
124	0xbc88451c	-0.016634516
125	0x3ca6e065	0.020370672
126	0xbd36b9e2	-0.044610865
127	0xbd849498	-0.064736545
128	0x3d8b2e54	0.06795946
129	0xbbd56f3d	-0.006513505
130	0x3d2ab3ed	0.041675497
131	0xbb06e678	-0.0020584147
132	0xbcb66899	-0.022266673
133	0x3d9bbb24	0.076040536
134	0x3db6c0df	0.08923506
135	0xbd868613	-0.065685414
136	0xbd5be663	-0.05368651
137	0xbcd3ede9	-0.02587028
138	0xbd984b15	-0.07436196
139	0x3cf32a13	0.029683148
140	0xbc8d70c9	-0.017265694
141	0x3cf25a6a	0.029584128
142	0x3c805818	0.015667006
143	0xbd381948	-0.044945985
144	0xb9bcd96c	-0.00036020146
145	0xbd67b4f6	-0.056569062
146	0x3cc476c8	0.02398242
147	0xbc8b4f7c	-0.017005675
148	0xbd29d5c0	-0.041463614
149	0x3e26debe	0.16295907
150	0xbda6a720	-0.08137345
151	0xbd552f1d	-0.052046884
152	0xbd8eabc2	-0.06966354
153	0xbe329a1a	-0.17441598
154	0xbe37a323	-0.17933325
155	0xbc8f375a	-0.017482448
156	0x3c45304c	0.012035441
157	0xbce47bca	-0.027891058
158	0xbd2d856b	-0.042363565
159	0x3d9e586a	0.077317074
160	0x3bfe20c4	0.007755371
161	0x3c8baf4a	0.017051358
162	0x3dbba7da	0.091628745
163	0xbd929ded	-0.07159028
164	0x3beea431	0.0072827567
165	0x3ca698bc	0.020336501
166	0xbc7c2319	-0.015389227
167	0x3da50e6d	0.08059392
168	0x3de240fe	0.110475525
169	0xbd5a9fc4	-0.05337502
170	0xbcc95c36	-0.024580102
171	0xbd1cc3db	-0.03827272
172	0x3d91e703	0.0712414
173	0x3d98afba	0.07455392
174	0x3df0031d	0.11719344
175	0x3dae39ae	0.08507095
176	0x3bffeca0	0.0078101903
177	0x3c1b14f7	0.009465448
178	0xbd60f0f4	-0.05491729
179	0xbdd6447e	-0.104622826
180	0xbcc0abb2	-0.02351937
181	0x3d886ba3	0.06661155
182	0x3dab36de	0.083600745
183	0x3bb1e94a	0.0054294216
184	0xbca7346c	-0.020410739
185	0x3c27771f	0.010221272
186	0x3ce7832d	0.028260792
187	0x3d421e54	0.047392204
188	0xbc7880da	-0.015167439
189	0x3e4bfad8	0.19919908
190	0xbdac6e06	-0.08419423
191	0x3d2463bd	0.04013418
192	0xbaf12cad	-0.0018400155
193	0xbc8f6ea2	-0.017508809
194	0x3d9c9d38	0.076471746
195	0xbd4e4049	-0.050354276
196	0xbe165968	-0.14682543
197	0x3da4279f	0.080153696
198	0xbb2a8718	-0.0026020464
199	0xbd25302b	-0.04032914
200	0xbd0418ec	-0.03225033
201	0x3dbaa8a2	0.091141954
202	0x3d96c5a2	0.07361914
203	0xbdb4bb67	-0.08824807
204	0x3d09c0c1	0.03363109
205	0x3a477df5	0.00076100166
206	0xbbfd56b4	-0.007731283
207	0x3c52faf2	0.012877213
208	0x3dc9f1f9	0.09860606
209	0x3d7bd31a	0.06148062
210	0x3dd6828f	0.10474121
211	0x3cb6f333	0.022332763
212	0x3cb4dc8a	0.022077817
213	0xbb195040	-0.002339378
214	0xbd126cab	-0.035748165
215	0xbcd0b6dd	-0.025477821
216	0x3d8395a0	0.06425023
217	0x3da6a6d1	0.081372865
218	0xbcbb03ea	-0.022829015
219	0xbd252698	-0.04032001
220	0xbd21358e	-0.039357714
221	0x3d4061d0	0.04696828
222	0xbe2e7e9b	-0.17040484
223	0xbdd31fe5	-0.10308818
224	0x3d92a35e	0.07160066
225	0x3e312fa9	0.17303337
226	0xbda87e01	-0.08227158
227	0x3d8279cf	0.063708894
228	0x3d22f94a	0.03978852
229	0xbc51670b	-0.012780915
230	0x3a9ea3a3	0.0012103211
231	0x3d8322d3	0.064031266
232	0xb9d2c209	-0.0004019889
233	0xbc416846	-0.011804646
234	0x3d6c9d66	0.057767294
235	0xbdc1f281	-0.09470082
236	0xbd27841d	-0.040897477
237	0x3c8fcd58	0.01755397
238	0x3b2cb2e3	0.0026351742
239	0xbd7c0d27	-0.06153598
240	0x3d776341	0.06039739
241	0x3c281086	0.010257846
242	0xbe69f374	-0.22846776
243	0xbd94677a	-0.07246299
244	0x3bf712bd	0.0075400756
245	0x3d23e572	0.040013738
246	0x3cac51c0	0.021035075
247	0x3da096c5	0.07841257
248	0x3ddc6fe6	0.107635304
249	0xbd406c22	-0.046978123
250	0xbd317c79	-0.043331597
251	0x3b8abe56	0.0042341156
252	0xbd2aa281	-0.041658882
253	0xbdfc7cdf	-0.12328505
254	0xbd441ab3	-0.047877025
255	0xbc45fe7f	-0.012084602

fc2.bias f4 [128]
0	0xbd022de7	-0.031782057
1	0x3d492eb7	0.049116816
2	0xbc8fc372	-0.01754925
3	0xbd50acd1	-0.05094606
4	0xae16e040	-3.4305225e-11
5	0xb3607eab	-5.2269268e-08
6	0x390d9a2a	0.00013504238
7	0xbd81ca08	-0.063373625
8	0xbc086904	-0.008325819
9	0xbb68f2ea	-0.0035545179
10	0xb317bd3a	-3.5329528e-08
11	0xbd850d74	-0.064967066
12	0x3ca335be	0.019923087
13	0xbba93515	-0.0051637986
14	0x3d976d04	0.0739384
15	0x3d891db0	0.066951156
16	0xb5c0ecac	-1.4373995e-06
17	0xbd441267	-0.047869112
18	0x3c2586d0	0.010102943
19	0x3cbf2cfc	0.02333688
20	0xbb40fd58	-0.002944788
21	0x3a9d7ff4	0.0012016282
22	0xbc6e7369	-0.014553883
23	0x3db66c1e	0.089073405
24	0xb0315915	-6.451882e-10
25	0x3d6d655b	0.05795799
26	0x3ddb8748	0.10719162
27	0x3c266917	0.010156891
28	0xbde4ebf9	-0.11177821
29	0x003bf525	5.506236e-39
30	0x3ba3f985	0.0050041103
31	0x3d9d8ade	0.076925024
32	0xbd093df5	-0.033506352
33	0xbd709059	-0.05873141
34	0xbd325b9e	-0.043544404
35	0xbd3a736d	-0.045520235
36	0xbd44902e	-0.047989063
37	0xbd4b1d78	-0.04958865
38	0xbd6034ee	-0.054737978
39	0x3d8c2968	0.06843835
40	0x3df95af1	0.12175549
41	0x3cadb250	0.02120319
42	0x3d3c0949	0.045907293
43	0x3c48afd7	0.012248955
44	0x0c921451	2.250709e-31
45	0xbd042f0e	-0.032271437
46	0xbba18322	-0.0049289623
47	0xbd917227	-0.07101851
48	0x3e1294b9	0.14314546
49	0x3bf1d506	0.0073801307
50	0x3d910c7e	0.07082461
51	0x3cdef813	0.0272179
52	0x3c7fbda8	0.015609182
53	0x3cb69c40	0.022291303
54	0x3c3821b3	0.011238503
55	0xbd4ba08e	-0.049713664
56	0xbd17dec4	-0.03707768
57	0x3c39d92c	0.011343282
58	0x3d972553	0.07380166
59	0x3dd8273b	0.105543576
60	0x3dd9d9fb	0.106372796
61	0xbc9a9127	-0.018868042
62	0x3d8d2a32	0.06892814
63	0xbd14d243	-0.036333334
64	0xbd739e7b	-0.05947731
65	0xbc8d26e9	-0.017230468
66	0xbd8b7dc2	-0.06811096
67	0x3bfae178	0.0076562725
68	0xbd5037e8	-0.050834566
69	0x3dcbc14f	0.0994898
70	0x30cbd3e7	1.483042e-09
71	0x3da7456f	0.0816754
72	0x3d9d382b	0.07676729
73	0x3c6da666	0.0145050045
74	0xaf7a4b3c	-2.2764096e-10
75	0xbd6fb7a3	-0.05852474
76	0xbd4b6287	-0.04965451
77	0xbc464958	-0.012102447
78	0xbadf2919	-0.0017025798
79	0x3dd95f68	0.106139004
80	0xbb001b91	-0.001954768
81	0x3d72d502	0.05928517
82	0xbd55c306	-0.052187942
83	0xbd1da7dd	-0.038490165
84	0xa5955a52	-2.5908583e-16
85	0xbb4d2cc8	-0.003130721
86	0xbbcca605	-0.006245377
87	0xbd672b02	-0.0564375
88	0x3d0c116d	0.034196306
89	0x3dbf29f9	0.093341775
90	0x3d8866a8	0.06660205
91	0x3d6774e5	0.056507964
92	0xa78af047	-3.8563204e-15
93	0xb297bde6	-1.766507e-08
94	0xbd97901f	-0.07400536
95	0x3c8cc0b5	0.017181734
96	0xbbd3d0fa	-0.006464121
97	0x3d15cf4b	0.036574643
98	0xb6fe70b5	-7.5829107e-06
99	0x3b2a019e	0.0025940905
100	0xbd823b5b	-0.063589774
101	0x3d8f75d0	0.07004893
102	0x3cb20141	0.021729114
103	0xbd3e1b90	-0.046413004
104	0xba860d56	-0.0010227363
105	0xbc4a6d44	-0.0123551525
106	0xb0ee262a	-1.7327626e-09
107	0x3dc282b2	0.094975844
108	0x3d322a81	0.043497566
109	0xbc40e9cd	-0.011774492
110	0x3dc51c31	0.09624518
111	0x3d4cb15d	0.049973834
112	0xbd69f58d	-0.05711894
113	0x3bed7420	0.007246509
114	0xbda30462	-0.0795982
115	0x3db9f0bd	0.0907912
116	0x3d0daa83	0.03458644
117	0xba96e615	-0.0011512662
118	0x00154404	1.952945e-39
119	0xbbfe26f6	-0.0077561093
120	0x3d3e02e4	0.046389475
121	0xbd0f7773	-0.035026025
122	0x3d8d74c1	0.06907035
123	0x3d81b270	0.063328624
124	0x3d09f3e7	0.03367987
125	0xb4e29cd9	-4.2209902e-07
126	0xb6ba7c6c	-5.5577166e-06
127	0xbd6e8078	-0.058227986

fc3.weight f4 [64, 128]
0	0xbdbe7a40	-0.09300661
1	0xbd9ce760	-0.07661319
2	0x3c1cee57	0.009578309
3	0x3a4f85f4	0.0007916384
4	0x398904ae	0.00026134163
5	0x3332d3ba	4.163642e-08
6	0x3d961f11	0.07330144
7	0xbdfc7b1a	-0.12328167
8	0xbdcec365	-0.10095862
9	0xbdbeafd4	-0.0931088
10	0x2f217bbb	1.4686823e-10
11	0xbd6464bf	-0.05576014
12	0x3dd3642c	0.10321841
13	0xbe06c808	-0.13162243
14	0x3d5b0dbb	0.05347989
15	0x3d5749e9	0.05256072
16	0x36fa66eb	7.462562e-06
17	0x3d91fff8	0.071289
18	0x3cc560c6	0.024093997
19	0x3db2849d	0.087167
20	0x3e522f86	0.20525941
21	0xbdc2593a	-0.09489675
22	0xbc487b91	-0.012236492
23	0x3d1d8952	0.038461037
24	0x2fe205ea	4.1113363e-10
25	0x3e2146c2	0.15749648
26	0x3d98a8f1	0.07454098
27	0x3d7a4909	0.061104808
28	0xbd936dbb	-0.07198664
29	0xb82080a7	-3.826679e-05
30	0x3d95eed4	0.073209435
31	0xbc25af1b	-0.010112549
32	0x3e0763ee	0.13221714
33	0xbdfa69e3	-0.122272275
34	0xbc479c77	-0.0121833
35	0xbe3896e8	-0.18026316
36	0x3c9c4109	0.01907398
37	0x3dd2c396	0.10291211
38	0xbded05fd	-0.11573408
39	0x3e044abc	0.12919134
40	0x3daa9502	0.08329202
41	0x3d943ccc	0.072381586
42	0x3d5f3a44	0.054498926
43	0x3e28fb9f	0.16502236
44	0xb57878ac	-9.25628e-07
45	0xbd64174d	-0.055686284
46	0x3dcb67b2	0.09931888
47	0xbe4fe491	-0.20302035
48	0x3df0b3b6	0.11753027
49	0xbc920e5d	-0.017829115
50	0x3d57edaa	0.05271689
51	0xbc549204	-0.012974266
52	0x3c934065	0.017975042
53	0x3df156f5	0.11784164
54	0xbce8730a	-0.028375167
55	0xbe03b425	-0.12861688
56	0x3de1a50e	0.1101781
57	0x3db33e8c	0.08752164
58	0x3d5ac00b	0.053405803
59	0xbd4efc39	-0.050533507
60	0x3c954390	0.018220693
61	0xbe7040c6	-0.23462209
62	0x3b54eaa9	0.0032488501
63	0xbe866da3	-0.2625552
64	0x3cebd7d6	0.028789442
65	0xbd03ed39	-0.032208655
66	0x3d67e3f5	0.05661388
67	0xbc1e6431	-0.009667442
68	0x3d7aab59	0.061198566
69	0x3da17818	0.07884234
70	0xaeaed98d	-7.951249e-11
71	0x3e371d3b	0.17882244
72	0x3de9fe26	0.11425428
73	0x3e2871fb	0.1644973
74	0x32efa393	2.7897647e-08
75	0x3d09891c	0.033578023
76	0xbcf090d6	-0.029365938
77	0x3dbaaef9	0.09115405
78	0xbdcc522b	-0.0997661
79	0x3e1e21aa	0.1544253
80	0x3b76562b	0.0037587981
81	0x3cd1101e	0.02552038
82	0x3e26e122	0.16296819
83	0x3d065a41	0.032800917
84	0x2f4669bc	1.804556e-10
85	0xbd8af0c0	-0.06784201
86	0xbc283d60	-0.010268539
87	0xbdac9a65	-0.08427886
88	0xbd85df94	-0.06536785
89	0x3dd7f6fa	0.10545154
90	0x3d6338fb	0.055474263
91	0xbdd855fb	-0.105632745
92	0xb89c20ca	-7.444767e-05
93	0x3b2b04a8	0.0026095305
94	0x3e00a3ea	0.12562528
95	0xbcf1d60a	-0.029521007
96	0x3e17758e	0.14790937
97	0xbdbf910b	-0.093538366
98	0xb972751e	-0.00023122548
99	0xbd2f2b70	-0.042766035
100	0xbd40fb96	-0.04711493
101	0x3e05fc85	0.1308461
102	0x3e091e1b	0.1339039
103	0xbc03e29a	-0.0080496315
104	0x3c18ca52	0.009325581
105	0x3de6892e	0.11256634
106	0x3441014f	1.7975002e-07
107	0x3d48d938	0.04903528
108	0x3b62e3e9	0.0034620708
109	0x3da41b84	0.08013061
110	0x3dcfaf63	0.10140874
111	0xbe220d20	-0.1582532
112	0xbdb4f633	-0.08836021
113	0x3dc47281	0.095921524
114	0xbdac3635	-0.08408777
115	0x3dc6d9d8	0.09709519
116	0x3d64eeab	0.055891674
117	0xbe029f24	-0.1275602
118	0xb3472faf	-4.6376666e-08
119	0x3b241b52	0.0025040698
120	0xbda156e1	-0.07877899
121	0xbbd7c2c2	-0.0065844962
122	0x3e0957e0	0.13412428
123	0x3ddaca9c	0.10683176
124	0x3dbc126a	0.091832
125	0x35973c83	1.1267988e-06
126	0x3b41eba5	0.0029589918
127	0xbbee0c98	-0.007264685
128	0xa833060b	-9.9378064e-15
129	0xb3c50b9b	-9.1756384e-08
130	0xa8c09faa	-2.1385525e-14
131	0xb2e58fb2	-2.6724454e-08
132	0x00256476	3.433952e-39
133	0x803166c4	-4.536805e-39
134	0x9d6f8e5d	-3.1704987e-21
135	0xad94c785	-1.6914256e-11
136	0x80191e80	-2.306829e-39
137	0xb093b783	-1.0747815e-09
138	0x00391a9d	5.24417e-39
139	0xa30eab9f	-7.734178e-18
140	0xb293ebb4	-1.7220238e-08
141	0xa4c77abf	-8.651043e-17
142	0xb5739bc5	-9.075123e-07
143	0xb204dd54	-7.733735e-09
144	0x0043c724	6.224416e-39
145	0xac70fea3	-3.4247403e-12
146	0xb4b6a56c	-3.4020502e-07
147	0xb514b239	-5.5393645e-07
148	0xae33f7ea	-4.092008e-11
149	0xa489aa9e	-5.9703316e-17
150	0xaec530a4	-8.967163e-11
151	0xb4c4a5aa	-3.662838e-07
152	0x8048a941	-6.672873e-39
153	0xb32c655b	-4.0139053e-08
154	0xab0035e5	-4.554953e-13
155	0xae10cab4	-3.2921846e-11
156	0xab94cc24	-1.0572693e-12
157	0x003a19e3	5.335745e-39
158	0xad574a94	-1.2237895e-11
159	0xb534da4c	-6.737289e-07
160	0xaeebeabe	-1.0728261e-10
161	0xa9473e56	-4.4240944e-14
162	0xadf88f03	-2.8257846e-11
163	0xaeb414a0	-8.189116e-11
164	0xb1f6ee4c	-7.1866335e-09
165	0xb45d8a35	-2.0632508e-07
166	0x9a301b00	-3.6417757e-23
167	0xb4a0b57b	-2.9934367e-07
168	0xb805f329	-3.193613e-05
169	0xb39ad85a	-7.210538e-08
170	0xb5a6e5b8	-1.2434821e-06
171	0xad67c335	-1.3174174e-11
172	0x81b593e8	-6.6701134e-38
173	0xb11be34f	-2.2684679e-09
174	0xb22f5604	-1.0205898e-08
175	0xaa124da7	-1.2994346e-13
176	0xb5ca5750	-1.5075584e-06
177	0xa6bb847e	-1.3011644e-15
178	0xb284d124	-1.5461929e-08
179	0xb5d4b831	-1.5848838e-06
180	0x15d23713	8.4905216e-26
181	0xac295214	-2.4061907e-12
182	0xa846609e	-1.10121585e-14
183	0x0450fc46	2.456612e-36
184	0xa5c776f9	-3.4601616e-16
185	0xb47d3f97	-2.3585595e-07
186	0xae3804bb	-4.1840958e-11
187	0xab0be7fa	-4.970465e-13
188	0xb7bf1b7e	-2.2781776e-05
189	0xaea345bd	-7.42477e-11
190	0xb64f395f	-3.0878798e-06
191	0x2390e708	1.5710357e-17
192	0xb0d05f70	-1.5161117e-09
193	0xb0cb8060	-1.480668e-09
194	0xafb0751b	-3.2097422e-10
195	0xa016b500	-1.2765382e-19
196	0xaded6e87	-2.6992865e-11
197	0xb705f4f5	-7.984451e-06
198	0x003fd034	5.860325e-39
199	0xb56b509f	-8.766164e-07
200	0xafc160bf	-3.5175238e-10
201	0xacfa3e42	-7.1123394e-12
202	0x0032151c	4.599347e-39
203	0xafab1875	-3.1122097e-10
204	0xa99aecaf	-6.880032e-14
205	0xb700d1b0	-7.678216e-06
206	0x9be4d41e	-3.7856513e-22
207	0xa8af1627	-1.943851e-14
208	0xb5d9e9a9	-1.6235764e-06
209	0xb237abde	-1.069108e-08
210	0xaf1fbd6f	-1.4528266e-10
211	0xa5fd1dd5	-4.390872e-16
212	0x803f7d61	-5.830614e-39
213	0xa39a1645	-1.6706145e-17
214	0xb4cb80e8	-3.7905488e-07
215	0xa4560570	-4.640846e-17
216	0xa10fbe30	-4.8701996e-19
217	0xb5c83111	-1.4915441e-06
218	0xb1e89db2	-6.7700165e-09
219	0x004063bd	5.913251e-39
220	0xa01c3467	-1.3231052e-19
221	0x003acac7	5.399202e-39
222	0xb38cc66d	-6.5553515e-08
223	0xb5754fdf	-9.138584e-07
224	0xb4fa988d	-4.6677124e-07
225	0xb401f783	-1.2104105e-07
226	0x811b13ec	-2.8483297e-38
227	0xb5020dcc	-4.844885e-07
228	0x2df84824	2.8226373e-11
229	0xac7262de	-3.444515e-12
230	0xacf37896	-6.919863e-12
231	0xb18849fc	-3.966532e-09
232	0x802d880b	-4.1814e-39
233	0x000040b3	2.321e-41
234	0x002a83b7	3.904341e-39
235	0xb164c15e	-3.3288283e-09
236	0xac7ffb08	-3.637703e-12
237	0xb194738a	-4.320502e-09
238	0xb03a6b51	-6.781891e-10
239	0xa9757fa3	-5.4511635e-14
240	0xaf78bdc6	-2.262289e-10
241	0x800441b8	-3.90917e-40
242	0xa78dd96b	-3.9371087e-15
243	0xb7644bae	-1.360748e-05
244	0x901fb4ec	-3.1496598e-29
245	0xb17c0e5a	-3.6678984e-09
246	0x81fb4f21	-9.231638e-38
247	0xb0f92b60	-1.8129462e-09
248	0xb0c2f0cc	-1.4183796e-09
249	0x97941ccc	-9.571545e-25
250	0xb63c0de0	-2.802226e-06
251	0xb5653839	-8.539096e-07
252	0xad09b4cc	-7.827693e-12
253	0x00059a66	5.14565e-40
254	0x0005f39c	5.46568e-40
255	0x00009c6a	5.6111e-41

fc3.bias f4 [64]
0	0x3d115cdb	0.035488945
1	0xa78d2c98	-3.918371e-15
2	0xa483b1ab	-5.7113175e-17
3	0x3d5ec611	0.05438811
4	0xbc165d16	-0.009177467
5	0x3e017111	0.12640788
6	0xbd5e8cf8	-0.054333657
7	0xbb0aec90	-0.002119813
8	0x3d1282e4	0.03576936
9	0x80111d44	-1.571702e-39
10	0xbd070fc8	-0.032974035
11	0x002c1d56	4.051286e-39
12	0x3cdf2dcc	0.027243517
13	0xb6fb11f6	-7.482474e-06
14	0x3d6ce47c	0.057835087
15	0xbda01fea	-0.07818587
16	0x39be9f0e	0.0003635813
17	0xbd7c7382	-0.061633594
18	0x3df45126	0.1192954
19	0x3de8bdd0	0.11364329
20	0xad78be9f	-1.4139494e-11
21	0x3d5f5c50	0.054531395
22	0x3d213f96	0.03936728
23	0x0f6ac8e5	1.15757816e-29
24	0x3d1d2435	0.038364608
25	0xbb81942c	-0.003954431
26	0x3d15018d	0.036378432
27	0x3ca5d25b	0.020241907
28	0x0da704e8	1.0293351e-30
29	0xbd5afecf	-0.05346566
30	0x3de2639b	0.110541545
31	0x8871daf4	-7.2780678e-34
32	0xabef14a6	-1.6987702e-12
33	0xbc5c8d84	-0.013461474
34	0x3c4acf64	0.012378547
35	0x3dbbe365	0.091742314
36	0xbd14d599	-0.036336515
37	0xb8cf8abf	-9.896373e-05
38	0x3d4f8b21	0.050669793
39	0x3b368e82	0.0027855937
40	0x06ca9d6f	7.621528e-35
41	0xbd8b7b24	-0.068105966
42	0xbd33b8df	-0.04387748
43	0x1fd8d80b	9.183697e-20
44	0xbd50d89e	-0.050987832
45	0x3dd721c7	0.105044894
46	0xb7c29b45	-2.3198905e-05
47	0x3d471f22	0.048613675
48	0xbc4ab955	-0.012373288
49	0x3dfff1c0	0.12497282
50	0x9c809b61	-8.510494e-22
51	0xbd898cdc	-0.0671632
52	0x3da0ac46	0.078453586
53	0x3c9857d1	0.018596562
54	0x3bc4fb1b	0.0060113794
55	0xbab61e67	-0.0013894559
56	0x3c2f25a3	0.010690126
57	0x3ce8ea94	0.028432168
58	0x3da74432	0.08167304
59	0xbd5b1115	-0.053483088
60	0x3a0302d7	0.00049976766
61	0xbc0a828e	-0.008453978
62	0x3dc89bb7	0.09795325
63	0xbab1dd91	-0.001357006

fc4.weight f4 [10, 64]
0	0xbe0a8f05	-0.1353112
1	0x3a9c4dcd	0.0011925042
2	0xa557e22c	-1.8724907e-16
3	0x3e1fe451	0.1561444
4	0xbc8778d8	-0.016537115
5	0xbe5b4a64	-0.21415097
6	0xbe3fd037	-0.18731771
7	0x3da75429	0.08170349
8	0xbe42719c	-0.18988651
9	0xb589c4cb	-1.026457e-06
10	0x3e410d82	0.18852809
11	0x30091059	4.986354e-10
12	0xbde01f13	-0.10943427
13	0xbba16c07	-0.004926208
14	0xbe0a550c	-0.13509005
15	0xbd800b17	-0.06252115
16	0x3c88c950	0.016697556
17	0xbde87302	-0.11350061
18	0x3d415bb9	0.047206614
19	0xbd94d0ec	-0.07266411
20	0xb6b9dcbb	-5.539126e-06
21	0x3db7822f	0.089603774
22	0xbe479ab2	-0.19492605
23	0xa35515e9	-1.1551393e-17
24	0xbb7ad1f1	-0.0038272107
25	0x3db0a271	0.08624733
26	0x3ce58b82	0.028020624
27	0xbdc69422	-0.09696223
28	0x002879fd	3.717181e-39
29	0xbccd4cc4	-0.025061019
30	0x3dc0dd54	0.09417215
31	0xb8d7513f	-0.00010267132
32	0x2834f10f	1.00442785e-14
33	0x3e7d5f80	0.24743462
34	0xbd27034c	-0.04077463
35	0x3e187fc2	0.14892486
36	0xbdb0480a	-0.0860749
37	0xba76e8bb	-0.0009418835
38	0x3e337b63	0.17527537
39	0xbdf223f1	-0.118232615
40	0x00071e0a	6.53624e-40
41	0xbdac5bc7	-0.08415943
42	0x3def1d83	0.11675551
43	0x2214925e	2.0135226e-18
44	0x3d2dc082	0.042419918
45	0xbe289d09	-0.16466154
46	0x377b597e	1.4981602e-05
47	0x3e0adf7f	0.1356182
48	0xbd988589	-0.07447345
49	0xbe2cd83f	-0.16879366
50	0xa31244e5	-7.929265e-18
51	0x3bc7e819	0.0061006662
52	0x3dbcecb5	0.09224836
53	0x3de70f75	0.11282245
54	0x3d181ba9	0.037135754
55	0xbb057c2b	-0.00203682
56	0x3d051bd0	0.032497227
57	0xbddd25b0	-0.10798204
58	0x3e073e80	0.13207436
59	0xbe8c6c7b	-0.27426514
60	0x3da14c96	0.07875936
61	0xbe84f255	-0.25966135
62	0x3e1ca936	0.15298924
63	0x3e404d14	0.18779403
64	0xbe62b20d	-0.22138233
65	0xbb48d788	-0.0030646045
66	0xa3e89f21	-2.5220884e-17
67	0x3d99e189	0.075137205
68	0x3d52d5c0	0.05147338
69	0x3d434c98	0.047680467
70	0xbcb2490a	-0.021763343
71	0xbd07ef53	-0.03318722
72	0x3dea6e88	0.114468634
73	0x3a16a8f6	0.0005747223
74	0xbcfeaf3c	-0.031089418
75	0x0019e9de	2.379783e-39
76	0xbe524151	-0.20532729
77	0x3af83fdd	0.0018939931
78	0xbe04adbf	-0.12956904
79	0x3ddd31f5	0.10800544
80	0x3c9fb934	0.019497491
81	0x3d5d96a5	0.054098744
82	0x390a40f8	0.00013184908
83	0xbe574c4d	-0.210252
84	0xb901177d	-0.00012311149
85	0x3c05d99b	0.008169557
86	0xbdb6fa3b	-0.089344464
87	0x2795d128	4.1582575e-15
88	0xbd07528b	-0.033037703
89	0x3e2253fd	0.15852351
90	0xbe13524f	-0.14386867
91	0x3d8fe61a	0.0702631
92	0x3a3da774	0.00072347303
93	0x3e429068	0.19000399
94	0xbe8d63e2	-0.27615267
95	0x3a12231e	0.0005574691
96	0xb4f3923c	-4.5368677e-07
97	0xbdded338	-0.108801305
98	0x3e123f4b	0.14281957
99	0xbced1100	-0.02893877
100	0x3e23d025	0.1599737
101	0xbc3940cc	-0.011306953
102	0x3c43b3c4	0.011944715
103	0xbe0db743	-0.1383944
104	0x800ddc1e	-1.272825e-39
105	0xbd176fc5	-0.036971826
106	0xbe3ed1d2	-0.18634728
107	0xa1bf48be	-1.2961918e-18
108	0xbdc3e04e	-0.09564267
109	0xbe0bfa16	-0.13669619
110	0xb985643d	-0.0002544242
111	0xbdc2dcc6	-0.095147654
112	0xbdec7e22	-0.115474954
113	0x3e30df60	0.17272711
114	0xba055f7e	-0.0005087777
115	0x3d2f5d1b	0.0428134
116	0x3d4e6985	0.0503936
117	0x3e508448	0.20362961
118	0xbe356b8c	-0.17716807
119	0x3c27bf43	0.010238471
120	0x3e194c7f	0.14970587
121	0x3dfca24a	0.12335642
122	0xbe2e8ea5	-0.17046602
123	0x3dfe00cd	0.124024965
124	0x3dc12808	0.094314635
125	0x3d7140a8	0.05889955
126	0xbddee362	-0.108832136
127	0xbc146915	-0.009058257
128	0xbe17aa04	-0.1481095
129	0x3914575b	0.00014146922
130	0x25bb26fe	3.246575e-16
131	0x3e1e205f	0.15442036
132	0x3dd35ef1	0.10320843
133	0x3e037fac	0.12841672
134	0x3e19ed54	0.1503194
135	0xbdc71291	-0.09720338
136	0x3def0312	0.116705075
137	0xba885e86	-0.0010404147
138	0xbd50c2e1	-0.0509671
139	0xb68771e4	-4.036572e-06
140	0xbe09ce58	-0.1345762
141	0xbc66fdfa	-0.014098639
142	0x3d93ecef	0.07222926
143	0x3d10b1fe	0.035325997
144	0x3bd674c7	0.0065446827
145	0x3d90bc2c	0.07067141
146	0xbe37cc1a	-0.17948952
147	0x3d4852dc	0.048907146
148	0x2e1f7dc6	3.6264124e-11
149	0xbe018723	-0.12649207
150	0x3e10256c	0.14076775
151	0xb288cacd	-1.5924707e-08
152	0xbdf92731	-0.12165678
153	0x3df92a1a	0.12166233
154	0xbde7329f	-0.11288952
155	0xbc634363	-0.013871047
156	0xb8e0185c	-0.000106856896
157	0x3ccce4b6	0.025011402
158	0x3e2475c8	0.16060555
159	0x3b044b9a	0.0020186664
160	0x333d5852	4.408532e-08
161	0xbdeb6167	-0.114931874
162	0x3d4659a6	0.04842534
163	0x3c4e51df	0.012592762
164	0xbbcae1e9	-0.0061914814
165	0x3b286466	0.0025694608
166	0x3e346ed6	0.17620406
167	0xbe21dd4f	-0.15807079
168	0x87bdf341	-2.858053e-34
169	0xbdaa6beb	-0.08321365
170	0x3b2fd02a	0.0026826956
171	0x21afa9db	1.1903422e-18
172	0xbd7d2a87	-0.061808135
173	0xbded996d	-0.11601529
174	0x37a71df0	1.9921892e-05
175	0x3d84c51c	0.06482908
176	0x3d69ff8b	0.05712847
177	0xbe3ba5a5	-0.18324907
178	0x398d4c1c	0.00026950322
179	0x3e121f7e	0.14269826
180	0x3d659f04	0.056059852
181	0xbddd10f5	-0.1079425
182	0xbdb20270	-0.08691871
183	0x3c18a5f6	0.009316912
184	0xbea198bc	-0.3156184
185	0x3d8f0b34	0.06984559
186	0x3e2eba00	0.17063141
187	0xbe1e36c4	-0.15450579
188	0xbdaa4697	-0.08314245
189	0xbe406490	-0.18788362
190	0xbe360bfd	-0.1777801
191	0x3e31d8d2	0.17367867
192	0xbc2fba24	-0.010725532
193	0xb99aa718	-0.00029497663
194	0xa4e530c0	-9.9395505e-17
195	0xbd55bebc	-0.05218385
196	0x3cb01356	0.021493595
197	0xbe1bb797	-0.15206753
198	0x3e25afea	0.16180387
199	0x3ded9e65	0.11602477
200	0x3e1f6099	0.15564193
201	0xba4ede5d	-0.0007891411
202	0xbe8cea22	-0.2752238
203	0x3563e70d	8.4900313e-07
204	0xbd8084bd	-0.06275318
205	0xbc06ad01	-0.008219958
206	0x3da349c8	0.07973057
207	0xbe690d95	-0.22759087
208	0xbd82249c	-0.06354639
209	0x3e219baa	0.15782037
210	0xbcf96b3c	-0.030446641
211	0x3c5f5a78	0.013632409
212	0x378e0422	1.6929644e-05
213	0xbb16bdcc	-0.0023001311
214	0x3d04bd4f	0.0324071
215	0x210c5b5a	4.755475e-19
216	0xbc0a6cfe	-0.008448837
217	0xbd97ea2e	-0.07417713
218	0xbcda9b5c	-0.02668541
219	0xbe691a14	-0.22763854
220	0xb39ae8d9	-7.2135386e-08
221	0xbea87809	-0.3290408
222	0x3cb321fb	0.02186679
223	0x3afb389d	0.0019166652
224	0xb9876d68	-0.0002583072
225	0x3d16cb2c	0.036814854
226	0xbe680534	-0.22658235
227	0x3d2161b6	0.039399825
228	0xbc866ad5	-0.016408363
229	0xbc1c771d	-0.009549883
230	0xbd9eaa83	-0.07747366
231	0xbd8a8b08	-0.06764799
232	0x00194265	2.319705e-39
233	0x3e0a676c	0.13516015
234	0xbb4a3844	-0.003085629
235	0xa24feb4e	-2.81783e-18
236	0xbddecaf6	-0.108785555
237	0x3db1919a	0.086703494
238	0xba7afb27	-0.0009574168
239	0x3d850449	0.06494958
240	0xbda9262b	-0.08259233
241	0xbe6f486b	-0.23367469
242	0xb8f46dbf	-0.000116552685
243	0x3e0042c4	0.12525469
244	0x3e33b33f	0.17548846
245	0xbd3341c9	-0.04376391
246	0x3db12749	0.08650071
247	0xb8d02558	-9.925169e-05
248	0x3d9f553f	0.07779931
249	0xbda7efec	-0.08200058
250	0xbe0af500	-0.13570023
251	0x3e23b1ac	0.15985745
252	0x3e236f9f	0.15960549
253	0xbd9c0145	-0.0761743
254	0xbe3ac9ae	-0.18240997
255	0x3d1cdb05	0.03829481

fc4.bias f4 [10]
0	0xbc43c1c9	-0.011948057
1	0xbe045b0d	-0.12925358
2	0xbda43e47	-0.08019691
3	0xbdcc51b1	-0.09976519
4	0xbd210398	-0.039310068
5	0xbddf2306	-0.10895352
6	0xbe0d5936	-0.13803563
7	0xbe14a657	-0.14516579
8	0x3e5730be	0.21014687
9	0x3e0dbbc1	0.13841154
