artifacts/model_fp32.pth (torch, 448119 bytes, 8 tensors)

fc1.weight f4 [128, 784]
00000000: 2776 1700 c59b 0700 a0d0 c580 f4c3 2780
00000010: 4e6d 3d01 9884 8e81 e32d 0380 df04 3200
00000020: 2695 4180 eb47 2180 a13f 1880 62f7 3b00
00000030: 5771 743b e495 da3b c76e 3580 e63e 2e02
00000040: bd6b 2a80 2a83 5301 0e8e 1280 eeaf 1080
00000050: 6efc 0780 d845 2380 0ea9 3480 1f0f 0700
00000060: d883 1380 eb96 3980 9095 7801 700a 0e00
00000070: 58dd f101 3b50 1300 50c4 0300 af7a 1780
00000080: d207 6cb6 4844 d0b6 dd9b 0238 27ef 7e39
00000090: c9cb b432 0848 cfb7 8c58 ac3a 1e64 e43a
000000a0: 161c 4f3b d3e7 4d3b 52bc 263b ce96 f23b
000000b0: 3910 5e3c 80cf 6e3a faf2 a03a 3cdc bb3b
000000c0: 2767 3c3c ef88 4d3c 16d1 fe3b 3131 5235
000000d0: 507f 0680 bf09 2700 bc7e a281 5a2a 0800
000000e0: 9a7e 0381 980a 8f00 ec96 cdaa 3c2f 2b38
000000f0: 8ab5 0335 b119 fab5 bbb2 3c36 c6fa 583a
00000100: fa25 de38 5d8b 0bbc 3d77 86bc 8f7c dd3b
00000110: af6c 0bbc aac7 dbbc 3f8e 39bb caab df3a
00000120: 921f ec3c 4783 553d 959e 563d 6e5c 2b3d
00000130: 7c94 b33c 3f7b 793c 00d4 f03c ba95 b83b
00000140: 48b5 123a 59d9 8a39 4e6f 3b80 571b 1100
00000150: da60 2680 b229 3181 5ca6 4dbb c0f3 2c3a
00000160: 723e 2d3b 14e4 fcb8 3c64 13bb 857a 16bc
00000170: d6dc f23b b213 193c e2e7 36bb 1d56 14bd
00000180: f3ae 7cbd e04b 4ebc 960b 733d 519e 6f3d
00000190: 2ecf 143d f6ce 8e3d 22f8 aa3d 4ff9 043d
000001a0: f0f1 1e3d f259 8d3d 45bc af3c cd02 d43c
000001b0: cb96 a33c 0174 c9ba 1d98 74b8 aee3 9d81
000001c0: de12 2a00 5a18 6f29 47f1 58bc 902a 00bb
000001d0: 004d 823a 548d f4bb b5c7 e6bc 0d27 37bc
000001e0: 5e7e 003c 9780 3a3d 9400 293b e75f 33bd
000001f0: 09cd 6fbd a87a 97bd 8a9a c33c ca57 c73c
00000200: 4e7b 863d 7d76 3f3c ba83 493c 327f af3c
00000210: 0ac7 373d 4b53 b43d 27fd 333d 35bd 2d3d
00000220: dfa1 8cbc b0a6 14bd 6d95 46bc fe0d 303c
00000230: b2a2 2280 2fd8 1100 91a5 cbb9 0f02 003b
00000240: 0916 96ba c57c 2abd 3180 98bd bac4 01bd
00000250: c50b ffbc c579 81bc a137 cb3c f077 e63c
00000260: b442 4a3b 7322 8bbc d856 b33d a695 5f3c
00000270: d7df 933c b3e7 473d bda0 9bbc 2384 503c
00000280: aedb 803d b4a4 9a3b 816f 02bd eaa7 2cbc
00000290: 5da3 123d 9384 0a3d 6069 1b3d dbba 583c
000002a0: c176 b901 aed8 9437 3f43 9b3b d07a 93bc
000002b0: 76b8 83bc bedd 60bd cc28 fdbd b10c 6dbd
000002c0: 696b 3fbd fa8d 52bd 4e27 2bbd 6d39 ffbc
000002d0: 385d 423c eb09 103c 21ff 023d ca45 e73c
000002e0: c4b0 a33c 6b48 e539 d956 49bd e72b 053c
000002f0: d7af 94bc 0d70 61bd c8b0 973b 5565 413d
00000300: 1a92 4f3d d799 6a3d 4494 733b 6b51 393a
00000310: d00f 9e81 47b5 60bb b552 a4bb 34d4 ebbc
00000320: 6d01 23bd 9093 89bd e47e eebd 36f7 0bbe
00000330: 882b a6bd b24e e6bc 50e5 17ba 9694 8dbc
00000340: 14bc f5bc cc97 19bc b0d1 10b7 8dd5 983d
00000350: 01c2 b3bc b9f7 193b a956 a0bb 2a3b f03b
00000360: eb69 71bb 977e f7bb 11e8 a13d a30e b83c
00000370: 238f 643d fff3 df3c 0800 19bc 8195 b939
00000380: dfc1 2c00 4e91 9537 716b 83bc 5be4 09bd
00000390: 50c7 34bd c35a a1bd c395 45bd f64a 60bd
000003a0: 7e8b d7bc acbe 9d3d 552a 6f3d 401a a33d
000003b0: 5ca9 443d e325 633c 6971 1fbd 7cda 54bd
000003c0: 974c 2cbc 7960 70bd d805 dcbd 1f77 c9bd
000003d0: d54d 5e3c b77b be3c b745 1cbd 7c2f a3bc
000003e0: 6569 013d 195d 1f3c 1c8d 093b 49b7 3c3b
000003f0: a0ac 1a00 5a27 f3ad 0a5d d03a d7c0 e9bc
2.154601e-39 6.98728e-40 -1.8166433e-38 -3.651879e-39 3.479224e-38 -5.2352825e-38 -2.91968e-40 4.593522e-39
-6.022812e-39 -3.05637e-39 -2.226878e-39 5.507039e-39 0.0037299 0.0066707004 -4.907021e-39 1.2801552e-37
-3.89574e-39 3.8848685e-38 -1.703999e-39 -1.53248e-39 -7.33403e-40 -3.239298e-39 -4.836091e-39 6.48273e-40
-1.792171e-39 -5.288762e-39 4.5657712e-38 1.289441e-39 8.884703e-38 1.773656e-39 3.4593e-40 -2.156227e-39
-3.5171292e-06 -6.206832e-06 3.1139574e-05 0.00024312419 2.1047429e-08 -2.4709865e-05 0.0013148948 0.0017424857
0.0031602434 0.0031418696 0.0025441837 0.007403231 0.0135536725 0.00091098994 0.0012279444 0.005733041
0.011499203 0.012544855 0.00777639 7.830268e-07 -5.96684e-40 3.58508e-39 -5.9691256e-38 7.49877e-40
-2.4151732e-38 1.3136276e-38 -3.6520038e-13 4.0813567e-05 4.9065477e-07 -1.8633929e-06 2.8118218e-06 0.0008277114
0.000105928586 -0.0085171135 -0.01641428 0.0067592333 -0.008509799 -0.026828606 -0.0028313545 0.0017064747
0.028823648 0.05212715 0.05239733 0.041836195 0.021921389 0.015227138 0.029397964 0.005633083
0.0005596471 0.00026483348 -5.458223e-39 1.571011e-39 -3.524493e-39 -3.253968e-38 -0.0031379675 0.0006597601
0.0026434925 -0.00012058779 -0.0022490164 -0.009184484 0.0074115796 0.009343075 -0.002790921 -0.036214937
-0.061690282 -0.012591332 0.05933722 0.05850059 0.036330394 0.069730684 0.08348109 0.03246432
0.03880495 0.06901921 0.021452079 0.025880242 0.019969365 -0.0015369655 -5.83158e-05 -5.7999396e-38
3.863859e-39 5.3089782e-14 -0.013241119 -0.001955662 0.0009941161 -0.0074631367 -0.0281714 -0.011178744
0.007842628 0.04553279 0.0025787698 -0.04379263 -0.058545146 -0.07396442 0.0238774 0.024333853
0.06566487 0.011685965 0.0122994725 0.021422956 0.044867553 0.088049494 0.043942597 0.04241677
-0.01716703 -0.036291778 -0.012120587 0.0107455235 -3.180771e-39 1.638755e-39 -0.00038842534 0.0019532477
-0.0011450659 -0.041622896 -0.074463256 -0.031681754 -0.031133542 -0.015805135 0.0248068 0.028133363
0.0030862512 -0.0169842 0.087567985 0.013646519 0.018051071 0.04880495 -0.018997544 0.012726816
0.062919006 0.004719341 -0.03184462 -0.010538081 0.035800327 0.03381784 0.03794229 0.013228144
6.812867e-38 1.7743874e-05 0.004738241 -0.018002898 -0.016079169 -0.05489897 -0.12361297 -0.05787343
-0.046733294 -0.05140493 -0.04178553 -0.031155312 0.011863045 0.008791427 0.03198159 0.02823152
0.01998175 0.0004373224 -0.04915509 0.008128143 -0.018150253 -0.0550385 0.0046292283 0.04721578
0.050676443 0.05727562 0.003716723 0.0007069322 -5.8062723e-38 -0.0034287737 -0.0050147423 -0.02878771
-0.03979628 -0.067175984 -0.11645296 -0.13668522 -0.08113772 -0.028113697 -0.0005794363 -0.017282765
-0.02999691 -0.00937457 -8.6318905e-06 0.074626066 -0.021943094 0.0023493601 -0.004893143 0.0073312717
-0.0036836814 -0.0075529325 0.07905591 0.022467917 0.05580057 0.027338026 -0.009338386 0.0003539734
4.11031e-39 1.7829847e-05 -0.016042443 -0.033665042 -0.04413539 -0.078786395 -0.048238527 -0.05475899
-0.026311632 0.077023834 0.05838998 0.07963991 0.048013076 0.013864013 -0.038926516 -0.051966175
-0.010516307 -0.058685753 -0.10743302 -0.09837174 0.013568361 0.023252351 -0.038152423 -0.019920103
0.031594653 0.009726786 0.0020988649 0.002879577 2.449649e-39 -2.7643377e-11 0.0015896868 -0.028534336

fc1.bias f4 [128]
00000000: c6c1 b63c e63d 713d bcd5 cf3c 8d2f 0c3e
00000010: fe9b 643b 9ef7 593e 8407 08bd eb21 1390
00000020: 00df 053e a7b6 a6bc eed5 ef3c cb62 e03d
00000030: 43a8 ba3b 57f6 c2bd c93f 5b3d 954b a53c
00000040: f266 4b3d 70c8 d63c 2b07 333d 2319 213e
00000050: 3925 8d3d ee87 5cbd af11 fe3d e8ec 75bd
00000060: b740 fb3d b0e5 0b3e 82bb 01bd 1785 803d
00000070: 8523 e7bc 68d6 62bd e34d 2c3d 3946 9a3d
00000080: d755 cdbc 92e5 29bd eae1 2f3d ffa4 db3c
00000090: 6245 403d ac81 b63c f597 a2bb 72fd 27bd
000000a0: 684c c5bd 8fd5 853d 5ddc c43c 62fa f6bc
000000b0: 6547 36bc dd14 093d 4c6a 3f3c 4a68 8c3d
000000c0: 6a4a 133d 8005 27bd 0dc4 e73b 7503 103d
000000d0: e66e 6d3d 55ba a23d 9057 ccbc 3816 66bc
000000e0: 44cc 1ebe a6d6 163e f124 5a3d 38bd 5c3d
000000f0: 782a 3ebc 3ef5 723d cefb a23d 49d0 e93c
00000100: be37 5dbd 8581 db3d f39d 3b3e 2e1f aa3d
00000110: baf0 0d3e 86a3 a13d 14d5 103c 2934 663d
00000120: cfd5 f03c 540b 0e3e 3985 69bd 0087 693d
00000130: 865b a8bd 2625 9c3d 692f c8bd 70c8 20bc
00000140: ba77 a4b9 d843 713a 0307 f63d 73a2 14bd
00000150: 61a0 3d3d 6e84 a33d 5859 c4bb 2137 273d
00000160: 434f 4a3d 3fdf 383d e20e 6bbc a8d3 e1bd
00000170: 06ea 10bd f3f1 963d 8263 1e3d f7a9 e63d
00000180: 3bcf 4e3b fc50 213d 4a57 213d 6db0 4e3d
00000190: f638 0bbc 239f 833b ddde 66bd 29c1 ce3c
000001a0: 5013 d23d c613 683d 4fb2 3c3d a5fe 1a3e
000001b0: f713 3e3e a193 803d 5c7b 183d 7d9a 1d3e
000001c0: e49f 6cbd a0ee 27bd 00e3 363e afc2 a43d
000001d0: f34b fb3c a168 fe3d 92cb 083d eb99 02bd
000001e0: 6968 e73d 1879 153e 864a 863d c5fe caae
000001f0: a876 ab3d 78c6 4a3e b0e1 ec3d b68e 3e3e
0.022309195 0.05889692 0.025370471 0.13690014 0.0034883018 0.21285865 -0.033210292 -2.9016768e-29
0.13073349 -0.020350767 0.029276814 0.10956343 0.005696328 -0.09519642 0.053527627 0.020177642
0.049658723 0.026218623 0.043708008 0.15732245 0.06891865 -0.05384057 0.12405717 -0.060040385
0.12268203 0.13661838 -0.031672962 0.06275385 -0.02821518 -0.055380255 0.042066466 0.07532925
-0.025065346 -0.0414787 0.042940058 0.026812075 0.04694117 0.02227863 -0.0049619623 -0.04101319
-0.09633714 0.06534874 0.024030859 -0.030148689 -0.01112542 0.033467162 0.011683058 0.06855829
0.03595964 -0.04077673 0.0070729316 0.035159547 0.05796709 0.07945696 -0.024944097 -0.014043383
-0.15507609 0.1473032 0.053257886 0.05389139 -0.011606805 0.059315912 0.07958184 0.0285417
-0.054008238 0.10718063 0.18321972 0.08306728 0.13861361 0.07892518 0.008839864 0.056202088
0.029398827 0.13871509 -0.057011817 0.05701351 -0.08220582 0.07624273 -0.09774668 -0.009813413
-0.0003136972 0.000920353 0.12013056 -0.036287736 0.046295527 0.07984243 -0.005992096 0.04082406
0.049391996 0.04513478 -0.01434681 -0.11026698 -0.035379432 0.07370367 0.038669117 0.11262887
0.0031556624 0.039383873 0.039389886 0.05046122 -0.008497467 0.0040167733 -0.056364883 0.02523859
0.1025759 0.056659482 0.046068486 0.15136202 0.18562303 0.06278158 0.03722702 0.15390964
-0.05776967 -0.040999055 0.17860031 0.080449454 0.030675864 0.124223 0.033397265 -0.03188507
0.112992115 0.14596975 0.06557183 -9.2311526e-11 0.08372241 0.19802272 0.11566484 0.18609127

fc2.weight f4 [64, 128]
00000000: 37d6 083e 2ef5 5cbd 6b74 cb3d bf92 f43d
00000010: c574 233d a05f 123e 2ece 453d 6641 4780
00000020: 8cfd 8d3d 818e 5ebd 63e1 033d 0fa5 4b3d
00000030: f9c2 41bd 2891 763e 9cc5 8f3c 1107 733e
00000040: 96bd 263d d060 f63c f424 63be d4d1 5e3d
00000050: faad 30be 0368 50bd 2cac f03d 3156 dc3d
00000060: d666 9bbd cb1e dcbd cc28 973d 81d9 fb3d
00000070: c47a 2b3e 67bf 0abd 5f63 b4bd 2eac 5e3d
00000080: cffa 8cbd a73c 3c3d 8b9d 383e cde7 86bc
00000090: 720e 153e 02c7 5e3d 9054 9d3d 4ba7 863d
000000a0: 7274 3f3e 937d a93c fced b23d 21d6 efbd
000000b0: 3528 213e 3b13 60ba f48c 56bd 745f 06be
000000c0: 5951 1e3c 5d5a fb3c 212f 57bd 21f1 0f3e
000000d0: 602b 27bd a2ee 7fbd fd2b 5ebd 5fa0 47bd
000000e0: 4785 8cbd a162 c23d 00e3 753e 67ba b93d
000000f0: ab5b 9ebd 0e3c 4f3e 700e f13d 8ce9 ecbd
00000100: 0033 d23d c285 e93c 0f5d 92be 46ac 383d
00000110: 6028 77bd 08e1 883d 3a43 1cbc 4e84 8d3d
00000120: a315 303d 458f 08bd 8de8 ce3d 7019 183e
00000130: 18c1 733d fbe4 833d 094e 063d 5f13 243c
00000140: 8cab 843e d169 833c 6ad3 92bd 8bdf f93d
00000150: 9a13 fd3c 4f22 c23c 9fd8 0fbc 2f1b 233e
00000160: 52c5 1cbc 0c51 003e d193 7e3d 4a47 103d
00000170: 8dd4 523d 7084 d03a e497 5bbc 4043 a3bc
00000180: 6d71 313d a853 b73d dd03 893d 6f54 f63c
00000190: e025 4c3e 6463 533d 16fc 233e d370 dabc
000001a0: b6f0 e53c c1a1 b93d e1cb 12be 2dfb 303d
000001b0: 05da f8bd 8a87 223d b16a a3bd 7cf6 cbbb
000001c0: 8d8c 4a3e 486e e83d 892b e93d e4e9 983d
000001d0: 4b69 153e 2fec 903d 6077 45bc 1917 573e
000001e0: 1b66 d5bd 8490 5fbe 3509 1f3e 122a a481
000001f0: 5e60 493e 4f22 47bd f7b9 613d b361 93bd
00000200: d4be d83d 57c0 093d b35b 90bd 5ac5 a2bc
00000210: 1943 00be d064 3e3e 2821 953d 1677 4b80
00000220: d173 b43d 7c53 82bd 3135 783c 4ffc c73d
00000230: 6651 3bbe e444 073e e0e9 143e 6ac4 893d
00000240: 024d 88bd 7da4 8a3d 3032 473b b9b2 dbbd
00000250: 692f b2bd d173 6dbe b568 04bd b39b 233e
00000260: 63b2 c73a e936 0d3c 0982 d93c 0a96 d83d
00000270: 24e9 803e 6693 cabd 7e5d 233e ab01 023e
00000280: d889 d3bd 730c 853e 3597 4c3d 78e1 2ebd
00000290: 4c0a aa3c e5a7 a5bd 9216 50bc b171 8d3d
000002a0: 802f 3bbe 9877 32be e8f5 38bd 8950 20be
000002b0: f1d0 3ebd 1cdb 80bd 9f08 b93d cf23 b1bc
000002c0: ca17 ce3d 802f a73b 9712 5fbe b6be f73d
000002d0: 2637 1bbd 283f afbd 9f82 11be 04db 563c
000002e0: c57e bcbd cf14 40be bc1f 2f3e 90dd 013e
000002f0: c9fb 963c 1f84 033d bcf2 f63d 04c3 9abd
00000300: 4798 f5bc 11ab 243d 4011 fe3d db4b d1bd
00000310: b447 083d f1d1 f63d f0b5 223d 6fb3 14be
00000320: 9f0d 723c 6491 e23c cd16 5dbe 0069 243e
00000330: ff65 d2bc 2c83 f93d a913 c63c e531 e63d
00000340: ae26 c53d b2d0 92be 2885 9e3d 1c7a 4d3e
00000350: 74e7 2fbe f218 4d3d c588 973d ea91 dcbd
00000360: 9290 4f3d cf86 ed3d 0c5e 0a3d 2723 aa3e
00000370: 7819 803e eabf d3bd fdf3 8cbd 6107 20bd
00000380: 3ee0 a9bd 7fc9 dcbd ac96 523d f497 ef3c
00000390: 3a56 aa3c 3c6b fdbd 6af3 653d 371b fe3d
000003a0: d136 763e 3970 ea3c f66a a0bd 3ce0 633d
000003b0: eee2 5ebd a931 c93d e2c9 bebd 3598 a83d
000003c0: cd36 283b 4be4 0f3b bb0e 0f3e 94fb 513d
000003d0: 9fc5 493d 1898 19bc 57d0 493e ad95 713d
000003e0: b58f 84bc 3452 413e 70f5 b93e 58ea 1d86
000003f0: 4265 f53c bfc4 3f3d 0207 aebb c500 213c
0.13362966 -0.05394476 0.09934314 0.11942052 0.039906282 0.1429429 0.04829233 -6.543781e-39
0.06933126 -0.05433512 0.032197367 0.04971796 -0.04730508 0.2407881 0.017550282 0.23733164
0.040708147 0.03007546 -0.22182065 0.054399326 -0.17253867 -0.050880443 0.11751589 0.10758627
-0.07587974 -0.10748061 0.07380828 0.12297345 0.1674605 -0.03387394 -0.08808016 0.054363422
-0.068837754 0.04595628 0.18028848 -0.016467953 0.14556292 0.054389007 0.07682145 0.06574877
0.18696764 0.020689761 0.08736798 -0.11710764 0.15737994 -0.00085477874 -0.052380517 -0.1312235
0.0096629495 0.030682737 -0.05253518 0.14056827 -0.04081285 -0.062483437 -0.05424117 -0.048736926
-0.06861358 0.09491468 0.24012375 0.090687566 -0.07732328 0.20237753 0.11770332 -0.11567983
0.10263634 0.028506164 -0.28586623 0.045086168 -0.06034124 0.06683546 -0.009537512 0.06910001
0.042989384 -0.033339757 0.10102949 0.14853454 0.05951032 0.06440159 0.032789264 0.010014384
0.2591213 0.016041668 -0.0716923 0.122008406 0.030893136 0.023698 -0.008779674 0.15928338
-0.009568529 0.12530917 0.062152687 0.035224237 0.051472235 0.001590861 -0.013402913 -0.019929528
0.043321062 0.08951503 0.0669019 0.030069558 0.19936323 0.05160846 0.16014132 -0.026665127
0.028068881 0.09064055 -0.14335586 0.04320829 -0.12150959 0.03968004 -0.07979334 -0.0062244516
0.19780178 0.113491595 0.11385257 0.07466486 0.14590947 0.070762984 -0.012052387 0.21004905
-0.10419866 -0.21832472 0.15530856 -6.0304453e-38 0.19665667 -0.048616704 0.05510899 -0.07196369
0.105832726 0.033630695 -0.0704874 -0.019869495 -0.12525596 0.18593144 0.07281715 -6.930382e-39
0.08811153 -0.0636358 0.015149401 0.09764921 -0.1829277 0.13209873 0.14542341 0.06726916
-0.06655313 0.06769655 0.0030394904 -0.10727448 -0.08700449 -0.23188712 -0.03232642 0.15977363
0.0015235659 0.008619049 0.026551263 0.10575493 0.25177872 -0.09891395 0.15953633 0.12695949
-0.10329026 0.2598606 0.04994889 -0.042695493 0.020756863 -0.08088664 -0.012700694 0.069064505
-0.18279839 -0.17428434 -0.04515639 -0.15655722 -0.04658598 -0.06291792 0.090348475 -0.02162352
0.10063131 0.005102098 -0.21784435 0.12096922 -0.03789439 -0.08556968 -0.14209984 0.013113741
-0.09203867 -0.18757938 0.1710195 0.12682176 0.018430607 0.032108422 0.12058017 -0.075567275
-0.029979838 0.040202204 0.12405634 -0.102195464 0.033271506 0.12051762 0.03972429 -0.14521573
0.014773755 0.027657218 -0.21590729 0.1605568 -0.025683401 0.12183222 0.024179297 0.112399854
0.09626518 -0.28674847 0.07740241 0.20066112 -0.17178136 0.050072618 0.073991336 -0.107700184
0.050674982 0.11597978 0.033781096 0.33229944 0.2501943 -0.10339339 -0.068824746 -0.039069537
-0.08294724 -0.1078062 0.051413223 0.029247262 0.02079307 -0.12373969 0.05614034 0.124075346
0.24044348 0.028617965 -0.07832901 0.05563377 -0.054415636 0.09823925 -0.0931585 0.08232156
0.002566743 0.0021956142 0.13970463 0.051265314 0.04926073 -0.009374641 0.19708382 0.058980633
-0.016181806 0.18879014 0.36320066 -2.9700587e-35 0.02995551 0.04681849 -0.005310894 0.009826844

fc2.bias f4 [64]
00000000: c050 ef3d 22a8 373d a0c7 e03d 7f37 df3c
00000010: 8113 8f29 4eb9 013e 2b95 283b 83b6 013e
00000020: 048a 473e 6eeb f33c 1beb 603e 8e47 313d
00000030: f2a7 b83d c8e3 eb3d 6785 d4b9 57fc 09bd
00000040: f93a 573d bb3a ff3d 751a e7bc 72ba e1bb
00000050: c5d3 95bc f39e 0c3e ee1b a63b 2cec 533e
00000060: c009 8f3d 431d 179e 1bb3 b2b3 4354 833d
00000070: e34b 3abd 9dad 773c 3bbe 0b3e 6b56 563c
00000080: e22b 933d b010 b03d 366b 43bd fbca 37b5
00000090: 48bc 8f3d 1556 ff3d 96ec 863d badd 7ebd
000000a0: 5cc2 093e e08c 9bbc 3ac6 b73c 49cc 9a3d
000000b0: a768 d63c 3a1f 063c 2c38 14b4 523e ed3b
000000c0: 392b 043e d2c8 493d ffc5 8d3d 48b3 0980
000000d0: 63be 393d a8b2 0e3d 7603 b5b2 78f9 ed3d
000000e0: ca07 95a8 7812 963d 50d0 b3bb e123 7d3d
000000f0: e342 c63d f7a6 6a3d 6ccc 9b3d 1017 9fba
0.11685324 0.04483808 0.109755754 0.027248142 6.353859e-14 0.12668344 0.0025723677 0.12667279
0.19486243 0.029775348 0.21964686 0.04328113 0.09016408 0.11518055 -0.00040535184 -0.033687916
0.052546475 0.12462374 -0.028210858 -0.006888681 -0.018289456 0.1373251 0.0050692474 0.20695561
0.069842815 -7.999925e-21 -8.32135e-08 0.06412556 -0.045482527 0.015117076 0.13646786 0.013082127
0.07186104 0.08596933 -0.047709666 -6.846819e-07 0.07018334 0.12467591 0.06588094 -0.062223174
0.13453048 -0.018988073 0.022433389 0.075584956 0.026172949 0.008186156 -1.380401e-07 0.007240095
0.12907113 0.049263783 0.069225304 -8.90833e-40 0.045347583 0.03483835 -2.1072747e-08 0.11619848
-1.6545701e-14 0.073277414 -0.0054874793 0.061801795 0.096807264 0.057288136 0.0760735 -0.001213761

fc3.weight f4 [32, 64]
00000000: 2699 feb9 0f4d b3af 0559 c1b8 758e 9cb9
00000010: 1609 3d80 4063 90b2 5655 18b8 095a 9bba
00000020: 776e 3ab9 9994 02b8 8005 acb7 f4e3 aeb7
00000030: 8369 12b9 f8ff ddb7 f44b 03b9 b625 0798
00000040: 6259 42b6 c6ce b5b8 9253 4612 f8c9 3e80
00000050: e8b1 0ea9 327c a8b9 898e 72a8 a3fd 65ba
00000060: e49f 14b9 c234 1780 f0cf 2900 e7aa c9b9
00000070: 5844 02b7 2117 0eb6 2f88 b6b8 a291 2ab6
00000080: 0eea e3b9 17c5 30b3 8dc1 d0b6 577e 0300
00000090: 3cb0 8ab9 cb7b 52b9 d10b deb5 bc8e 81b5
000000a0: 7603 a1b8 1646 b1b9 f82f 65ad 77ba 83b8
000000b0: c1f4 c6a6 e412 acb7 568d 3500 9fd8 ccb8
000000c0: 5856 c3b4 9f38 83b8 660d 38b9 4d1c 4280
000000d0: d4d0 53b1 e001 26b3 c91a 0b00 b91d 97b8
000000e0: 58cf 2d00 1a9e d8b7 18c2 22b4 29ab c1b6
000000f0: 0a4e deb3 ccc0 19b8 f47f 0bb9 81c9 65b5
00000100: 43c4 ba3c d18d 16be e6d6 ad3d 118b 25bd
00000110: 950e 2029 ef1d d83c 685e 9c3d d466 dc3d
00000120: 4878 813e d5af 343d c847 bd3c f04f a13d
00000130: 4219 8d3d 9c2b 6b3e faca 803d fa64 43be
00000140: 2b32 03be 8cbc 9dbc 9c8b b23e 1cf2 ffba
00000150: bdf8 84be 119f ce3d cfe7 083e 4841 b13d
00000160: 01e9 2c3d e657 2c3a 0e76 d5ba 5068 ddbc
00000170: 9677 d4bd 526d 5cbe b90c 7f3e 59a9 a7bd
00000180: 4ce4 f33d 5017 ff3d a3cc 53be 2c6b 3b3b
00000190: 89d9 553d cdc4 963e 89a1 453e 783c 4ebe
000001a0: 5c62 21bc 2ad3 f0bc 55e4 ffbd 3084 8cbd
000001b0: ec06 b73d adcb c0bd bf10 722d 7805 223e
000001c0: dc49 e23d 96cb d6bd 32f7 013e eca6 d0a9
000001d0: dc28 fe3d b795 25be 1253 95b8 7f47 433c
000001e0: fa5c 72b9 8a01 8abd f075 14be 9636 2ebd
000001f0: b7c0 623e 9bdc 6b3e 50b6 b23d 412a 8d3d
00000200: eaa4 283d 6ec9 b13e 7424 8cbd 83bb a83d
00000210: 47d7 18ac b36b 2fbe 9be3 a43d 68ce 1b3e
00000220: 4a91 203b 3cc5 3ebd 7e24 0b3d fdb2 3c3e
00000230: 94ff 103c 6c60 eebd 8dc4 aabd 28c6 30be
00000240: 3c53 95bd ff8a 1cbe bafc a6bd 497f 1dbc
00000250: 790e 2cbd 18b7 0c3d 7f1c 78bd fbd5 77bd
00000260: a5a5 4e3e 3259 cf3a e6d1 0f3a de76 3a3e
00000270: 9443 493e 44f2 cf3d e9b2 0ebe 1950 f03c
00000280: 3ce1 d13d ef64 2f3e 49ca f73c 7684 793b
00000290: ec98 01be 2920 1abe b311 8e3e f251 0dbe
000002a0: 78a2 023d aa56 ff3d f149 243d 5a47 c23d
000002b0: 0695 86bd 628c 1a3d da71 5e34 f3cd 433d
000002c0: 3d8e 9cbe 3c07 43bd 573b 42bd 3a36 1724
000002d0: 3a76 fe38 bbfb 923d 8c6c f2b8 a511 6abe
000002e0: 36ec 75ba 1adc 103e 4754 8ebd 6c79 063e
000002f0: 59a6 91be a5e0 3a3e d344 1a3e 27a7 b53c
00000300: 71cb 303e 4e02 1ebd c634 11be 8f5a 13bd
00000310: ce21 052b 3708 953e 584a 6f3d 8cf7 f53d
00000320: 1a77 953c 533b 13be 1c79 f53c 677b d8bc
00000330: dfc8 713e 97f1 833e 7299 c6bc 82f0 94be
00000340: 0397 803d 9a12 9c3d 60f1 d73e 5efb f93b
00000350: 1bd6 d53c df7a 243e 1c97 9d3e 17da 843c
00000360: bed3 24be 0d07 6c39 b687 753b 858a 043c
00000370: 1e0f d1bc 0605 e43d 75fb 913d 7e71 643e
00000380: 456f 093e 7223 46bd f008 873e 26cd 25bb
00000390: a4c2 823a 8486 823d 2d00 2d3c d66c 133e
000003a0: 627f 48be 59ac 7b3c f9b4 493e de1e e43d
000003b0: ca78 5a3e e6d5 00be 7f7c 47b5 79b6 6fbe
000003c0: 80f1 83bd 8119 29be ad7e 3abd 6829 eda2
000003d0: d974 4fbe b38b 023e 9974 1e3a eaa1 25bc
000003e0: bc30 ebb4 6a48 c9bd b1f7 00bb 14a0 aabe
000003f0: 0d5f c3be 06a7 54be 7382 ee3d 3fde 823d
-0.0004856076 -3.2614664e-10 -9.219538e-05 -0.00029860777 -5.605225e-39 -1.680894e-08 -3.63191e-05 -0.0011852394
-0.00017779494 -3.1132808e-05 -2.0506559e-05 -2.0848565e-05 -0.00013962951 -2.6464448e-05 -0.00012521428 -1.746738e-24
-2.896028e-06 -8.669267e-05 6.258079e-28 -5.766253e-39 -3.1684643e-14 -0.0003213599 -1.3464606e-14 -0.00087734516
-0.00014173944 -2.131142e-39 3.839849e-39 -0.0003846504 -7.764516e-06 -2.1173112e-06 -8.7038025e-05 -2.5416743e-06
-0.00043471198 -4.1157445e-08 -6.2214153e-06 3.20829e-40 -0.00026452716 -0.00020073277 -1.6543728e-06 -9.65279e-07
-7.677723e-05 -0.0003381229 -1.3027794e-11 -6.2812986e-05 -1.3805351e-15 -2.0512794e-05 4.917983e-39 -9.767827e-05
-3.6384404e-07 -6.257113e-05 -0.00017552599 -6.071295e-39 -3.0823246e-09 -3.8651592e-08 1.019799e-39 -7.2057774e-05
4.206978e-39 -2.5822828e-05 -1.5158037e-07 -5.771774e-06 -1.0351876e-07 -3.66576e-05 -0.00013303739 -8.5602375e-07
0.022798663 -0.14702536 0.08488254 -0.040415827 3.5539785e-14 0.026381461 0.07635194 0.107618004
0.2528708 0.044113 0.023105517 0.07876575 0.06889583 0.22965854 0.06288715 -0.19081488
-0.12812106 -0.019254945 0.34872139 -0.001952711 -0.25971022 0.10088933 0.13369678 0.086550295
0.042214397 0.0006574377 -0.0016285793 -0.02702728 -0.10374372 -0.21526077 0.24907197 -0.081865974
0.119087785 0.124556184 -0.20683531 0.0028597815 0.05220941 0.29447022 0.19299902 -0.20140254
-0.009850111 -0.029397566 -0.12494723 -0.0686115 0.08936867 -0.09413848 1.3759826e-11 0.15822399
0.11049244 -0.1048805 0.12691954 -9.266012e-14 0.12410137 -0.16170393 -7.120347e-05 0.0119189015
-0.00023113555 -0.06738575 -0.14498115 -0.042532526 0.22143827 0.23033373 0.087261796 0.06892825
0.0411729 0.3472399 -0.068428904 0.0823889 -2.1720002e-12 -0.17130928 0.08051225 0.15215456
0.0024500662 -0.046574816 0.03397035 0.18427654 0.008849997 -0.11639485 -0.0833827 -0.1726309
-0.07291266 -0.15287398 -0.081536725 -0.009612867 -0.04200599 0.0343543 -0.06057405 -0.060506802
0.20180376 0.0015819429 0.00054862944 0.18209407 0.19654685 0.101536304 -0.13935436 0.029335069
0.10248038 0.17128347 0.030247824 0.0038073338 -0.12655991 -0.1505133 0.27747878 -0.13800791
0.031893224 0.12467702 0.04010958 0.094862655 -0.06571393 0.037731536 2.071678e-07 0.04780383
-0.3057727 -0.04761432 -0.047419872 3.2788837e-17 0.00012133685 0.0717692 -0.00011559678 -0.22858293
-0.00093812065 0.14146462 -0.069496684 0.13132256 -0.28447226 0.18249758 0.15065317 0.022174431
0.17265107 -0.038576417 -0.14180288 -0.035975035 4.7298005e-13 0.2910783 0.05842051 0.120101064
0.018245269 -0.14378099 0.029964976 -0.02642603 0.23611782 0.25770256 -0.02424309 -0.29089743
0.06278803 0.076207355 0.42176342 0.0076288423 0.02610307 0.16062497 0.3077935 0.016217275
-0.16096398 0.0002250934 0.0037464923 0.008089666 -0.025519904 0.11133771 0.0712804 0.22308919
0.13421352 -0.048373647 0.26374006 -0.002529928 0.000997622 0.06373313 0.010559124 0.14396986
-0.19579843 0.015360915 0.19697942 0.111387 0.2133514 -0.12581596 -7.431444e-07 -0.23409452
-0.06442547 -0.16513635 -0.045530964 -6.428282e-18 -0.20259418 0.12748604 0.0006044596 -0.010109404
-4.380762e-07 -0.09828265 -0.0019678886 -0.33325255 -0.38158455 -0.2076684 0.11645975 0.06390046

fc3.bias f4 [32]
00000000: d5ec 62aa 45ce cf3c 7788 35bc a77e 2d3e
00000010: 1be5 b43d 2bf4 b93d dfdd 453d 9997 ad3d
00000020: 214c dc3d 030e b6bb 9496 f13d a9f2 16bc
00000030: 2baf 1f3b 1f77 1a3e de29 a43d 127e 843e
00000040: 1c73 310c c9df 19b6 b503 873d 0dd1 aabc
00000050: 15d1 ee3d 4db2 cf3d a436 423e 6b3f 3b3e
00000060: 9709 953d a813 8a3d b8f7 103c 55e4 043e
00000070: 10d3 003e 6379 873c e336 96b9 cefb 9c3d
-2.0155e-13 0.025366912 -0.011079899 0.16942845 0.08832761 0.090797745 0.048307296 0.084761806
0.10756708 -0.0055558695 0.117962986 -0.009213128 0.0024365883 0.15084504 0.08015798 0.25877434
1.3670223e-31 -2.2929037e-06 0.06592504 -0.020851636 0.11660973 0.1014143 0.18966156 0.18285911
0.0727722 0.067420304 0.008848123 0.12977727 0.12580514 0.016537374 -0.00028651123 0.076652154

fc4.weight f4 [10, 32]
00000000: 054f f63b 3a91 86be 809d 783e bfd7 64be
00000010: 1af0 c3be 190d 00be c44a 1a3e 8ebd 8c3e
00000020: ffe6 db3d 16a3 e0be 09f7 113e a182 c835
00000030: 321c b8bd d1b2 0e3e 4aa0 6d3c 9ccd 68be
00000040: 7258 69bb 62d3 11bb 47c8 243e 250c 803e
00000050: 4c29 87be 510d ab3d a026 76bd e84f febe
00000060: 16bb ca3d 6d23 463e bf37 943e efc6 273e
00000070: 3511 4bbe b8c4 6f3d bec4 5a3a e120 8ebe
00000080: f9b3 eb3b 3541 9ebe 132d 9fbe 5181 79bd
00000090: 0955 3e3e 22d7 86be ca21 3b3d 73ab 9cbe
000000a0: e887 a5be f930 403e 8c23 313e 3b2f fcba
000000b0: 0b6c dfbd ca57 b63c 21df 343e 2b9a f43c
000000c0: 09ad f939 f285 79bc cac4 883e befe 91be
000000d0: 2e60 94be b67a 26bd 8f3a ee3d 4ea1 453e
000000e0: 4f58 c43d cd2f 7dbd d4da 44be ba67 b3be
000000f0: b58f 93be ec7a 19be f1cd 17bb fdfc 703e
00000100: 6d36 2abc 8a84 97bd 272b 873e 7f7b 9bbc
00000110: d22c 243d adf3 a23d 726e 813e ab7b 27be
00000120: 4a79 1e3e a393 60be f4db 94bd b045 ac3c
00000130: e7b3 63be 9fe0 fc3c 721e 2f3d ffa5 f23d
00000140: 4c9a 5a3b 8516 3abb 0c55 96be 86a9 843e
00000150: 63d1 6b3e 5767 75be f63d a0be 8d80 11bd
00000160: 6cc7 923e 66e1 2b3d c9fe 30bd 893f 6fbd
00000170: fb7b 83be acbc 84be c6b8 65bc a78f 3a3e
00000180: 0a34 423c 11d5 88be c693 1c3d fe6d 7b3e
00000190: 6733 653d bbc6 9bba 9499 34bd 5ee3 933e
000001a0: 9282 13be 58f3 543e 1d07 f8be 16ad b7bb
000001b0: 4880 59be b2fe 84be 23ec 8c3b 2c8a 4dbe
000001c0: b39b 6cbb e20d ae3b d0f8 643d 30a1 edbd
000001d0: b870 463e 6c35 c23d 30a9 3abe ca5e 533e
000001e0: de6c 23bc 7a1c 353e f5fa 15bd bd3a 363e
000001f0: 46c2 bd3d 35ec 2e3e 9749 7ebc 9cb5 bcbc
00000200: 40e9 fb3a e849 803d 8fa3 aabc 34f1 04bf
00000210: 5573 2abe 4ecf 513e 9e52 e5be 3c01 74bd
00000220: 8438 b9be f95b a1bc 937f a4bd b447 1dad
00000230: 2c30 853e 2f7f 9d3e 0179 7dbe 95b9 273e
00000240: 1c5d 2ebb fab2 333b 1d55 18be ea74 99bd
00000250: aff5 a8be bf18 5bbe 802f 223e a330 1b3d
00000260: aeb4 f0bc 21b4 2c3e a833 63be 0730 e6be
00000270: 1969 4e3e 4a8e d0bd 230d 3e39 e1d1 89bd
00000280: 8547 1cba dc82 7d3e d629 73bb 9131 523e
00000290: f7ba 313e 3717 a2bd 3d45 8f3e e50d 17be
000002a0: 1cf1 4b3e 92d7 8abb eabf 043e eac6 f0bb
000002b0: 97ce 2fbe c282 97be c84b 12be 2b97 61be
000002c0: b445 cb3b c221 0bbc f153 f23d 7dba 02be
000002d0: 3d87 87be 2a38 2f3e a206 dc3c e10c ff3d
000002e0: 02c6 3bbe ff45 b63d ede3 10be 4c40 4c3e
000002f0: 22c7 a63e 819e 11be ca78 1b3c be9d cabe
00000300: b338 50bb 0837 743e ee73 ab3d fcb0 59be
00000310: 455d 52be dfde 0bbf 1a58 9f3d 89ae 62be
00000320: 8995 3bbd 3738 bfbe 50be 283e ca24 6ab7
00000330: e72a 763e d7c3 fa3d cce8 883e 942a fabe
00000340: 72ab 7a3a 5a88 83bb a4b2 6e3d f70c 9f3c
00000350: e196 80be dbdb 303d b408 0dbe 6bf5 503d
00000360: b213 6ebe 8999 66be 28de b33e 56da 65be
00000370: ac88 223c 25ed 4bbe f4a7 6c3a 0284 593d
00000380: 60c1 dabb 5465 90be 5176 4dbe 535e 7cbc
00000390: a8d4 56be 59c3 e5be de17 8e3e c08d f83d
000003a0: a36e 96bd bc87 fc3d f046 a73e c636 8fba
000003b0: 027c 11be 462d 703e d596 a3be 3537 383e
000003c0: 87ea dbbb a77e 3a3c b224 4fbe f927 90be
000003d0: 2de9 8a3c fd85 f9be ec45 c2be e4e9 23be
000003e0: 23b8 383d baa0 6b3e 82a5 9bbe 2828 57bd
000003f0: 0538 453e e0d4 643e 483c 873a 26b1 d43d
0.007516744 -0.26282674 0.24278831 -0.22347926 -0.3826912 -0.12504996 0.15067583 0.2748837
0.107374184 -0.43874425 0.14254393 1.4939179e-06 -0.08989753 0.139354 0.014503548 -0.22734684
-0.0035605696 -0.0022251238 0.16092025 0.25009266 -0.26398695 0.08352149 -0.06009543 -0.4967034
0.09898965 0.19349451 0.2894878 0.16384481 -0.19830783 0.058537215 0.0008345357 -0.2775946
0.0071930853 -0.30909124 -0.31089076 -0.06091434 0.18587126 -0.26336008 0.04568652 -0.30599555
-0.3233025 0.18768682 0.17298716 -0.001924015 -0.109092794 0.022258658 0.17663242 0.02985867
0.00047621902 -0.015229689 0.26712638 -0.28514665 -0.2897963 -0.04064437 0.11632263 0.19299814
0.09587156 -0.061813165 -0.19224101 -0.35040075 -0.28820577 -0.14988297 -0.0023163522 0.23534007
-0.010388953 -0.07398327 0.2640011 -0.018979786 0.040081806 0.07956634 0.25279576 -0.1635577
0.15475956 -0.21931319 -0.07268515 0.021029323 -0.22236596 0.030868826 0.042753644 0.118480675
0.0033356128 -0.002839477 -0.2936176 0.25910586 0.23029093 -0.23965202 -0.31297272 -0.035522986
0.28667772 0.041963004 -0.043211732 -0.0584102 -0.25680527 -0.25925195 -0.014021104 0.18218862
0.011853227 -0.26725057 0.038226865 0.24553677 0.055957224 -0.0011884788 -0.044091776 0.28884405
-0.14405277 0.20795953 -0.48442927 -0.0056053502 -0.21240342 -0.25975567 0.0043006106 -0.2007224
-0.0036103546 0.0053117136 0.05590135 -0.1160301 0.19378936 0.09482846 -0.18228602 0.20641628
-0.009974686 0.17686644 -0.036616284 0.17795844 0.0926557 0.17082293 -0.015520475 -0.023035817
0.0019219294 0.062640965 -0.020829944 -0.51930547 -0.16645558 0.20489237 -0.44789594 -0.05957149
-0.3617593 -0.019697176 -0.08032145 -8.940338e-12 0.26013315 0.30761096 -0.2475319 0.16379388
-0.002660579 0.002741991 -0.14876218 -0.07493003 -0.32999942 -0.21396159 0.15838432 0.03788818
-0.02938303 0.16865589 -0.22187674 -0.44958517 0.20157279 -0.101833895 0.00018124706 -0.06729484
-0.0005961585 0.2475695 -0.0037103794 0.2052672 0.17356478 -0.07914584 0.27982512 -0.14751394
0.19916195 -0.0042371238 0.12963834 -0.007347931 -0.17168652 -0.29591948 -0.14286721 -0.22030322
0.0062033776 -0.008491935 0.11832417 -0.12766452 -0.26470366 0.17111269 0.026858632 0.12453628
-0.18337253 0.089000694 -0.14149447 0.19946402 0.325738 -0.1422062 0.009489248 -0.39573473
-0.0031772077 0.23849118 0.08371721 -0.2125892 -0.20543392 -0.5463695 0.07780476 -0.22136892
-0.045796905 -0.37347576 0.16478848 -1.39560525e-05 0.24039803 0.12244385 0.2674011 -0.4886061
0.00095622905 -0.004014057 0.058275834 0.019415362 -0.2511511 0.04317842 -0.13772851 0.0510153
-0.232497 -0.22519507 0.3513043 -0.2244657 0.00992028 -0.19914682 0.00090277125 0.053104408
-0.006675884 -0.28202307 -0.20064665 -0.015403348 -0.2097956 -0.448756 0.27752584 0.12136412
-0.07345321 0.12330577 0.3267131 -0.0010926358 -0.14207461 0.2345477 -0.31951013 0.1798981
-0.0067113074 0.011382735 -0.20228842 -0.28155497 0.01695689 -0.48735037 -0.3794397 -0.16007191
0.04509748 0.23010531 -0.3039971 -0.05252853 0.19259651 0.2234683 0.0010317648 0.10385351

fc4.bias f4 [10]
00000000: 32aa 24be b330 323e fc23 9e3b b666 1cbe
00000010: afd5 593e 48b8 2cbd 9071 6e3b b8d3 e0bd
00000020: e8d4 b6bc 4bba 7b3e
-0.1608055 0.1740139 0.004826067 -0.15273556 0.2127292 -0.04216793 0.0036383606 -0.10977882
-0.022318318 0.24582784
